lab2 - Least Squares with NumPy and PyTorch and classification with PyTorch/lightning_logs/version_0/checkpoints/epoch=99-step=2000.ckpt (torch, 811467 bytes, 15 tensors)

net.0.weight f4 [256, 2]
0	0x3dd4a030	0.10382116
1	0x3f67b8a1	0.90516096
2	0xbec905d0	-0.39262247
3	0x3ec33a3a	0.3813036
4	0xbec2b2da	-0.38027078
5	0x3ec3b66a	0.38225108
6	0xbfcf9cf3	-1.6219772
7	0x3eb1c10a	0.3471759
8	0x3bf45f98	0.0074576847
9	0x3ef479aa	0.47749072
10	0xbc3c403b	-0.011489923
11	0xbf174963	-0.59096354
12	0xbce8a0a8	-0.02839692
13	0xbf0ee0d2	-0.558118
14	0xbcc508c8	-0.024052039
15	0xbf0ed5d8	-0.5579505
16	0xbef40a84	-0.47664273
17	0xbcfee42f	-0.031114666
18	0xbd835eac	-0.064145416
19	0xbf890683	-1.0705112
20	0x3b8df21d	0.0043318407
21	0x3eebf1a4	0.46082795
22	0xbcf928c8	-0.030414954
23	0xbf0c2231	-0.5473967
24	0xbd22e63e	-0.039770357
25	0xbf02cbb4	-0.51092076
26	0xbc2a2a9a	-0.010386134
27	0x3edc0949	0.42975834
28	0xbecce0be	-0.40015215
29	0x3ea76b0f	0.32698867
30	0xbd27744c	-0.040882394
31	0xbf05911a	-0.5217453
32	0x3e0062dd	0.12537713
33	0x3f73485b	0.9503228
34	0xbe8522e2	-0.26003176
35	0xbed3ab0b	-0.41341433
36	0xbddd41e4	-0.10803583
37	0x3e5633fe	0.20918271
38	0xbd007a45	-0.031366605
39	0xbf0995be	-0.53744113
40	0xbd101963	-0.03518046
41	0xbf07d23d	-0.53055173
42	0x3f176cea	0.59150565
43	0x3e79735d	0.24360414
44	0xbf5436f2	-0.8289634
45	0xbe68cd95	-0.22734673
46	0xbcf0b2d0	-0.02938214
47	0xbf0ea768	-0.5572419
48	0x3fd38bcc	1.6527038
49	0xbee270b7	-0.4422662
50	0x3f8403a1	1.0313607
51	0xbfcd1c41	-1.6024247
52	0x3da708b8	0.0815596
53	0x3f6225fc	0.8833921
54	0xbfb77449	-1.4332362
55	0x3e80b96c	0.25141466
56	0xba7557bd	-0.00093590823
57	0x3eeb0e9d	0.45909587
58	0xbd8777c8	-0.06614643
59	0x3e97ebac	0.2967199
60	0xbf42cb24	-0.7609122
61	0xbe33dfc6	-0.17565832
62	0xbc0ddb81	-0.008658291
63	0x3edb0512	0.42777306
64	0xbecfe8c1	-0.40607265
65	0x3d883f6b	0.06652721
66	0x39b0067a	0.0003357416
67	0x3ef5af62	0.4798537
68	0x3fdfd832	1.7487853
69	0xbe9cff25	-0.3066341
70	0x3fd4caca	1.6624386
71	0xbe9d60ba	-0.3073786
72	0xbf11d344	-0.5696299
73	0xbdd7aaab	-0.10530599
74	0xbf29bdf6	-0.6630548
75	0xbe175b82	-0.14781001
76	0x3f841894	1.0320001
77	0xbfd4a888	-1.6613932
78	0xbd1f2cf5	-0.038861234
79	0xbf84b1c9	-1.0366756
80	0xbeb56a49	-0.35432652
81	0xbd0a0f22	-0.033705838
82	0xbf286547	-0.65779537
83	0xbe18c663	-0.14919429
84	0x3f26b252	0.65115845
85	0x3e26bae0	0.16282225
86	0xbddf4502	-0.10901834
87	0xbf24fbd4	-0.6444676
88	0x3f59a30b	0.8501441
89	0xbfbbfba1	-1.4686166
90	0x3d85698d	0.06514273
91	0x3f6028ad	0.87562066
92	0xbf3e6ed5	-0.74387866
93	0xbe43847b	-0.19093506
94	0xbf92768d	-1.1442429
95	0xbeb5e491	-0.35525945
96	0x3d8260a3	0.06366088
97	0xbf784cc5	-0.9699214
98	0xbd1703b5	-0.03686877
99	0xbf056bae	-0.5211743
100	0x3b1a2650	0.0023521371
101	0x3efbafca	0.49157554
102	0xbea3b09e	-0.31970686
103	0xbeb6cb52	-0.35701996
104	0x3d9888d9	0.074479766
105	0x3f5e5055	0.86841327
106	0xbced6089	-0.028976696
107	0x3ed0087c	0.40631473
108	0xbf380096	-0.71875894
109	0xbe2f377c	-0.1711101
110	0x3d9f258b	0.07770833
111	0x3f65ee8f	0.89817137
112	0x3d976897	0.07392996
113	0xbf7c685c	-0.9859674
114	0x3fcfe69a	1.6242249
115	0xbf3205f3	-0.6954033
116	0xbf3ab472	-0.7293159
117	0x3e336ae5	0.17521246
118	0x3efe1972	0.49628788
119	0x3f97b2e8	1.1851473
120	0xbc98ab7a	-0.018636454
121	0x3ef53651	0.47893003
122	0x3f372834	0.7154572
123	0x3fc43927	1.5329942
124	0xbfd84698	-1.6896544
125	0x3ed8bbc1	0.42330745
126	0xbfc01a78	-1.5008078
127	0x3e6d42b1	0.23169972
128	0xbd108d4e	-0.03529101
129	0xbf0a1ce7	-0.5395035
130	0x3e025184	0.12726408
131	0x3f74d06b	0.9563052
132	0x3f175812	0.5911876
133	0x3e234079	0.15942563
134	0xbe147cb0	-0.1450069
135	0xbf2dbd54	-0.67867017
136	0x3dc9a354	0.098456055
137	0x3f4db546	0.80354726
138	0xbc8c28d5	-0.017109314
139	0xbf163f27	-0.5869011
140	0x3db6f54f	0.08933508
141	0x3f68a7d3	0.9088108
142	0xbf249595	-0.64290744
143	0xbe007891	-0.12545992
144	0xbec2d243	-0.38051042
145	0xbca187ef	-0.019718139
146	0xbd7b4106	-0.061341308
147	0x3ea2bef0	0.317863
148	0xbce4fdb7	-0.027953012
149	0x3ecbe636	0.39824075
150	0xbf730023	-0.94922084
151	0xbfcc35ae	-1.5953882
152	0xbd0560d4	-0.032563046
153	0xbf0aed9b	-0.5426881
154	0xbf41fa0c	-0.75772166
155	0xbe51a89e	-0.20474479
156	0xbdbe7bf7	-0.09300988
157	0x3ed69e28	0.4191754
158	0xbd41d149	-0.04731873
159	0x3f26f88d	0.6522301
160	0xbec45900	-0.38349152
161	0xbe6feb48	-0.23429596
162	0xbd4b0b31	-0.04957122
163	0x3f2cf1ef	0.6755666
164	0xbcbe1c9e	-0.023207005
165	0x3ee3ecc6	0.4451658
166	0xbfd97a0e	-1.6990373
167	0x3ebf2254	0.37330878
168	0x3f89b7f3	1.0759262
169	0xbfd71e74	-1.6806169
170	0x3f1d7c0b	0.615174
171	0x3e48b318	0.19599569
172	0xbd34d0f0	-0.04414457
173	0x3eaebb1d	0.3412713
174	0xbd72b765	-0.05925693
175	0xbec70e6d	-0.38878193
176	0xbf35049e	-0.7071017
177	0xbe61767b	-0.22017853
178	0x3f2a3037	0.6647982
179	0x3e7edc6a	0.24888769
180	0xbd2285aa	-0.039678253
181	0xbefb35ad	-0.4906439
182	0xbd0ec9a3	-0.034860265
183	0xbef92c45	-0.48666587
184	0x3b4a9098	0.0030908938
185	0x3ee9aa86	0.45637912
186	0xbcf244a6	-0.02957375
187	0x3f32a674	0.6978524
188	0x3f8758bb	1.0573953
189	0xbfd85a18	-1.6902494
190	0x3df1386a	0.11778338
191	0x3f6ee99d	0.93325216
192	0x403fa1f7	2.9942605
193	0xbce5c82c	-0.028049551
194	0x3fd48fbb	1.6606363
195	0xbebf2edc	-0.37340438
196	0xbdcc506e	-0.09976278
197	0xbec1947d	-0.378086
198	0x3da7945a	0.08182593
199	0xbf899b9b	-1.0750612
200	0x3f337faa	0.70116675
201	0x3e46bd6d	0.19408198
202	0xbee62606	-0.44950885
203	0x3db67524	0.089090616
204	0x3f21a75c	0.63145995
205	0x3e629f5b	0.22131102
206	0x3d7186d6	0.05896648
207	0x3f646100	0.8921051
208	0xbcabd537	-0.020975692
209	0xbe8e1c0d	-0.27755776
210	0xbda29f45	-0.079405345
211	0x3f10e63f	0.5660133
212	0x4050987f	3.2593076
213	0x3e0b7c31	0.13621594
214	0x3f1e10b2	0.61744225
215	0x3e0e3ea5	0.13891084
216	0xbd30b6f2	-0.04314322
217	0xbf111c5b	-0.5668389
218	0xbfde2347	-1.7354516
219	0x3fb79059	1.4340926
220	0xbdc17361	-0.09445835
221	0x3ea55447	0.3229086
222	0xbf57e046	-0.8432659
223	0xbe67e3b5	-0.22645457
224	0x3f47e12a	0.7807795
225	0x3e3cd754	0.18441516
226	0xbec28a49	-0.37996128
227	0x3eec6352	0.46169525
228	0x3f41b583	0.7566759
229	0xbfaeb932	-1.3650267
230	0xbc0b1cf9	-0.008490794
231	0x3efdf69b	0.49602208
232	0x3f548b2e	0.8302487
233	0x3ff67d4b	1.9256986
234	0xbf57bae9	-0.8426958
235	0xbe9206a7	-0.285207
236	0x3f14fd51	0.5819903
237	0x3e17ce1a	0.14824715
238	0xbfdb6f94	-1.7143426
239	0x3e9f5673	0.31120643
240	0xbd7739dd	-0.060357917
241	0xbf32958c	-0.6975944
242	0xbee6e3e5	-0.45095745
243	0xbe9d3702	-0.3070603
244	0x3dab7400	0.083717346
245	0xbf80058d	-1.0001694
246	0xbefcff21	-0.49413398
247	0xbde45fa0	-0.111510515
248	0x3df6ae91	0.12045015
249	0x3f71969d	0.9437044
250	0xbed11d93	-0.40842876
251	0x3e82851d	0.25492182
252	0x3f49c804	0.78820825
253	0x3ed67276	0.41884202
254	0xbc950a09	-0.018193262
255	0xbf876c20	-1.0579872

net.0.bias f4 [256]
0	0x400405b5	2.0628483
1	0x40084f7c	2.1298513
2	0x40029e67	2.040918
3	0x3ff42860	1.9074821
4	0xbfb320b9	-1.3994361
5	0x4006910b	2.1026027
6	0x3fc57dfd	1.5429074
7	0x3fd7957b	1.6842493
8	0x3f547c41	0.83002096
9	0xc0361a75	-2.8453648
10	0xbfd50e22	-1.6644938
11	0x3fb32d9a	1.3998291
12	0x3f31e183	0.6948473
13	0xbfc400e1	-1.5312768
14	0x3ff4a0ce	1.9111574
15	0x3f4f25f8	0.8091731
16	0x401baa7d	2.4322808
17	0xc0458166	-3.0860229
18	0xbf4820c0	-0.7817497
19	0x3fa168eb	1.2610143
20	0x3f894f9d	1.0727421
21	0xbf627780	-0.8846359
22	0x3f824f4a	1.0180447
23	0x3fb95e3f	1.4481887
24	0xbfad1156	-1.3520916
25	0xbf7aed7b	-0.98018616
26	0x3fee7f3a	1.8632576
27	0x4003fe55	2.0623982
28	0xbfd9853f	-1.6993788
29	0xbf6f0fdd	-0.9338358
30	0x3fcdf99d	1.6091801
31	0xbfbee674	-1.4914079
32	0x3f33242f	0.69977087
33	0xbfef5e51	-1.8700658
34	0xc02c5f3f	-2.6933134
35	0xc01bd983	-2.4351509
36	0x3f574f6a	0.8410555
37	0x3f98f27f	1.1949004
38	0xbf4921be	-0.7856711
39	0xc021d8db	-2.5288608
40	0x3e8ca730	0.27471304
41	0x3fa3908c	1.2778487
42	0xc0077dd5	-2.1170552
43	0x3f3128c1	0.6920281
44	0xbf5063cd	-0.81402284
45	0x3fcd73b0	1.605093
46	0x3f5fec63	0.8747007
47	0x3f91a714	1.1379113
48	0xbfe285d1	-1.7697088
49	0x3f72a48e	0.9478234
50	0xbffbd5c6	-1.9674613
51	0xc02aba51	-2.6676219
52	0x3fec6552	1.846842
53	0xbfc92fa8	-1.5717669
54	0x3fbfd99a	1.4988282
55	0x4004ddf5	2.0760472
56	0xbff2925f	-1.8950919
57	0x3d2fa69e	0.042883508
58	0xbec38f38	-0.38195205
59	0xbf9eaf4a	-1.2397244
60	0xc0063f25	-2.097604
61	0xbfbeb2cb	-1.4898313
62	0x3fc1763c	1.5114207
63	0x401e4308	2.4728413
64	0x3f950f37	1.1645268
65	0x40176219	2.3653624
66	0xbfe65657	-1.7995099
67	0x3ef17319	0.47158125
68	0x3f5c01da	0.85940325
69	0x3fe52aff	1.7903746
70	0x4004abbf	2.0729825
71	0x3fdc4424	1.7208295
72	0x3f52f11a	0.8239914
73	0xbf89e9ea	-1.077451
74	0xbfbb0618	-1.4611235
75	0x3f776b59	0.96648175
76	0x3fa99da3	1.3251232
77	0x3f185990	0.5951166
78	0x3dff4de0	0.12466025
79	0x3f6c520c	0.92312694
80	0xbfcb1422	-1.5865519
81	0x3f8060ec	1.0029578
82	0xbfec8d3b	-1.84806
83	0x3ffc666b	1.9718755
84	0xbf57e426	-0.843325
85	0x3f2e0d25	0.67988807
86	0xbf87281e	-1.0559118
87	0xc00adee8	-2.169855
88	0xbda50137	-0.08056872
89	0xbfaf7278	-1.3706808
90	0x3e000efd	0.12505718
91	0x3ef00281	0.4687691
92	0xbfd61304	-1.6724553
93	0x3f82e08b	1.0224775
94	0xbf3b821c	-0.73245406
95	0x4010baa5	2.2613919
96	0x400c5d8d	2.19321
97	0xc003fe73	-2.0624053
98	0xc00eef99	-2.2333739
99	0xbff3e7d9	-1.9055129
100	0xbff962eb	-1.9483312
101	0x3fb44f70	1.4086742
102	0xbfc0fb8f	-1.507677
103	0x3feecb1a	1.8655732
104	0xbf7dabc1	-0.990902
105	0x3f1dbc8d	0.6161583
106	0x3f5ccb9d	0.8624819
107	0xbffbcfce	-1.9672792
108	0x3f9dfed6	1.2343395
109	0xbf81fb65	-1.0154845
110	0xbcf13d95	-0.02944831
111	0x3f82c4b7	1.0216283
112	0x3f952eba	1.1654885
113	0x4025230f	2.5802648
114	0xbf6f8dd2	-0.93575776
115	0xc00708e5	-2.1099179
116	0xbf4a28df	-0.78968614
117	0x3d352fcb	0.044235032
118	0xbfea5155	-1.830607
119	0x401e39ad	2.4722703
120	0x400250bd	2.0361779
121	0xc02169e2	-2.5220876
122	0xbff01be6	-1.8758514
123	0xbeb875f9	-0.36027506
124	0x40153d09	2.3318503
125	0x3fd37479	1.651992
126	0xbebf666d	-0.37382832
127	0xc02b14eb	-2.6731517
128	0xbe54235e	-0.20716617
129	0x4002f6eb	2.0463207
130	0xbf3c2383	-0.73491687
131	0x400c285f	2.189964
132	0x3f1e8f83	0.6193773
133	0x3f2a2518	0.6646285
134	0x3fc22517	1.5167569
135	0xbfe45d19	-1.7840911
136	0xbfffdf1a	-1.998996
137	0x4000fd34	2.0154543
138	0x3f2f5d08	0.6850133
139	0xbf70f4be	-0.94123447
140	0x3e078c8f	0.13237213
141	0x3fbcbb89	1.4744731
142	0xbcd8f0e8	-0.02648206
143	0xc00ccf98	-2.2001705
144	0x3f5d8369	0.8652864
145	0x3ff2e186	1.8975074
146	0xc010eaa9	-2.2643225
147	0xc03deb0f	-2.9674718
148	0xbdcb130e	-0.09915744
149	0xbfbd483b	-1.4787668
150	0xbf6dbfa3	-0.9287054
151	0xc04d6ced	-3.2097733
152	0xbfd31452	-1.6490576
153	0x3fbff5cc	1.4996886
154	0x3f664f14	0.89964414
155	0x40091ceb	2.14239
156	0x3f820656	1.0158184
157	0xbfee16d1	-1.8600713
158	0xbf789d95	-0.9711545
159	0xbf2436db	-0.641462
160	0xc022b374	-2.542203
161	0x3dedd0cc	0.116120905
162	0x3fefee82	1.8744662
163	0x400ecd7f	2.2312925
164	0xbfbe304e	-1.4858491
165	0xbf514a93	-0.81754416
166	0x4028e154	2.638753
167	0xbfe3e7ea	-1.780515
168	0x4022e906	2.5454726
169	0xbf120294	-0.57035184
170	0xbedf2349	-0.43581608
171	0x3fec6313	1.8467735
172	0xbf12cb35	-0.5734132
173	0x3f77cae1	0.96793944
174	0x401942d4	2.3947039
175	0x3ef852c2	0.4850064
176	0x3eb7f584	0.359295
177	0xbd185925	-0.03719439
178	0x4022d96b	2.5445201
179	0x3fc6bc63	1.5526241
180	0xbf633674	-0.88754964
181	0xbff391d9	-1.9028884
182	0xbf54aaa7	-0.83072895
183	0xc0580ce5	-3.375787
184	0x3f3f9aaf	0.74845403
185	0x4018b78f	2.3862035
186	0x40005718	2.0053158
187	0xbe8cf9cf	-0.2753434
188	0xbf637f55	-0.8886617
189	0x3da5675f	0.08076357
190	0xc00d7a65	-2.2105954
191	0x3f9a3283	1.2046665
192	0xbfe72529	-1.8058215
193	0x3fef9535	1.8717409
194	0x3fc8d349	1.5689479
195	0xbf630275	-0.88675624
196	0xbfaf94dd	-1.3717304
197	0xbfd03f38	-1.6269293
198	0x3f856093	1.0420097
199	0xc00294ab	-2.040324
200	0xbf6036c7	-0.87583584
201	0xbf541ce8	-0.8285661
202	0xbf537a76	-0.82608736
203	0x400b1d2d	2.1736557
204	0x4000ed9d	2.0145028
205	0x3f575087	0.8410725
206	0x3f3c20d3	0.73487586
207	0xbf7c123f	-0.9846534
208	0x4001f485	2.0305493
209	0x402c181b	2.6889713
210	0xbf76bc62	-0.963812
211	0x3f863e14	1.0487695
212	0x3fa4a067	1.2861451
213	0x3fb0a43f	1.3800124
214	0xbf9800dd	-1.1875263
215	0xbf9bc6b2	-1.2170012
216	0xbf4ea998	-0.8072753
217	0xbfbd38da	-1.4782975
218	0x3f533f07	0.8251805
219	0x3fa5f42f	1.2965144
220	0x3fb875ff	1.441101
221	0xbe14656d	-0.14491816
222	0x400bf9fd	2.187133
223	0x3f91c72d	1.1388909
224	0xbf5a1335	-0.8518556
225	0x4017d49a	2.3723512
226	0x400728a3	2.1118553
227	0x3f7381e1	0.95120054
228	0x3fe476f4	1.7848802
229	0x3fa6e03b	1.303718
230	0x3feb6b8f	1.8392199
231	0xbee0f550	-0.4393716
232	0xbf00db9a	-0.50335085
233	0x3ee17477	0.44034168
234	0xbeb7678e	-0.35821193
235	0x3ec606e3	0.3867713
236	0xbff1d65e	-1.8893545
237	0xbfda1b74	-1.7039628
238	0x3fcab5d4	1.583674
239	0x3fb9f341	1.452736
240	0xbf689f94	-0.90868497
241	0xbf37424b	-0.7158553
242	0xbf6eebc6	-0.9332851
243	0xbda7495a	-0.081682876
244	0xc004762a	-2.0697122
245	0xbddccc4a	-0.107811525
246	0x3f9b9091	1.2153493
247	0x3f162889	0.586556
248	0x3fed8801	1.855713
249	0xbf13ac0d	-0.57684404
250	0x3f62552c	0.8841121
251	0x40179e39	2.3690321
252	0xc015e958	-2.3423672
253	0x3eca6953	0.3953348
254	0x402c4ace	2.6920657
255	0x3fa6d5d8	1.303401

net.2.weight f4 [256, 256]
0	0xbd3af23f	-0.04564118
1	0xbd727f5e	-0.059203498
2	0xbcb36553	-0.021898901
3	0xbd6b0a71	-0.057383005
4	0xbd315dce	-0.04330235
5	0xbd1e6ce5	-0.03867807
6	0xbc96e5fa	-0.018420208
7	0xbbe34010	-0.006935127
8	0xbcf08fa2	-0.029365364
9	0x3c0a787c	0.008451577
10	0xbda259ae	-0.07927261
11	0xbd6b554b	-0.05745439
12	0xbde4ed49	-0.11178071
13	0xbd50ea52	-0.051004715
14	0xbdbc98b0	-0.0920881
15	0xbdaa53aa	-0.08316739
16	0x3d2b4795	0.041816313
17	0xbd4505cc	-0.04810123
18	0xbd47037c	-0.048587307
19	0xbe031703	-0.12801747
20	0xbdd1e99f	-0.10249638
21	0x3befabf3	0.007314199
22	0xbd32f382	-0.04368926
23	0xbd93c0df	-0.072145216
24	0xbdeac6e0	-0.11463714
25	0xbd92e65b	-0.07172843
26	0xbd86a270	-0.06573951
27	0xbdd67c4b	-0.10472926
28	0xbdcf1074	-0.1011056
29	0xbd9ee564	-0.077585965
30	0xbd29bcba	-0.04143975
31	0xbc4595a5	-0.012059604
32	0xbad44d13	-0.0016197286
33	0x3c4e984c	0.012609553
34	0xbde083aa	-0.10962613
35	0xbc8d5f90	-0.017257482
36	0xbdb40c17	-0.087913685
37	0xbdd005a9	-0.101573296
38	0xbdf7820a	-0.1208535
39	0xbd28d133	-0.041215133
40	0xbd159eeb	-0.03652851
41	0x3b0b194c	0.0021224795
42	0xbd57789d	-0.05260526
43	0xbdcb57c2	-0.09928848
44	0xbdc559b8	-0.09636253
45	0xbd70fb9b	-0.0588337
46	0xbbd15087	-0.0063877734
47	0xbd8cf67f	-0.06882953
48	0xbdf1833f	-0.11792611
49	0xbd90c0e7	-0.07068043
50	0xbdafaaab	-0.08577474
51	0xbd539264	-0.05165328
52	0xbdbf79a8	-0.09349376
53	0x3bbb26cb	0.0057114116
54	0xbc998238	-0.018738851
55	0xbca4118d	-0.0200279
56	0xbcfc5dd4	-0.03080646
57	0xbdbe419a	-0.09289856
58	0xbd07d964	-0.033166304
59	0x3c63fb05	0.013914828
60	0x3bb60538	0.0055548213
61	0xbca51668	-0.020152286
62	0xbd049bb7	-0.032375064
63	0xbdd2f723	-0.10301044
64	0xbcafac60	-0.0214445
65	0xbc441fbf	-0.0119704595
66	0xbb72083e	-0.0036931182
67	0xbdb4b1d5	-0.08822981
68	0xbd2bb40d	-0.041919757
69	0xbd5d4185	-0.054017562
70	0xbd22fd51	-0.039792363
71	0xbdeed59d	-0.11661837
72	0xbdea37e9	-0.11436445
73	0xbcbf09e4	-0.023320146
74	0xbdb065f9	-0.086132
75	0xbe052fff	-0.1300659
76	0xbd824d36	-0.06362383
77	0xbcbccc20	-0.023046553
78	0xbc4d7e57	-0.012542329
79	0xbd11f28b	-0.035631698
80	0xbda481a0	-0.080325365
81	0xbc50e2a2	-0.012749346
82	0xbd9060e2	-0.07049729
83	0x3caa58c6	0.020794284
84	0xbe09266f	-0.13393568
85	0xbcad86ed	-0.021182502
86	0xbb9df251	-0.004820146
87	0xbd6967c2	-0.056983717
88	0xbd2fc599	-0.042913053
89	0xbd63f076	-0.055649243
90	0xbdd6df17	-0.1049177
91	0xbde4e553	-0.111765526
92	0xbdc90afe	-0.0981655
93	0xbd6bb1d4	-0.057542637
94	0xbd4a2efa	-0.049361207
95	0xbd836bae	-0.06417023
96	0xbd12bddf	-0.035825606
97	0xbd4f32c9	-0.050585542
98	0xbd6c57d5	-0.05770095
99	0xbda6f652	-0.081524506
100	0xbdce1bd8	-0.100639045
101	0x3beaa184	0.0071603674
102	0xbd9f20ce	-0.07769929
103	0x3c123ee3	0.008926126
104	0xbd3403a1	-0.043948773
105	0x3c745bec	0.014914494
106	0xbdb13758	-0.08653134
107	0xbda815b1	-0.08207262
108	0xbe066d6c	-0.13127679
109	0x3c1d282c	0.009592097
110	0xbda51c75	-0.080620684
111	0xbdcb4136	-0.099245474
112	0xbda192e1	-0.07889343
113	0xbd83599a	-0.064135745
114	0xbe05feef	-0.1308553
115	0xbd058c47	-0.032604482
116	0xbd72c5f9	-0.059270833
117	0xbe01d9fa	-0.12680808
118	0xb8cc5797	-9.743793e-05
119	0xbd9ee029	-0.07757599
120	0xbdec19cb	-0.11528357
121	0xbc24ee52	-0.010066586
122	0xbd00029e	-0.031252496
123	0xbda3d6a2	-0.07999922
124	0x3a66126d	0.00087765494
125	0xbdb3f700	-0.08787346
126	0xbd4dd71f	-0.050253984
127	0xbdb72b7b	-0.0894384
128	0xbdf44894	-0.11927906
129	0xbd839825	-0.06425504
130	0xbd1c3ce7	-0.03814402
131	0xbdfefafe	-0.12450217
132	0xbd531325	-0.05153193
133	0xbc6b9fe8	-0.014381386
134	0x3bf57138	0.0074903034
135	0xbd413255	-0.04716714
136	0x3bcdf617	0.0062854397
137	0xbd781c12	-0.060573645
138	0xbdee4ecc	-0.11636123
139	0xbd303854	-0.04302247
140	0xbcf2edad	-0.029654348
141	0xbde7652e	-0.11298595
142	0xbde8cdf2	-0.11367406
143	0xbdf8ea43	-0.12154057
144	0xbd14bb83	-0.036311638
145	0xbddbe75f	-0.1073749
146	0xbd2f38f2	-0.042778917
147	0xbd8ecfff	-0.06973266
148	0xbc9c4921	-0.01907784
149	0x3c76481c	0.015031841
150	0xbc9838c3	-0.018581754
151	0x3b2e000f	0.0026550328
152	0xbdc1733f	-0.094458096
153	0xbdcf6672	-0.10126962
154	0x3a95136a	0.0011373584
155	0xbdbaed85	-0.091273345
156	0xbd28a60b	-0.041173976
157	0xbde8bb78	-0.11363882
158	0x3d3c2c52	0.045940705
159	0xbd9d315a	-0.07675429
160	0xbd1f9825	-0.038963456
161	0xbca6f4a6	-0.02038033
162	0xbdee89d1	-0.1164738
163	0xbd666b47	-0.05625465
164	0x3a09f0ea	0.0005262034
165	0xbd0e50f4	-0.03474517
166	0xbdd86472	-0.105660334
167	0xbc3111b7	-0.010807446
168	0xbce9005e	-0.028442558
169	0xbba98b40	-0.0051740706
170	0xbdd95e16	-0.106136486
171	0xbc0ee25b	-0.00872096
172	0x39851130	0.00025380543
173	0xbccd1c7d	-0.025037998
174	0xbd742a86	-0.059610866
175	0xbda12e67	-0.07870179
176	0xbd283115	-0.041062433
177	0xbdd51000	-0.104034424
178	0xbd5aa3ab	-0.053378742
179	0xbde527c1	-0.11189223
180	0xbda2f9ab	-0.07957777
181	0xbce9a0d8	-0.02851908
182	0xbd4d43a6	-0.050113343
183	0xbdc63d4e	-0.09679662
184	0xbca0430a	-0.019563217
185	0xbd2184a0	-0.03943312
186	0xbd75f9da	-0.06005273
187	0xbc4982a7	-0.012299216
188	0xbd0f5354	-0.034991577
189	0xbc3c5e26	-0.011497056
190	0xbc29284d	-0.01032455
191	0xbd3f5378	-0.04671046
192	0xbb3f55df	-0.002919547
193	0xbdbf3582	-0.09336378
194	0xbd6f5df9	-0.05843923
195	0x3c10d53d	0.0088399025
196	0xbdf76aae	-0.120808944
197	0xbc6cb1e2	-0.014446707
198	0xbd06403d	-0.032776106
199	0xbcb8e6fc	-0.02257108
200	0xbcaea4cc	-0.021318816
201	0xbdc6498d	-0.096819974
202	0xbd80823e	-0.06274842
203	0xbc8ca7c5	-0.017169842
204	0xbc56379f	-0.013074785
205	0xbd10cfa9	-0.03535429
206	0x3cccb039	0.024986373
207	0xbd0bb289	-0.03410581
208	0xbdd1e9ba	-0.10249658
209	0xbdfa241e	-0.1221392
210	0xbcb36712	-0.021899734
211	0xbdd11619	-0.10209293
212	0xbd8a7504	-0.067606
213	0xbce28d70	-0.027655333
214	0xbd570255	-0.05249246
215	0xbd53b6ed	-0.051688123
216	0xbdcedfc0	-0.10101271
217	0xbdd5a7e0	-0.1043241
218	0xbdb09a97	-0.08623236
219	0x3bcb0c2a	0.0061965184
220	0xbd92d926	-0.07170324
221	0xbdfbbb1c	-0.12291548
222	0xbc6b711c	-0.014370229
223	0xbd86a2aa	-0.065739945
224	0xbe00c8fb	-0.12576668
225	0xbd81c3c9	-0.06336171
226	0xbda9572a	-0.08268578
227	0xbd90d871	-0.07072533
228	0xbd832903	-0.06404307
229	0xbb949b8e	-0.004535145
230	0xbd10d41f	-0.035358544
231	0xbd8430a3	-0.06454589
232	0xbce20486	-0.027590048
233	0xbc1ceff5	-0.009578695
234	0xbcf2bc54	-0.029630817
235	0xbdf7cae1	-0.12099243
236	0xbd8ee0cd	-0.06976471
237	0xbd8ba0b1	-0.06817759
238	0xbd5c7e9b	-0.053831678
239	0xbdfee99a	-0.124469
240	0xbdc06a2a	-0.09395249
241	0xbd8379ea	-0.06419738
242	0x3ce6e2cf	0.028184323
243	0xbc6a6445	-0.014306133
244	0xbdd0a4f8	-0.10187715
245	0xbd8cf579	-0.06882758
246	0xbcf7be51	-0.030242117
247	0xbd898099	-0.06713981
248	0xbd6ce628	-0.05783668
249	0xbdc07b7f	-0.09398555
250	0xbd1cfb74	-0.038325742
251	0xbd9e8c1f	-0.0774157
252	0xbc706430	-0.014672324
253	0xbc6d584f	-0.014486386
254	0xbd5f3fec	-0.05450432
255	0xbdbb22ff	-0.09137534

net.2.bias f4 [256]
0	0xbd68a120	-0.056794286
1	0xbdfc9a19	-0.12334079
2	0xbd95a56e	-0.07306944
3	0xbc982f0f	-0.018577127
4	0xbdbd0122	-0.09228732
5	0xbdc06932	-0.093950644
6	0xbd9fec9a	-0.078088
7	0xbdecefee	-0.115692005
8	0xbe1ac3ce	-0.15113756
9	0x3d7303b2	0.059329696
10	0xbda2eba3	-0.079551004
11	0xbdba8b1e	-0.09108566
12	0xbcacd40e	-0.02109721
13	0xbd834a53	-0.064106606
14	0xbdf860fc	-0.12127873
15	0xbdc37ac8	-0.09544903
16	0xbda7b816	-0.081894085
17	0xbcf8bbe9	-0.03036304
18	0xbe2893f9	-0.16462697
19	0xbda821fe	-0.082096085
20	0x3b810151	0.0039369245
21	0xbcadba91	-0.021207126
22	0xbe305fb8	-0.17224014
23	0xbc580d27	-0.0131867295
24	0xbdd946bd	-0.106091954
25	0xbd94a548	-0.072580874
26	0xbbe107aa	-0.0068673687
27	0xbcebbe54	-0.028777279
28	0xbd87c55f	-0.066294424
29	0xbd9a0c02	-0.075218216
30	0xbe0ed98e	-0.13950178
31	0x3c936fe1	0.017997684
32	0xbdc14855	-0.09437624
33	0xbdd6f789	-0.10496432
34	0x3c5e4785	0.013566856
35	0xbe3e37d2	-0.18575981
36	0xbdde5fff	-0.108581536
37	0xbd562438	-0.052280635
38	0xbda093d0	-0.07840693
39	0x3cee9562	0.029123966
40	0xbe10556a	-0.14095083
41	0x3d2e6934	0.0425808
42	0xbe85a189	-0.26099804
43	0xbd8b0075	-0.067871965
44	0xbdcca6fb	-0.099927865
45	0xbd70a674	-0.058752492
46	0xbcb6fc71	-0.02233717
47	0xbdc27036	-0.09494059
48	0xbdb516d3	-0.08842244
49	0xbbb0a3b9	-0.005390611
50	0xbd7b1a77	-0.061304536
51	0xbdd40689	-0.10352809
52	0xbe08fa62	-0.13376763
53	0xbddab4c5	-0.1067901
54	0xbd362136	-0.044465266
55	0xbe0742f1	-0.1320913
56	0xbdde534e	-0.10855733
57	0xbcdc709e	-0.026909169
58	0x3ba130c6	0.0049191443
59	0xbd4df439	-0.050281737
60	0xbdaede55	-0.085385
61	0xbe1741a7	-0.14771138
62	0xbd7e9322	-0.062152036
63	0x3dca3fd4	0.098754555
64	0xbd948713	-0.07252326
65	0xbe1c9b61	-0.15293647
66	0xbe2a0424	-0.16603142
67	0xbe3a999b	-0.18222658
68	0xbe04b3a0	-0.12959146
69	0xbe224823	-0.1584783
70	0xbe0bd6f6	-0.1365622
71	0xbdf16190	-0.11786187
72	0x3db3ccc3	0.087792896
73	0xbe4bc9e3	-0.19901232
74	0x3e458a5e	0.19291064
75	0xbe12eb30	-0.1434753
76	0xbd395b9e	-0.04525339
77	0xbdd79ce2	-0.1052797
78	0xbdf4e056	-0.11956851
79	0xbe4ea6df	-0.20180844
80	0xbe28fd15	-0.16502793
81	0x3e8a87a4	0.2705661
82	0xbded6ed1	-0.11593402
83	0xbe0ef92f	-0.13962243
84	0xbe03c069	-0.12866367
85	0xbdc7e1e6	-0.097598836
86	0xbd47adab	-0.048749607
87	0xbd00fe82	-0.031492718
88	0xbe0202e8	-0.12696421
89	0xbdd406a4	-0.10352829
90	0xbd12a0de	-0.035797946
91	0xbbdd24bb	-0.0067487634
92	0x3d16e513	0.036839556
93	0xbdad4726	-0.08460836
94	0xbd7881cd	-0.060670663
95	0xbda5d55d	-0.080973364
96	0xbd30a6ec	-0.04312794
97	0xbd37b40c	-0.04484944
98	0xbdcb9d60	-0.09942126
99	0xbd021649	-0.031759534
100	0xbe212885	-0.15738113
101	0xbdc544ed	-0.09632287
102	0xbd46e1a2	-0.048555024
103	0xbe08b96b	-0.13351981
104	0xbd8a0005	-0.06738285
105	0xbcb56ec7	-0.02214755
106	0xbde69d23	-0.1126044
107	0xbe152ca1	-0.14567806
108	0xbe0e989b	-0.13925402
109	0xbe07e221	-0.13269855
110	0x3dc289de	0.09498952
111	0xbd97e91d	-0.0741751
112	0xbe1785a0	-0.14797068
113	0xbdacfbcf	-0.08446466
114	0xbdf82ef5	-0.12118331
115	0xbbe247ad	-0.006905517
116	0xbd10b6e7	-0.03533068
117	0xbc5f9986	-0.013647443
118	0xbd5e71b2	-0.054307647
119	0x3d0777e0	0.033073306
120	0x3de803f7	0.11328881
121	0x3d5beba1	0.05369151
122	0xbdb83c08	-0.08995825
123	0xbda49479	-0.080361314
124	0xbda9d9e7	-0.08293515
125	0xbce241a9	-0.0276192
126	0xbdeb566a	-0.114910915
127	0xbd3edb0f	-0.04659563
128	0xbdd921fe	-0.106021866
129	0xbd23ea7d	-0.040018547
130	0xbe2d0078	-0.1689471
131	0x3d366a1e	0.044534795
132	0xbe02aa48	-0.1276027
133	0xbe3bec5d	-0.18351884
134	0xbda1b86b	-0.07896503
135	0xbd6df9fb	-0.058099728
136	0xbde9bab2	-0.114125624
137	0xbd6c1417	-0.057636347
138	0xbdb412bb	-0.08792635
139	0xbd9f4790	-0.07777321
140	0xbdbe2d64	-0.09286001
141	0xbe03c0fc	-0.12866586
142	0x3dbe944b	0.093056284
143	0xbce7bfa6	-0.028289627
144	0x3eb6d589	0.3570979
145	0xbde5c83a	-0.11219831
146	0xbd9d7cdd	-0.076898314
147	0xbd6bef58	-0.057601303
148	0x3bda12d8	0.0066550784
149	0xbd397729	-0.045279656
150	0xbd48f6fc	-0.049063668
151	0xbdab9b7b	-0.08379265
152	0xbde53e4b	-0.11193522
153	0x3e6a6083	0.22888379
154	0x3dda9d48	0.1067453
155	0xbd0b88cb	-0.034066003
156	0xbda99a6a	-0.08281405
157	0xbd19aadc	-0.03751646
158	0xbddec7a8	-0.10877925
159	0xbe05f24c	-0.1308071
160	0xbda1a1fa	-0.07892223
161	0xbdcf969f	-0.101361506
162	0x3c9a5e5f	0.018843828
163	0xbc4881f9	-0.012238019
164	0xbdf7eb59	-0.12105436
165	0xbe070ec3	-0.13189225
166	0xbe07205a	-0.13195935
167	0xbe0976e7	-0.13424264
168	0xbdac7dfa	-0.084224656
169	0xbddaacbb	-0.10677477
170	0xbd990c61	-0.07473064
171	0xbc8c614c	-0.017136239
172	0x3c27769b	0.010221149
173	0xbdb34285	-0.08752922
174	0xbe21d1bc	-0.15802664
175	0xbd13e03a	-0.03610251
176	0xbda2007b	-0.07910248
177	0x3e5ac50f	0.21364234
178	0xbdce270e	-0.10066043
179	0xbdc31d1b	-0.09527036
180	0xbcc82f19	-0.02443652
181	0x3b154bcf	0.002278078
182	0xbe4a02a0	-0.19727564
183	0xbdb54ce4	-0.08852556
184	0xbda876f1	-0.08225811
185	0xbddfb0ea	-0.109224156
186	0x3eb0d04f	0.34533927
187	0xbe18ed39	-0.14934243
188	0xbd6fcd96	-0.05854567
189	0xbdc336d1	-0.0953194
190	0xbd93f9b7	-0.07225364
191	0xbc30e984	-0.010797862
192	0xbdccd16e	-0.10000883
193	0xbdcce643	-0.100048564
194	0xbce5293d	-0.027973766
195	0xbddbcdd9	-0.10732622
196	0xbd85a1a4	-0.06524971
197	0xbd8ea520	-0.06965089
198	0xbbc37952	-0.0059653902
199	0xbd31266c	-0.043249533
200	0xbe146c96	-0.14494547
201	0xbe126fad	-0.14300413
202	0xbe3b8a0e	-0.18314382
203	0xbde10d45	-0.10988859
204	0x3d17cba9	0.03705946
205	0xbdf2442a	-0.118294075
206	0xbd6aedc0	-0.057355642
207	0xbcf49807	-0.029857649
208	0xbc0eb950	-0.008711174
209	0xbe19daff	-0.15024947
210	0xbd8fd67c	-0.070233315
211	0xbdc3167d	-0.09525774
212	0x3deaf6d0	0.11472857
213	0xbc4496e8	-0.0119988695
214	0xbde02db8	-0.1094622
215	0xbe177511	-0.14790751
216	0xbd9f54d5	-0.07779852
217	0x3ca6b58b	0.020350238
218	0xbda016eb	-0.07816871
219	0xbdff7909	-0.124742575
220	0x3cbf5f5a	0.023360897
221	0xbdd5fd88	-0.10448748
222	0xbdec795b	-0.11546584
223	0xbdd86eff	-0.10568046
224	0xbe22ed3f	-0.15910815
225	0xbe078737	-0.13235174
226	0x3d18c1bb	0.03729413
227	0xbd92b286	-0.07162957
228	0xbd36c941	-0.044625524
229	0xbdb63c4a	-0.08898218
230	0xbdc581c1	-0.09643889
231	0xbd35834e	-0.044314675
232	0xbdd926ec	-0.10603127
233	0xbc578235	-0.013153602
234	0xbe03e70f	-0.1288111
235	0xbd4a23f8	-0.04935071
236	0xbdf2dba4	-0.118582994
237	0xbcd0e667	-0.02550049
238	0x3d8e1fdc	0.069396704
239	0x3d20f84e	0.0392993
240	0xbdcdce10	-0.10049069
241	0xbdb5e4b6	-0.08881514
242	0x3c2a6094	0.010399003
243	0xbe3540d8	-0.17700517
244	0xbd568024	-0.0523683
245	0xbe3b458e	-0.18288252
246	0xbe5391aa	-0.20661035
247	0x3dc00099	0.09375114
248	0xbe07de70	-0.13268447
249	0xbdc021f3	-0.09381475
250	0xbd93a567	-0.07209282
251	0xbe0558fe	-0.13022229
252	0xbc84ed85	-0.01622654
253	0xbda3d918	-0.08000392
254	0xbe1b29fa	-0.15152732
255	0xbe5213f3	-0.20515423

net.4.weight f4 [1, 256]
0	0xbc36b84c	-0.011152338
1	0xbe9d4c62	-0.30722338
2	0x3c3c411d	0.011490134
3	0xc00d9874	-2.21243
4	0x3c423dda	0.011855567
5	0x3e8ea62d	0.27861157
6	0x3f9318bc	1.1491923
7	0x3bf2e587	0.0074126157
8	0x3e169bdf	0.14707898
9	0x3fad7590	1.3551502
10	0x401ad5a6	2.41929
11	0x3dfa79aa	0.12230237
12	0x3f7bc754	0.98351026
13	0xbbc735cb	-0.0060794107
14	0xbd387d17	-0.04504117
15	0x3f6d9b8e	0.9281548
16	0x3c405399	0.011738681
17	0xbbeca81c	-0.0072221886
18	0x3e66c7b3	0.22537117
19	0x3c2ccc7a	0.010546798
20	0x3f1101c8	0.5664334
21	0x3e8e863a	0.27836782
22	0xbdf23424	-0.11826351
23	0xbf206f6d	-0.6267002
24	0x3f12081b	0.5704362
25	0x3d4dfe91	0.0502916
26	0xbe8b9c69	-0.2726777
27	0x3bd6ef42	0.0065592835
28	0x3cd80a11	0.026371988
29	0x3dc45376	0.095862314
30	0x3cd8daa2	0.02647144
31	0xbf082d6a	-0.53194296
32	0xbb6ce75a	-0.0036148638
33	0xbcd422bd	-0.02589547
34	0xbef02676	-0.46904343
35	0xbd14914b	-0.036271375
36	0xbc2b7e40	-0.010467112
37	0xbe070e32	-0.13189009
38	0x3c217449	0.009854385
39	0xbf4c01a7	-0.7969002
40	0xbe13fa0f	-0.14450859
41	0xbd9c89db	-0.07643481
42	0xb95a48f0	-0.00020817271
43	0x3e15ea81	0.14640237
44	0x3c92fb4a	0.01794209
45	0xbf2dac06	-0.6784061
46	0x3f6a7016	0.9157728
47	0xbbadfb06	-0.0053094653
48	0xbf613773	-0.87975234
49	0x3ec223ef	0.3791804
50	0xbeb5eb2c	-0.35530984
51	0x3cddb284	0.027062662
52	0xbdc22dec	-0.09481415
53	0xbdea8fe3	-0.114532255
54	0x3f662998	0.8990722
55	0xbf0d62df	-0.5522899
56	0xbc707d4f	-0.014678313
57	0x3bf81209	0.0075705093
58	0xbeda23c0	-0.426054
59	0x3c04a6c9	0.008096405
60	0xbc952695	-0.018206874
61	0x3b9fbf90	0.004875131
62	0xbd2dd41a	-0.042438604
63	0xbf3a3264	-0.7273314
64	0xbf07918f	-0.5295648
65	0xba621152	-0.0008623797
66	0x3ca24f0f	0.019813089
67	0xbf05321b	-0.5202958
68	0xbc197b27	-0.009367741
69	0x3e9eb99f	0.31000993
70	0xbf56a606	-0.8384708
71	0xbf1506b1	-0.58213335
72	0xbf1c9e49	-0.61179024
73	0xbeefff42	-0.46874434
74	0x3fc318ed	1.5241982
75	0xbd193f51	-0.0374139
76	0xbd33d1b8	-0.043901175
77	0x3c1e5a9f	0.00966516
78	0x3cd66761	0.026172342
79	0xbd2f15c9	-0.042745385
80	0x3c0a6b70	0.008448467
81	0xbf08007c	-0.5312574
82	0x3da8ba9d	0.08238719
83	0x3c939712	0.018016372
84	0x3c553755	0.01301368
85	0xbda5d3f2	-0.08097066
86	0xbd12c04a	-0.035827912
87	0xba8057ad	-0.0009791754
88	0xbe194e07	-0.14971171
89	0x3b81b4a5	0.003958302
90	0x3f13c54d	0.5772293
91	0xbf0c20ff	-0.5473785
92	0xbed60bb9	-0.4180582
93	0x3dcc8f94	0.09988323
94	0xbf236482	-0.6382524
95	0xbd5e8fdd	-0.054336417
96	0xbf7bfa73	-0.9842903
97	0x3f905a3a	1.1277535
98	0xbd9317ed	-0.07182298
99	0xbfac842d	-1.3477837
100	0x3ea0917f	0.31361005
101	0x3be0363e	0.0068424037
102	0x3cf8b764	0.030360885
103	0xbd2ef3ce	-0.04271298
104	0xbc5d1bd7	-0.013495407
105	0x3b68b34b	0.0035507258
106	0xbb0cf0c2	-0.0021505808
107	0x3d0ec6bd	0.0348575
108	0xbe09ca90	-0.13456178
109	0x3cffec11	0.031240495
110	0x3f4f3575	0.80940944
111	0x3cd78517	0.02630858
112	0x3cf4c92a	0.029881079
113	0xbf289f5e	-0.65868175
114	0x3c1c2194	0.00952949
115	0x3f2ec17d	0.6826399
116	0x3cbead42	0.023275975
117	0x3bb53fd5	0.005531291
118	0xbc8cb1d2	-0.017174635
119	0xbf0a22a2	-0.53959095
120	0x3f48b2ce	0.78397834
121	0x3f1a7b5b	0.60344476
122	0xbe1fdd9d	-0.15611883
123	0xbeb90a88	-0.36140847
124	0xbe9acc30	-0.30233908
125	0x3f83c0c6	1.0293205
126	0x3ec0ce1b	0.37657246
127	0x3a46fdae	0.0007590902
128	0x3d1e9320	0.038714528
129	0x3d68001d	0.056640733
130	0x3fc62cf7	1.5482472
131	0xbf198907	-0.5997471
132	0xbc692ddd	-0.014232126
133	0x3e10a051	0.14123656
134	0x3cf3d800	0.029766083
135	0x3b08be41	0.0020865353
136	0xbf0bea80	-0.54654694
137	0xbf30d258	-0.6907096
138	0xbb6d5eaf	-0.0036219766
139	0xbd1a5290	-0.037676394
140	0x3c1f9736	0.009740641
141	0x3f2576bd	0.64634305
142	0x3eae54b7	0.34049007
143	0x3f51020f	0.81643766
144	0x3e1b3160	0.15155554
145	0x3e2322cf	0.15931247
146	0x3e2b2844	0.16714579
147	0xbb89f03f	-0.004209548
148	0xbc8a7e2c	-0.016905867
149	0x3e4b3376	0.1984385
150	0xbf00f34f	-0.5037126
151	0x3c85310e	0.016258743
152	0x3ce3434a	0.027742047
153	0x3d24bb53	0.04021771
154	0xbf0989c4	-0.5372584
155	0x3f7fd7dd	0.99938756
156	0x3d0323bb	0.032016497
157	0x3c04fcd0	0.008116916
158	0xbf2dc656	-0.6788076
159	0x3ccd344b	0.02504935
160	0x3fa362d8	1.276454
161	0xbb10c1da	-0.00220882
162	0xbef6a1de	-0.4817037
163	0xbc505157	-0.012714705
164	0xbbd71c30	-0.0065646395
165	0x3d116813	0.035499644
166	0x3a4bf986	0.00077810173
167	0xbc84de76	-0.016219359
168	0x3cf401d8	0.029786035
169	0x3943804e	0.00018644446
170	0xbebcd5ed	-0.36881962
171	0x3bc03629	0.0058658314
172	0xbe99e841	-0.30060008
173	0x3e39fa2b	0.18161838
174	0xbf09849c	-0.5371797
175	0xbc72ad83	-0.014811876
176	0xbec49ab7	-0.38399288
177	0xbf2e3bbe	-0.6805991
178	0x3d84d30e	0.06485568
179	0xbc48ae7e	-0.012248633
180	0xbe446675	-0.1917971
181	0x3f605a89	0.87638146
182	0x3e4c2b1a	0.19938317
183	0xbf464c64	-0.7746031
184	0x3cd7f55e	0.026362117
185	0xbed8b259	-0.42323568
186	0xbe866cf5	-0.26255003
187	0x3d67288f	0.056435164
188	0x3beed6c7	0.007288787
189	0x3b92cf84	0.004480304
190	0x3d2d7525	0.042348046
191	0x3fa59507	1.2936105
192	0x3c36f9d7	0.011167965
193	0x3db5f54e	0.08884679
194	0x3f5f9e54	0.87350965
195	0xbd414673	-0.047186326
196	0x3e8ab54e	0.2709145
197	0x3e6fe871	0.23428513
198	0xbcef6b67	-0.029226018
199	0xbbd379e7	-0.006453741
200	0x3c685b3d	0.014181909
201	0xbe650f4b	-0.22369115
202	0x3decaad8	0.11556023
203	0xbb06aed9	-0.0020550995
204	0x3f47d579	0.7806011
205	0xbf1ccd8c	-0.6125114
206	0xbc571030	-0.013126418
207	0x3c9a4c04	0.018835075
208	0x3c65fca7	0.014037288
209	0x3cc2dc67	0.023786737
210	0x3bd76f04	0.0065745134
211	0x3f121b5f	0.57073015
212	0xbec7067e	-0.3887214
213	0x3e831ce4	0.2560798
214	0xbe6098d3	-0.21933298
215	0xbee3e2d2	-0.44508988
216	0xbd0b6b0f	-0.034037646
217	0x3ebd3fbe	0.36962694
218	0xbf498b71	-0.78728396
219	0x3e325edb	0.17418997
220	0x3ed8501d	0.42248622
221	0xbf37f7bc	-0.7186239
222	0xbc84da34	-0.016217329
223	0xb9fd5b9c	-0.00048324175
224	0xbf1541b3	-0.58303374
225	0x3ea851da	0.32874948
226	0xbf0b5802	-0.54431164
227	0x3b86be46	0.004112038
228	0x3dec5eb5	0.115415014
229	0x3bb7bef9	0.0056074825
230	0x3ccd3860	0.025051296
231	0x3c3a1320	0.011357099
232	0x3b2ac76e	0.002605881
233	0x3cb33278	0.021874651
234	0x3c470665	0.012147521
235	0xba7fd5b3	-0.00097593217
236	0xbb46a736	-0.0030312068
237	0x3c2b417c	0.010452624
238	0xbf14e7f9	-0.5816646
239	0xbeb5f11a	-0.35535508
240	0x3d805890	0.06266892
241	0xbd0daffe	-0.034591667
242	0x3f79c141	0.9756051
243	0x3e544c43	0.20732217
244	0x3d2d0716	0.042243086
245	0xbece048c	-0.40237844
246	0xbec1b279	-0.37831476
247	0xbd7e25c4	-0.062047735
248	0xbdfca70b	-0.123365484
249	0xbf3cebf6	-0.7379755
250	0xbc0ce225	-0.008598839
251	0x3e589c5a	0.21153393
252	0x3dbb805f	0.09155344
253	0x3d14c34e	0.03631907
254	0x3e302fa6	0.17205676
255	0xbdc5f1db	-0.09665271

exp_avg f4 [256, 2]
0	0x3b0ab682	0.0021165912
1	0xb98fff57	-0.00027465328
2	0xbbfbb4be	-0.0076814583
3	0x3b0b6ea9	0.0021275675
4	0xbbf5fd7a	-0.0075070234
5	0x3b03c09a	0.0020103813
6	0x39ca5d75	0.00038598073
7	0x3afc22ed	0.0019236483
8	0x3b3f5726	0.0029196232
9	0xba948b9c	-0.0011333111
10	0x39e8bb90	0.00044390233
11	0xb9777294	-0.0002359844
12	0xba0fdc54	-0.00054878485
13	0xb834e807	-4.3131437e-05
14	0x39bd97b5	0.0003616192
15	0xb99f31f3	-0.00030364058
16	0xbb0ffa11	-0.002196912
17	0xba22a300	-0.00062040985
18	0x3846e4a5	4.741982e-05
19	0xb94ea1ec	-0.00019706012
20	0x3a36ce48	0.00069734873
21	0xb9891627	-0.0002614718
22	0xba5a231b	-0.0008321271
23	0x3836cc00	4.358217e-05
24	0xbaedf6cb	-0.0018155215
25	0x3982e088	0.0002496282
26	0x3a54981c	0.0008109824
27	0xb9c80f9c	-0.00038158603
28	0xbbd9b483	-0.006643833
29	0x3b03a0e2	0.0020084907
30	0xbae340e4	-0.0017338064
31	0x39833b93	0.00025030653
32	0x3b0aecb4	0.0021198215
33	0xb91c6a47	-0.00014916911
34	0x3b72b7ad	0.0037035749
35	0xbb43cea7	-0.0029877813
36	0xba834c59	-0.001001726
37	0xb9bc0627	-0.00035862738
38	0xba82b268	-0.0009971382
39	0x38cbd592	9.719575e-05
40	0xbab2bd81	-0.0013636799
41	0x3929c613	0.00016190884
42	0x39ade753	0.0003316948
43	0x397f840f	0.00024367891
44	0x389195bc	6.942029e-05
45	0xbac8ba61	-0.0015314334
46	0xbaa80dbf	-0.001282148
47	0x39380989	0.0001755116
48	0xb9c60cc2	-0.00037775008
49	0xba9e9bf0	-0.0012100916
50	0x3a6b11f9	0.00089672167
51	0x3a818f4d	0.0009884626
52	0x3b046fe2	0.002020829
53	0xb9a66726	-0.0003173884
54	0x395762c8	0.00020540797
55	0x3b1c7849	0.0023875406
56	0x3a3c9b90	0.00071948115
57	0xb9a06543	-0.00030593024
58	0x378a2cb7	1.6471704e-05
59	0xb9295298	-0.00016147865
60	0xba661327	-0.00087766576
61	0xba8e9d24	-0.0010880572
62	0x3a4b3881	0.0007752255
63	0xb9b6aee3	-0.00034844046
64	0xbb2bd083	-0.0026216812
65	0x395c7aa1	0.00021026518
66	0x39c8f4ff	0.0003832951
67	0xb969a76e	-0.00022282984
68	0xb9bcf671	-0.00036041767
69	0xbb1d2494	-0.00239781
70	0xb9c13525	-0.00036851424
71	0xbb11b815	-0.0022234966
72	0xba94ac6a	-0.0011342887
73	0xba94cd2c	-0.001135265
74	0xba842b88	-0.0010083774
75	0xba879ab8	-0.0010345792
76	0x3a69cf16	0.0008919103
77	0x3a5f5c37	0.0008520516
78	0x3a3ba567	0.0007158131
79	0xb9973921	-0.0002884353
80	0xbb1e5141	-0.0024157318
81	0xb984fcbc	-0.00025365304
82	0xba947edf	-0.0011329314
83	0xba8239dd	-0.0009935457
84	0x3a729909	0.00092543714
85	0x39115f25	0.00013863722
86	0xbb57db12	-0.0032936973
87	0x3a1128b1	0.00055373745
88	0x3a59b527	0.0008304887
89	0x3a4050af	0.00073362415
90	0x3ad05ff0	0.0015897732
91	0xb99ab9cf	-0.00029511607
92	0xb911bf55	-0.00013899554
93	0xbabada04	-0.0014255648
94	0x3a2497c7	0.000627872
95	0xbad59111	-0.0016293844
96	0x3b529268	0.0032130722
97	0xba071687	-0.0005153198
98	0xbacc7bf9	-0.0015600912
99	0x3963c9d4	0.00021723594
100	0x3a1de35e	0.0006022955
101	0xb9bc3d65	-0.00035903897
102	0x3b5fc688	0.0034145433
103	0xbb5a6afe	-0.0033327932
104	0x3afcef8c	0.0019297465
105	0xb9935225	-0.00028099227
106	0x3a9b907a	0.0011868619
107	0xb9cb472e	-0.0003877221
108	0xba90532e	-0.0011011118
109	0xba8898a8	-0.0010421472
110	0x3b15bf6b	0.002284969
111	0xb9bffd10	-0.00036618905
112	0x3b5bb6fc	0.0033525815
113	0xba12614c	-0.00055839564
114	0xb932c11d	-0.00017047343
115	0xb94a9dd6	-0.0001932302
116	0xb8809a0e	-6.1322105e-05
117	0xb8c3148d	-9.3021525e-05
118	0x3bb53fca	0.005531286
119	0xbb21cb13	-0.0024687692
120	0x3aa8a830	0.0012867507
121	0xba090c84	-0.0005228
122	0x3bbdf6ff	0.0057972665
123	0xbb2b5f9f	-0.0026149524
124	0x39b67f17	0.00034808434
125	0x3aa4c8f5	0.0012572097
126	0x38f94a1e	0.00011887051
127	0x3b420330	0.002960395
128	0xbadcfe93	-0.0016860537
129	0x399a9314	0.0002948275
130	0x3b04538d	0.0020191402
131	0xb913ece0	-0.00014107255
132	0x3a565b04	0.00081770145
133	0x3948a268	0.00019133987
134	0xbb8cb825	-0.0042944127
135	0x3a73e952	0.0009304482
136	0x3ae9909b	0.0017819585
137	0xb9e67cf0	-0.00043962104
138	0xbabaaea7	-0.0014242724
139	0x39c2fc9f	0.0003719078
140	0x3b0cbb83	0.002147407
141	0xb9b8d344	-0.0003525262
142	0xbb136273	-0.00224891
143	0xba52e475	-0.0008044907
144	0xbb6dff0f	-0.0036315357
145	0x37c09a0e	2.295992e-05
146	0x39ca4c6c	0.0003858538
147	0xb92596d4	-0.00015791814
148	0x3a590050	0.00082779396
149	0xb9a17d76	-0.0003080179
150	0xbb1e9a43	-0.0024200834
151	0x3aa94541	0.0012914316
152	0xba8dd7a3	-0.0010821711
153	0x389d118e	7.489613e-05
154	0x3814700d	3.5390305e-05
155	0xbab86b65	-0.0014070092
156	0xb9d42853	-0.00040465835
157	0xb965e963	-0.00021926085
158	0x39b0f90f	0.000337549
159	0x367d7caa	3.7772502e-06
160	0x3a982304	0.0011607115
161	0xbb0d2c17	-0.0021541172
162	0xb7913db8	-1.7314087e-05
163	0x381c92d5	3.7330046e-05
164	0x3a4d5a1e	0.0007833558
165	0xb98c7f42	-0.00026797695
166	0x39d6adb2	0.00040946674
167	0x3af4e4b0	0.0018683877
168	0x3a639d52	0.00086828053
169	0x3a713259	0.0009200923
170	0xb7458c0b	-1.1774721e-05
171	0x3a8592a1	0.0010190794
172	0x3a252cdc	0.0006300935
173	0xb9927435	-0.0002793387
174	0x3b5bbf38	0.0033530723
175	0xb99bf08a	-0.0002974312
176	0x3932db42	0.00017057083
177	0xbac458d1	-0.0014980083
178	0x39d0556e	0.00039736502
179	0x393979cc	0.00017688348
180	0xbab8e6ec	-0.0014106906
181	0x39646b96	0.00021783853
182	0xbacc6df2	-0.0015596731
183	0x3982cb4f	0.0002494701
184	0x3a7d5a06	0.00096645986
185	0xb9d3e97d	-0.00040419018
186	0x39e3ca1c	0.00043447397
187	0xb74c59de	-1.2180271e-05
188	0x3a58c187	0.0008268584
189	0x3a51e2c5	0.00080065086
190	0x3b092269	0.002092505
191	0xb9508f25	-0.00019889751
192	0x3978ff6a	0.00023746272
193	0x3a52a10e	0.0008034863
194	0xb9e1875a	-0.0004301619
195	0xbaf0cc3f	-0.0018371417
196	0x3b29f393	0.0025932535
197	0xba20642a	-0.0006118441
198	0x3b882441	0.0041547124
199	0xba1ab8bb	-0.0005902161
200	0x3a203aff	0.0006112307
201	0x39202356	0.00015271953
202	0xbb8c8c70	-0.0042892024
203	0x3a541fb9	0.0008091885
204	0x3a02aeb5	0.000498514
205	0x38194cc7	3.6549547e-05
206	0x3afeb7e5	0.0019433467
207	0xb9b4b54c	-0.00034467352
208	0x3a3953d0	0.0007069679
209	0xb9840e41	-0.00025187622
210	0xb81d1ff2	-3.746147e-05
211	0x372952ed	1.0092493e-05
212	0xb783acee	-1.5696944e-05
213	0xb7a36951	-1.9480156e-05
214	0x3a5984c0	0.00082976744
215	0x3950508c	0.00019866432
216	0xbaf1f86c	-0.0018460876
217	0x39ca09d4	0.00038535765
218	0xba260730	-0.00063334685
219	0xba4e317c	-0.000786565
220	0xba5477d6	-0.0008105015
221	0xba0a2684	-0.00052700215
222	0x38ce159c	9.8268705e-05
223	0xbacdbfc7	-0.0015697413
224	0x3934b61d	0.0001723398
225	0x3a8d540e	0.0010782497
226	0xbc13fedb	-0.00903293
227	0x3b0f9b23	0.0021912537
228	0x3a934257	0.0011234981
229	0x3a72edfc	0.000926703
230	0x3a801f76	0.0009775001
231	0xb9f0e5d6	-0.00045947608
232	0x3bc235b2	0.005926811
233	0xbb27ba1b	-0.0025593105
234	0x39e95420	0.000445039
235	0xbac78230	-0.0015221294
236	0x3a61de78	0.0008616219
237	0x3951a9b6	0.00019995015
238	0x39b3b860	0.0003427891
239	0x3b23f2be	0.0025016512
240	0xbb4f7b8c	-0.0031659333
241	0x3a1f0f3b	0.0006067638
242	0x3b5226cd	0.0032066584
243	0xbb668538	-0.003517462
244	0x3b7b1317	0.003831094
245	0xba1c5dc0	-0.00059648976
246	0xb9a38b0b	-0.00031193378
247	0xba87838f	-0.001033889
248	0x3b0c93b1	0.0021450336
249	0xb9358e1e	-0.00017314448
250	0xbbb093f1	-0.0053887297
251	0x3ae95c60	0.0017804019
252	0xb911ca05	-0.00013903536
253	0xb8036810	-3.132975e-05
254	0x3a5ab50f	0.000834302
255	0xb9c01185	-0.00036634147

exp_avg_sq f4 [256, 2]
0	0x3963e577	0.0002173389
1	0x38b8805f	8.797715e-05
2	0x391ae230	0.00014770846
3	0x3903a296	0.00012553702
4	0x390d1caa	0.00013457486
5	0x38eecb2f	0.0001138657
6	0x377cd20e	1.5069278e-05
7	0x38f79d26	0.00011807149
8	0x3885eeb0	6.386393e-05
9	0x37ef2ca0	2.85118e-05
10	0x39db7b69	0.00041862883
11	0x39da3eaf	0.00041626903
12	0x398d038e	0.00026896264
13	0x39803c1f	0.00024458856
14	0x39b4657c	0.00034407887
15	0x39b95c09	0.0003535452
16	0x382f620e	4.1814572e-05
17	0x38f8bf97	0.00011861248
18	0x38502839	4.9628525e-05
19	0x375f7af4	1.3320463e-05
20	0x3911d3c2	0.00013907164
21	0x391a02a7	0.00014687573
22	0x39882777	0.00025969345
23	0x3976d780	0.00023540668
24	0x39175c2b	0.00014434817
25	0x38df96cf	0.00010661559
26	0x38e451c3	0.000108871165
27	0x38e3be2b	0.00010859625
28	0x390694d6	0.00012834682
29	0x38e5b785	0.00010953754
30	0x3917e7ef	0.00014486884
31	0x38e36c6d	0.000108443994
32	0x398bc02e	0.0002665533
33	0x38f8ca63	0.00011863259
34	0x385393a6	5.044383e-05
35	0x3910ce65	0.00013809798
36	0x37eb4317	2.8045424e-05
37	0x3803ef6e	3.145582e-05
38	0x3979f751	0.00023838623
39	0x395efb35	0.00021265152
40	0x3940795d	0.00018355758
41	0x391e4cee	0.00015096713
42	0x374d0a8b	1.2221407e-05
43	0x3887d830	6.47757e-05
44	0x3852227b	5.0100014e-05
45	0x396cbb27	0.00022576434
46	0x3977bbb2	0.00023625678
47	0x394cdc26	0.00019536968
48	0x36bf3228	5.6980825e-06
49	0x383f6949	4.5636003e-05
50	0x3851fb10	5.0063303e-05
51	0x37cd844d	2.4499512e-05
52	0x393cded1	0.00018012083
53	0x388f919e	6.845895e-05
54	0x3791d604	1.7385006e-05
55	0x391292bb	0.00013978306
56	0x39164fc7	0.00014334834
57	0x391dabc5	0.00015036676
58	0x3865b007	5.4761793e-05
59	0x3861cfe3	5.383779e-05
60	0x388df5f3	6.7692155e-05
61	0x39837a0a	0.00025077193
62	0x38d90588	0.000103483966
63	0x38d43626	0.00010119034
64	0x382019cb	3.8170994e-05
65	0x389903da	7.296326e-05
66	0x39498445	0.00019218128
67	0x396696c4	0.00021990674
68	0x37960392	1.7883056e-05
69	0x3919f2cf	0.0001468167
70	0x3778af22	1.4822728e-05
71	0x38feb131	0.00012144668
72	0x383f7fd8	4.5657012e-05
73	0x392a5f6f	0.00016248015
74	0x38594968	5.1805197e-05
75	0x3948e597	0.00019159015
76	0x37c2839e	2.3187891e-05
77	0x37488aed	1.1953275e-05
78	0x3854fa4f	5.0777857e-05
79	0x375e709d	1.3258451e-05
80	0x380b0a21	3.3149616e-05
81	0x38755aa4	5.8496968e-05
82	0x38609aa3	5.354978e-05
83	0x39490835	0.00019171911
84	0x37b01d20	2.0994397e-05
85	0x387074b7	5.7329158e-05
86	0x38775ba5	5.897474e-05
87	0x37c01032	2.2895725e-05
88	0x3780f593	1.5373143e-05
89	0x3701fdd7	7.748101e-06
90	0x38fa68f4	0.00011940478
91	0x3823e2e9	3.9073555e-05
92	0x383c37d6	4.4874694e-05
93	0x394fb9c7	0.00019810266
94	0x3811b5fe	3.4740187e-05
95	0x393753fe	0.0001748353
96	0x381593db	3.566207e-05
97	0x36ce7d6b	6.153879e-06
98	0x393d8fd3	0.00018078023
99	0x39166ffc	0.00014346832
100	0x394f3bc8	0.00019763329
101	0x39637af4	0.0002169421
102	0x381f6dd7	3.801085e-05
103	0x38fb3290	0.00011978031
104	0x3943988d	0.00018653479
105	0x38992327	7.302156e-05
106	0x38b88cc0	8.8000204e-05
107	0x38a720c1	7.9692814e-05
108	0x3891fbf1	6.9610665e-05
109	0x398397a0	0.00025099237
110	0x3964608c	0.00021779741
111	0x38b549c9	8.644496e-05
112	0x3820054c	3.8151906e-05
113	0x36df0bb8	6.647282e-06
114	0x36a8e063	5.032912e-06
115	0x37fe728d	3.0332501e-05
116	0x3629cfad	2.5303846e-06
117	0x379b735b	1.8531156e-05
118	0x389ecbe5	7.5720054e-05
119	0x37968615	1.794383e-05
120	0x3941326f	0.00018424702
121	0x39414424	0.00018431299
122	0x38c946c4	9.597608e-05
123	0x37b81f97	2.194922e-05
124	0x3709901f	8.199392e-06
125	0x388555d6	6.3579224e-05
126	0x37c10c95	2.3013252e-05
127	0x3944100b	0.00018697993
128	0x394eb4a8	0.0001971299
129	0x39239fec	0.00015604467
130	0x3983d515	0.00025145026
131	0x38dd8c71	0.000105642604
132	0x37b675ec	2.1751002e-05
133	0x3889b456	6.566259e-05
134	0x3888d300	6.524287e-05
135	0x37ade177	2.0728197e-05
136	0x3888a585	6.515816e-05
137	0x37a4699a	1.9599498e-05
138	0x396fa782	0.00022855218
139	0x393a122b	0.0001774511
140	0x395c66b5	0.00021019096
141	0x38af6412	8.36329e-05
142	0x38ab6b95	8.173954e-05
143	0x3980cd7d	0.00024567163
144	0x384a19db	4.8184633e-05
145	0x3881a7b0	6.1824336e-05
146	0x3875cc51	5.8602836e-05
147	0x385effbb	5.3167092e-05
148	0x38b275df	8.5096566e-05
149	0x38b058a6	8.408846e-05
150	0x385d2d74	5.2732838e-05
151	0x3758b25e	1.2916133e-05
152	0x398651aa	0.00025619316
153	0x396eb48d	0.00022764709
154	0x382011b7	3.816347e-05
155	0x39365eb3	0.00017392151
156	0x384abb8d	4.8335223e-05
157	0x37d703b6	2.5631725e-05
158	0x38a25f33	7.742494e-05
159	0x380a9c24	3.304718e-05
160	0x37c1ef8d	2.3118942e-05
161	0x38aca793	8.232812e-05
162	0x38876ab9	6.45718e-05
163	0x37e5e246	2.7404294e-05
164	0x3912ffa1	0.00014018874
165	0x391c5df3	0.00014912318
166	0x3779aac9	1.4881321e-05
167	0x38f1cedb	0.00011530305
168	0x381c2286	3.722545e-05
169	0x379d7375	1.8769622e-05
170	0x368bd071	4.1667886e-06
171	0x383f4ba0	4.560838e-05
172	0x3872f7fa	5.7928242e-05
173	0x384132e5	4.6062185e-05
174	0x37e7efad	2.7648954e-05
175	0x386d2525	5.6539797e-05
176	0x37f2f0c1	2.8960758e-05
177	0x39156ff5	0.00014251455
178	0x375af424	1.3050656e-05
179	0x388c3d5b	6.6871486e-05
180	0x389883b0	7.2724535e-05
181	0x383bdac9	4.4788034e-05
182	0x38eedf93	0.00011390368
183	0x38b0974d	8.420516e-05
184	0x390e6019	0.00013577974
185	0x39112716	0.00013842838
186	0x38b38add	8.5612504e-05
187	0x380dae21	3.377919e-05
188	0x37a42778	1.9568703e-05
189	0x372df4dd	1.0368615e-05
190	0x397fcbec	0.00024394662
191	0x38d64d73	0.00010218741
192	0x35993945	1.1416056e-06
193	0x38f90183	0.00011873527
194	0x37318cc3	1.0582796e-05
195	0x38b0690e	8.411902e-05
196	0x37cab2d7	2.4163555e-05
197	0x3857b8c7	5.143208e-05
198	0x381c818c	3.731395e-05
199	0x3670612f	3.5819355e-06
200	0x377a4808	1.4917932e-05
201	0x387d0800	6.032735e-05
202	0x388ecb4e	6.808956e-05
203	0x38d941f0	0.00010359648
204	0x372a4b08	1.0150259e-05
205	0x384fdd11	4.955853e-05
206	0x3925cbcf	0.00015811551
207	0x38681a35	5.5337518e-05
208	0x38059357	3.1846892e-05
209	0x37ec5b95	2.8176039e-05
210	0x38751f48	5.8441685e-05
211	0x37e0decb	2.6806627e-05
212	0x34b1b9ff	3.310415e-07
213	0x3864d9c9	5.4562264e-05
214	0x379f0a96	1.8959206e-05
215	0x38622ac1	5.3922417e-05
216	0x391e0948	0.00015071512
217	0x38e16ca3	0.00010749071
218	0x368e13b9	4.234226e-06
219	0x36992349	4.563863e-06
220	0x384f1ffe	4.938244e-05
221	0x3812d632	3.5008597e-05
222	0x384c1ff2	4.866714e-05
223	0x396887a1	0.0002217577
224	0x365651b4	3.1936042e-06
225	0x385f7665	5.3277607e-05
226	0x393b3511	0.00017853478
227	0x393a425e	0.00017763066
228	0x379e45a3	1.8867495e-05
229	0x3721c457	9.642062e-06
230	0x39510960	0.00019935286
231	0x395c0b0d	0.00020984952
232	0x38942f35	7.065983e-05
233	0x3756c189	1.2800455e-05
234	0x38002ea8	3.056103e-05
235	0x391cf361	0.00014967985
236	0x37ad9cfb	2.0696307e-05
237	0x386ffb71	5.7216213e-05
238	0x37c9c66f	2.405347e-05
239	0x39470172	0.00018978657
240	0x399fd854	0.0003048802
241	0x3938ea31	0.0001763485
242	0x381f95a2	3.804791e-05
243	0x389a4fbc	7.358144e-05
244	0x381ebada	3.7844155e-05
245	0x36bd0004	5.6326408e-06
246	0x3793abb4	1.7603721e-05
247	0x38ac0472	8.202427e-05
248	0x3984d877	0.0002533828
249	0x38e061d3	0.000106993735
250	0x38cb7499	9.701512e-05
251	0x38b24458	8.5004314e-05
252	0x36555993	3.1791612e-06
253	0x37a5e6b4	1.9776962e-05
254	0x38444b4b	4.6800164e-05
255	0x374040f6	1.1459217e-05
