lab5/decoder_params.pth (torch, 103413 bytes, 9 tensors)

decoder_lin.0.weight f4 [64, 2]
0.45603773 0.6660093 -0.41457176 -0.102320224 -0.5589058 -0.057757344 0.26208958 -0.28585732
-0.55144495 -0.5054605 0.046603497 0.56113845 0.220996 -0.6619232 0.22211893 0.25860387
-0.65783864 0.19219345 0.44560206 -0.50234073 -0.5962441 -0.37390214 0.11344171 0.1712159
-0.023415694 0.24322632 -0.42961052 -0.25716552 -0.6072404 0.67747766 -0.30903462 -0.0071063926
0.64531 -0.2622842 0.207392 -0.35807058 0.03765924 0.018176936 -0.36575326 -0.62174994
-0.5692755 -0.5740012 0.38874918 0.13689604 0.38961852 -0.106197365 -0.22694986 0.38234794
-0.52001065 -0.3700817 0.6024797 -0.42069522 -0.06846073 0.047926147 0.32858926 -0.01678155
0.020446714 -0.40318114 0.18701245 0.2199071 0.18383801 -0.44998217 -0.57357067 -0.26341653
0.02352635 -0.116579965 -0.5682437 -0.078180954 0.44208694 -0.090331614 0.635917 0.5990453
-0.31192222 -0.045092903 -0.011125392 0.25070423 0.37705192 0.66184616 0.5983954 -0.2113379
0.34971946 -0.33365342 0.25433937 0.4234137 0.6047834 0.19288439 0.13774347 0.12806599
-0.37090108 0.39943594 -0.29042503 0.63296866 0.36357895 -0.03930844 0.025131613 -0.66943586
-0.5919824 -0.6600298 0.2415213 -0.38935634 -0.2938418 -0.21992666 0.41685614 -0.26954725
0.12891062 0.09579549 0.381202 0.13815817 0.38531902 0.45848846 -0.0035979215 0.50583786
0.39580154 0.1161564 -0.61553895 0.30122024 -0.3876199 0.15040381 0.03567531 -0.5386701
0.12364479 -0.43155602 -0.48308164 0.050091945 -0.31847334 -0.11300309 -0.36481005 0.61585337
00000000: c77d e93e 967f 2a3f c042 d4be 448d d1bd
00000010: 7314 0fbf f792 6cbd 9b30 863e e45b 92be
00000020: 7f2b 0dbf dc65 01bf 4fe3 3e3d c5a6 0f3f
00000030: c74c 623e cd73 29bf 2573 633e ba67 843e
00000040: 1d68 28bf 5cce 443e f425 e43e 6799 00bf
00000050: 74a3 18bf 1a70 bfbe 2154 e83d 3953 2f3e
00000060: 45d2 bfbc 5210 793e e9f5 dbbe 33ab 83be
00000070: 1b74 1bbf 2d6f 2d3f c939 9ebe bedc e8bb
00000080: 0933 253f 1d4a 86be 925e 543e 0755 b7be
00000090: 9340 1a3d cce7 943c 0344 bbbe 012b 1fbf
000000a0: 0abc 11bf bef1 12bf 220a c73e 7a2e 0c3e
000000b0: 147c c73e 017e d9bd 8b65 68be 1cc3 c33e
000000c0: 6b1f 05bf 597b bdbe 1c3c 1a3f 5d65 d7be
000000d0: 2435 8cbd 354e 443d da3c a83e 7679 89bc
000000e0: de7f a73c c26d cebe 3180 3f3e 542f 613e
000000f0: 0840 3c3e 1064 e6be 87d5 12bf 88de 86be
00000100: 55ba c03c 7ac1 eebd 6b78 11bf 561d a0bd
00000110: 3859 e23e c8ff b8bd 75cb 223f 085b 193f
00000120: 45b4 9fbe 56b3 38bd 4747 36bc 4e5c 803e
00000130: f30c c13e c06e 293f 7130 193f f668 58be
00000140: 6e0e b33e 9fd4 aabe c538 823e aec9 d83e
00000150: 16d3 1a3f 7c83 453e a00c 0d3e bb23 033e
00000160: bfe6 bdbe de82 cc3e 97b2 94be 3c0a 223f
00000170: 0527 ba3e e301 21bd d0e0 cd3c 2660 2bbf
00000180: 298c 17bf b7f7 28bf 5c51 773e b759 c7be
00000190: 6f72 96be 7434 61be 2b6e d53e 1902 8abe
000001a0: 2501 043e 6d30 c43d e92c c33e 5679 0d3e
000001b0: 8948 c53e 00bf ea3e 1bcb 6bbb 977e 013f
000001c0: 80a6 ca3e 68e3 ed3d f693 1dbf 8a39 9a3e
000001d0: 1e76 c6be 7503 1a3e 4620 123d 49e6 09bf
000001e0: 7b39 fd3d e9f4 dcbe 7a56 f7be 362d 4d3d
000001f0: f00e a3be 2a6e e7bd 62c8 babe 91a8 1d3f

decoder_lin.0.bias f4 [64]
0.28814498 0.66241634 -0.43045753 -0.28908736 -0.1245696 -0.43820354 -0.6360143 -0.48777625
0.07888143 0.18688159 -0.31988868 -0.15857185 -0.4393672 0.3701679 0.29857656 0.19308744
0.31269932 0.3134875 -0.108686134 0.6446944 -0.607008 -0.42041904 0.53601366 0.70692384
-0.59314436 0.30965275 0.4079449 -0.18259512 -0.3051202 -0.1395691 -0.45711246 -0.3997765
-0.59893924 -0.5071396 0.50830734 0.23079784 0.4907753 0.024563307 -0.26263767 -0.5821617
-0.14972287 0.599232 0.447976 -0.66189796 -0.5882781 0.09369224 -0.39535046 0.5250428
-0.29315922 0.20873581 -0.09183055 -0.41460997 0.20029323 -0.067634135 -0.49364275 -0.38800383
0.12511234 -0.6025977 -0.31907904 0.25980428 -0.416358 0.6516043 -0.41104284 0.10210836
00000000: bd87 933e 1e94 293f ee64 dcbe 4203 94be
00000010: 591e ffbd 375c e0be d5d1 22bf cfbd f9be
00000020: 968c a13d e35d 3f3e 73c8 a3be a960 22be
00000030: bdf4 e0be a686 bd3e 07df 983e b7b8 453e
00000040: 201a a03e 6f81 a03e d696 debd b10a 253f
00000050: e064 1bbf 2a41 d7be 3138 093f f6f8 343f
00000060: 4fd8 17bf ce8a 9e3e 27de d03e 37fa 3abe
00000070: b738 9cbe 34eb 0ebe a50a eabe 81af ccbe
00000080: 1554 19bf e7d3 01bf 6e20 023f 4556 6c3e
00000090: e646 fb3e fd38 c93c 7278 86be 8d08 15bf
000000a0: f450 19be 4567 193f 1c5d e53e 2572 29bf
000000b0: 6599 16bf b8e1 bf3d 606b cabe 3469 063f
000000c0: f718 96be d7be 553e a811 bcbd c247 d4be
000000d0: ab19 4d3e c483 8abd bebe fcbe 70a8 c6be
000000e0: 731d 003e d843 1abf 545e a3be 1105 853e
000000f0: e02c d5be 8acf 263f 3574 d2be 301e d13d

decoder_lin.1.weight f4 [288, 64]
-0.035851564 0.102733135 0.027211094 0.03198229 0.001404679 0.093799524 0.08384441 -0.03505226
-0.092899665 0.10645822 -0.05963816 -0.0522441 0.028648352 0.039584607 -0.054400764 0.03230593
0.06181637 -0.04210605 -0.056184243 0.058608826 -0.07450616 -0.11599073 0.06880717 0.06968577
-0.0783591 -0.0204366 -0.054727565 0.0069676335 -0.090778805 -0.08619972 -0.07182406 0.014248005
0.029321302 -0.087030865 -0.04068274 0.0324427 -0.0026685575 0.06675656 -0.0810541 -0.05487588
-0.05244722 -0.039832484 0.040901896 -0.110981815 0.10933163 0.065849915 -0.017515909 0.08778568
-0.014485685 -0.11567014 -0.041999117 0.044344682 -0.0005785669 -0.046673644 -0.0976075 0.026044186
-0.048272792 -0.07740308 -0.045252994 -0.11224332 0.014148011 0.008501338 0.049973447 -0.037173275
0.050268624 -0.029518442 -0.066865556 0.088141635 -0.021226723 -0.083999306 0.03324255 0.02439374
0.058708675 -0.028480925 0.07482712 -0.0026587008 0.04634364 0.11209732 -0.01712361 -0.012605435
0.05246632 -0.05883862 -0.016231155 0.10522201 0.08685952 0.089170076 -0.07614275 0.06483931
-0.011371907 0.09328729 0.009178736 -0.023883466 0.08715735 -0.059760354 0.08844136 0.060192466
-0.094335705 0.06461268 -0.02389509 -0.05040487 -0.042894103 -0.10080304 -0.034158308 0.010888187
-0.033708654 -0.059414957 -0.030223608 0.011194532 -0.0258516 -0.051252216 -0.087813385 0.07792393
-0.09257921 -0.0020464908 0.029094433 -0.10124286 -0.040110648 0.034995466 -0.07412274 0.088472925
-0.057015132 -0.0104438 -0.013551619 0.059153143 -0.0895225 -0.026484812 0.01834945 0.03847841
-0.13611348 -0.07274505 -0.0333954 0.09966573 0.121425375 0.08975712 -0.012880163 0.04276398
0.007632445 0.07710106 -0.06254245 -0.025382448 0.09089291 0.011709611 0.0388832 -0.074422486
-0.0506049 -0.09163829 0.015840136 0.027017172 -0.0824087 -0.025350083 -0.05260976 -0.095069826
0.13692811 0.02019649 -0.07009436 0.059480526 -0.024318451 0.024307173 0.007137223 -0.032982435
0.06680875 -0.07785823 -0.011417803 0.08219741 0.07148202 -0.0024950763 -0.036848858 -0.027112354
0.054587126 -0.020392334 0.058893938 -0.028109713 -0.063434705 -0.038114857 0.07254566 0.06718759
0.08811033 -0.07539816 0.12022674 0.07128283 -0.10226216 0.016425222 0.056567393 -0.015195364
0.003586299 -0.000984057 0.087545834 0.08545961 -0.004477474 0.07837752 0.05713334 -0.026989523
0.08009142 0.12955219 0.028079655 -0.003977641 0.05564301 -0.03031516 0.048246175 0.026521202
0.030042818 0.061461322 -0.115830116 -0.013438895 0.104882136 -0.0039836834 -0.009056088 -0.055206783
-0.1339578 0.026474163 -0.023983514 -0.059376087 -0.0024763546 0.062182114 0.03923729 -0.054467317
0.00041151606 -0.1012245 0.090894476 -0.066092715 0.0587961 -0.058810692 0.067346394 -0.085396186
-0.10252981 0.06478776 -0.10885368 0.029038118 0.00028087888 0.08655163 -0.019602148 -0.09587927
0.023341373 0.02517758 -0.043626726 -0.03776002 -0.06699613 0.019016461 -0.10222689 -0.061198
0.067091756 -0.01905924 -0.024497457 -0.12531482 -0.0010250676 -0.0580417 -0.09529391 0.08502376
-0.043603245 0.108650334 -0.050503764 -0.013155812 0.011184191 0.03083335 -0.0010708675 0.002280689
00000000: 17d9 12bd c065 d23d cde9 de3c ddff 023d
00000010: 351d b83a f719 c03d 9eb6 ab3d f592 0fbd
00000020: 2e42 bebd c406 da3d 2547 74bd e9fd 55bd
00000030: f3af ea3c 7823 223d 56d3 5ebd 3953 043d
00000040: 2933 7d3d 6577 2cbd 7321 66bd cf0f 703d
00000050: b096 98bd 8c8c edbd c6ea 8c3d 6ab7 8e3d
00000060: bc7a a0bd a86a a7bc 032a 60bd bf50 e43b
00000070: 3dea b9bd 7b89 b0bd 7e18 93bd 7770 693c
00000080: 3a33 f03c 3d3d b2bd f2a2 26bd a3e2 043d
00000090: f7e2 2ebb aab7 883d b1ff a5bd 88c5 60bd
000000a0: e5d2 56bd 6327 23bd bf88 273d 6f4a e3bd
000000b0: 43e9 df3d 52dc 863d 867d 8fbc fbc8 b33d
000000c0: 5e55 6dbc 77e4 ecbd 4407 2cbd c5a2 353d
000000d0: f8aa 17ba dd2c 3fbd 71e6 c7bd 9e5a d53c
000000e0: b1b9 45bd 8285 9ebd 345b 39bd d3df e5bd
000000f0: 0fcd 673c 3249 0b3c f5b0 4c3d 0143 18bd
00000100: 79e6 4d3d a9d0 f1bc cff0 88bd 9a83 b43d
00000110: aae3 adbc d407 acbd 5729 083d 61d5 c73c
00000120: 8278 703d d450 e9bc f63e 993d 993d 2ebb
00000130: d4d2 3d3d 4893 e53d d046 8cbc 0787 4ebc
00000140: ede6 563d c400 71bd 33f7 84bc a37e d73d
00000150: 67e3 b13d cd9e b63d bbf0 9bbd 79ca 843d
00000160: 3c51 3abc 680d bf3d 6962 163c 42a7 c3bc
00000170: 8d7f b23d 46c7 74bd be20 b53d 608c 763d
00000180: 1433 c1bd a753 843d a3bf c3bc 5675 4ebd
00000190: bab1 2fbd d371 cebd 95e9 0bbd 5e64 323c
000001a0: 1612 0abd 195d 73bd 8097 f7bc 4569 373c
000001b0: bcc6 d3bc d8ed 51bd 81d7 b3bd 9596 9f3d
000001c0: 2b9a bdbd 6b1e 06bb 7357 ee3c 6b58 cfbd
000001d0: 104b 24bd 6857 0f3d aacd 97bd 4b31 b53d
000001e0: b388 69bd 791c 2bbc 9c07 5ebc 914a 723d
000001f0: 9357 b7bd adf6 d8bc 9651 963c 8a9b 1d3d
00000200: 5561 0bbe 5bfb 94bd 9dc9 08bd 8c1d cc3d
00000210: dead f83d 95d2 b73d 5207 53bc 4829 2f3d
00000220: 9719 fa3b 29e7 9d3d 4216 80bd daee cfbc
00000230: 1026 ba3d abd9 3f3c fe43 1f3d d16a 98bd
00000240: 1547 4fbd dbac bbbd 2cc3 813c 1e53 dd3c
00000250: e4c5 a8bd faaa cfbc 557d 57bd f8b3 c2bd
00000260: e236 0c3e 1c73 a53c a28d 8fbd daa1 733d
00000270: 7d37 c7bc d61f c73c 5edf e93b 9718 07bd
00000280: 07d3 883d 2374 9fbd bd11 3bbc 1e57 a83d
00000290: 2a65 923d 6f84 23bb d4ee 16bd ba1a debc
000002a0: c096 5f3d d30d a7bc c53a 713d 5746 e6bc
000002b0: 0eea 81bd 531e 1cbd d292 943d a699 893d
000002c0: 3073 b43d 5a6a 9abd 7039 f63d bbfc 913d
000002d0: d36e d1bd 308e 863c 36b3 673d faf5 78bc
000002e0: 1d08 6b3b 79fb 80ba 3b4b b33d 7305 af3d
000002f0: c6b7 92bb 6584 a03d a604 6a3d 2219 ddbc
00000300: f806 a43d 54a9 043e 4e07 e63c df56 82bb
00000310: ede9 633d 8057 f8bc c89d 453d fe42 d93c
00000320: 5b1c f63c debe 7b3d 5738 edbd d02e 5cbc
00000330: 72cc d63d 8f89 82bb fc5f 14bc 8220 62bd
00000340: 3c2c 09be 58e0 d83c 1379 c4bc 5734 73bd
00000350: 564a 22bb acb2 7e3d 48b7 203d 1f19 5fbd
00000360: c0c0 d739 ca4e cfbd e226 ba3d 9e5b 87bd
00000370: 2ed4 703d 7be3 70bd e8ec 893d 32e4 aebd
00000380: 26fb d1bd 72af 843d aeee debd 59e1 ed3c
00000390: ed42 9339 fb41 b13d af94 a0bc 5a5c c4bd
000003a0: 6836 bf3c 3641 ce3c f0b1 32bd 40aa 1abd
000003b0: 4435 89bd 69c8 9b3c 555c d1bd c1aa 7abd
000003c0: 6767 893d 2022 9cbc e4ae c8bc 8752 00be
000003d0: 905b 86ba 22bd 6dbd 7429 c3bd f020 ae3d
000003e0: 5199 32bd 1184 de3d 09dd 4ebd 7a8b 57bc
000003f0: e63d 373c 3996 fc3c 5a5c 8cba 9d77 153b

decoder_lin.1.bias f4 [288]
-0.0041502398 -0.052441992 0.068214305 -0.08332712 -0.09451266 0.005952695 -0.05746144 0.05708439
0.059394177 0.0759669 -0.009222569 0.0750007 0.049875434 -0.115208425 -0.054697778 -0.10115991
-0.081087925 0.084122725 0.03189503 -0.034946863 -0.116590425 -0.07807386 -0.056861557 -0.09207212
-0.051111918 -0.040872417 0.0035974255 0.0711907 0.049302388 0.046416286 0.090125926 0.07482575
-0.029228602 0.07930857 0.114603765 0.033069637 -0.010005658 -0.065946504 -0.05274035 0.0028885256
0.0143383695 0.0061414354 0.07789643 0.07744851 0.066013254 0.016830076 0.004496541 -0.043716624
-0.081459515 -0.043750674 -0.10553319 0.0055635865 0.035674505 0.058258597 -0.088824466 -0.119910665
0.03455687 -0.0010068804 -0.07860613 0.06347501 -0.01737142 0.028454795 -0.008126408 -0.078996465
0.12053177 0.004531498 -0.05496172 0.07690174 0.11017427 0.030809866 -0.036596507 -0.020358752
0.062037695 0.006387901 -0.081029736 0.05612937 0.04772059 0.06344821 -0.07403487 0.05064293
-0.06806007 -0.011878413 -0.023183567 -0.0698927 -0.08687215 0.078234345 -0.012339355 0.0675645
0.06844568 0.07943501 -0.046781726 0.051288664 0.08253882 -0.02442319 -0.08364927 0.026270164
0.049912676 -0.030307254 0.06787748 0.003581512 0.113933705 0.02210281 0.053552136 0.057216186
-0.07892953 0.14372385 0.10846598 0.03672377 0.013008124 0.07020672 -0.03318187 0.09303654
-0.09091861 -0.0894447 -0.034243174 -0.072398126 0.007993285 -0.009555127 0.051260922 0.11924021
-0.059818197 0.083675906 0.058407098 -0.116288595 -0.067240834 -0.036271513 -0.009179778 0.06684867
-0.13148999 -0.08989274 -0.12933393 -0.12661909 -0.020582117 0.010147967 -0.0763393 0.04361276
0.060235567 -0.009272018 0.1146296 0.09782554 0.022899924 0.005398494 0.020532785 -0.10710419
-0.03082408 -0.08875563 -0.09648336 -0.021185156 0.029308045 -0.0033014847 0.06153024 0.07944201
0.0019719405 -0.11861732 -0.10501636 -0.084254414 -0.037303053 0.03163784 0.09009129 0.02585779
5.6596327e-05 0.06716034 -0.104897395 -0.0057523693 -0.018991092 -0.021460608 0.121404685 0.044664077
-0.07134341 0.0064465627 -0.015459028 -0.08543479 -0.09365295 -0.12304417 0.094327055 0.07651811
-0.042194974 -0.03714926 -0.09343378 -0.104060635 0.015791483 -0.05619426 -0.006358783 -0.031121777
-0.08802091 0.036638435 0.03139174 0.038228534 -0.047456414 0.00082846207 0.14016733 0.024052452
0.023389287 0.020478185 0.095458716 0.08563959 0.02118868 0.09768683 -0.05657316 0.005693811
0.078959346 -0.09851139 -0.14051975 -0.11829959 -0.07812993 0.004213507 -0.019761045 0.013309422
-0.05451587 -0.09605343 -0.024934255 0.10342454 -0.02711728 -0.0025166061 -0.037549447 -0.07746631
0.05293211 0.016174126 -0.0007488437 0.06431182 -0.023040278 0.025029248 -0.0642996 0.111333005
0.016929425 0.061499454 -0.10162639 0.005903227 0.0375442 -0.0534815 0.10712435 -0.07417905
-0.038394667 0.046125483 -0.07880763 0.097670674 0.103874475 -0.019877346 0.013323683 -0.061469402
-0.06939227 -0.008101253 0.13500333 0.10739579 0.1048172 -0.054614972 -0.06779622 0.07791421
0.05181363 0.13621569 0.11178862 -0.08888412 0.07154512 0.10234141 -0.051958773 -0.07007153
00000000: bcfe 87bb 6acd 56bd f1b3 8b3d 69a7 aabd
00000010: da8f c1bd d30e c33b b05c 6bbd 52d1 693d
00000020: 4f47 733d 8994 9b3d 421a 17bc f899 993d
00000030: 2f4a 4c3d 65f2 ebbd c70a 60bd ed2c cfbd
00000040: 6d11 a6bd 8948 ac3d 5da4 023d 7124 0fbd
00000050: f6c6 eebd 30e5 9fbd aae7 68bd 4f90 bcbd
00000060: bb5a 51bd d669 27bd c9c2 6b3b 6ecc 913d
00000070: 4df1 493d 011f 3e3d f193 b83d 3e3e 993d
00000080: d270 efbc 886c a23d 61b5 ea3d 0774 073d
00000090: c5ee 23bc f60e 87bd 4406 58bd 6b4d 3d3b
000000a0: 7beb 6a3c 183e c93b 2a88 9f3d 539d 9e3d
000000b0: f531 873d 3adf 893c b857 933b 3410 33bd
000000c0: 3fd4 a6bd e833 33bd c921 d8bd bf4e b63b
000000d0: 6e1f 123d 91a0 6e3d 9ae9 b5bd b993 f5bd
000000e0: 818b 0d3d 4df9 83ba 40fc a0bd 30ff 813d
000000f0: 824e 8ebc 081a e93c a024 05bc e6c8 a1bd
00000100: 5cd9 f63d f67c 943b 8a1f 61bd a97e 9d3d
00000110: 0ca3 e13d f964 fc3c 38e6 15bd 66c7 a6bc
00000120: 3d1b 7e3d 9951 d13b ebf2 a5bd e9e7 653d
00000130: aa76 433d 23f1 813d 989f 97bd f66e 4f3d
00000140: 1463 8bbd ad9d 42bc 77eb bdbc e723 8fbd
00000150: 07ea b1bd 5439 a03d 022b 4abc 425f 8a3d
00000160: 402d 8c3d d3ae a23d 329e 3fbd 1014 523d
00000170: 1d0a a93d 2413 c8bc 4f50 abbd 8734 d73c
00000180: 3c71 4c3d eb46 f8bc 5903 8b3d cdb7 6a3b
00000190: 1356 e93d f410 b53c 7c59 5b3d 855b 6a3d
000001a0: cea5 a1bd 582c 133e 6923 de3d aa6b 163d
000001b0: 0720 553c 8ac8 8f3d b6e9 07bd f189 be3d
000001c0: 8933 babd c82e b7bd 9242 0cbd 7845 94bd
000001d0: 44f6 023c 1b8d 1cbc f9f6 513d 3634 f43d
000001e0: ed03 75bd 465e ab3d 483c 6f3d b728 eebd
000001f0: 90b5 89bd 7091 14bd c866 16bc f5e7 883d
00000200: 50a5 06be af19 b8bd 1d70 04be 6fa8 01be
00000210: d49b a8bc a943 263c c757 9cbd 4ba3 323d
00000220: 92b9 763d aae9 17bc ecc2 ea3d c258 c83d
00000230: 9f98 bb3c dae5 b03b 5f34 a83c 7159 dbbd
00000240: c882 fcbc 83c5 b5bd 1199 c5bd 7e8c adbc
00000250: 6d17 f03c b95d 58bb 2207 7c3d 7eb2 a23d
00000260: ac3b 013b a3ed f2bd d112 d7bd 948d acbd
00000270: 16cb 18bd ae96 013d c881 b83d b7d3 d33c
00000280: d861 6d38 5c8b 893d 72d4 d6bd 5f7e bcbb
00000290: 3593 9bbc 28ce afbc 05a3 f83d aef1 363d
000002a0: 7e1c 92bd b03d d33b dd47 7dbc 6ff8 aebd
000002b0: 1ecd bfbd 95fe fbbd 8b2e c13d 87b5 9c3d
000002c0: a3d4 2cbd d329 18bd 365a bfbd be1d d5bd
000002d0: 245d 813c f42b 66bd 575d d0bb 19f3 febc
000002e0: 4f44 b4bd 2f12 163d a094 003d 8695 1c3d
000002f0: a861 42bd 262d 593a 0688 0f3e a609 c53c
00000300: e49a bf3c dec1 a73c dc7f c33d cf63 af3d
00000310: e293 ad3c 0810 c83d 42b9 67bd 2693 ba3b
00000320: 70b5 a13d 57c0 c9bd 69e4 0fbe 0e47 f2bd
00000330: 9602 a0bd 7511 8a3b eae1 a1bc c30f 5a3c
00000340: 084c 5fbd a9b7 c4bd ec42 ccbc 3fd0 d33d
00000350: 0f25 debc a5ed 24bb 73cd 19bd a8a6 9ebd
00000360: 57cf 583d 9a7f 843c 0d4e 44ba eab5 833d
00000370: f7be bcbc 230a cd3c 82af 83bd 8f02 e43d
00000380: 94af 8a3c dae6 7b3d 7f21 d0bd db6f c13b
00000390: f2c7 193d 6b0f 5bbd 0364 db3d 30eb 97bd
000003a0: ba43 1dbd 13ee 3c3d e565 a1bd 9007 c83d
000003b0: 24bc d43d d1d5 a2bc 944b 5a3c 57c7 7bbd
000003c0: 891d 8ebd 1ebb 04bc 503e 0a3e 53f2 db3d
000003d0: 66aa d63d f3b3 5fbd bfd8 8abd 7c91 9f3d
000003e0: 873a 543d 207c 0b3e 6ff1 e43d e108 b6bd
000003f0: 3f86 923d 6098 d13d b9d2 54bd aa81 8fbd

decoder_conv.0.weight f4 [32, 16, 3, 3]
-0.033082455 -0.044951063 0.01604753 0.03528539 0.044787247 -0.010480549 -0.07746597 -0.056932
0.049312137 0.038910553 0.02633788 -0.029214075 0.080284715 0.043324146 -0.017153023 -0.010749163
-0.024889234 -0.061010737 0.08220784 -0.0069620237 -0.0055332035 0.0058616544 -0.033917584 0.0047226576
-0.069708996 -0.15662958 -0.009707012 -0.03637761 -0.080875024 0.0089974 0.099894404 -0.03191362
0.018308548 0.061896373 0.047714844 0.03022333 0.007082908 -0.07067048 0.052700903 -0.05525671
-0.063316524 -0.014241358 0.017312178 -0.07649528 -0.0020337233 -0.04737403 0.042664494 -0.009586437
0.016861154 -0.05088778 -0.062091693 -0.07914338 0.0057737567 0.06478861 -0.049039744 -0.023406554
0.06184468 0.07614208 -0.02073161 -0.01695599 -0.04069068 0.024031831 -0.030357828 -0.007825645
0.060561188 -0.007896411 -0.046456605 -0.057690665 0.08608859 -0.0027470181 0.024744779 -0.0122829415
-0.029471114 0.044388924 0.06399501 -0.019059872 -0.047949225 0.0128441015 -0.040715493 0.04365286
-0.06183087 0.0072438996 -0.0070303185 0.08151511 0.029932177 0.068642505 -0.06723916 0.026984995
-0.03612417 -0.036570255 0.019282028 -0.0657406 0.017155362 -0.034612488 -0.043414194 -0.016225064
-0.0211132 0.02875593 -0.00948234 -0.01593807 -0.045534786 -0.06065647 0.03711238 0.038343977
-0.04927564 0.053385925 -0.007049211 0.0036243259 0.076434396 -0.007962207 0.052969612 0.0059975316
-0.047929417 -0.051132962 -0.052579172 -0.054707546 0.0099844625 -0.023074802 0.07094909 -0.012488032
-0.0924521 -0.025102628 0.014432297 -0.030102182 0.015992807 -0.052662797 -0.007489837 0.026238443
0.011202144 0.07424275 -0.044543218 -0.016327277 0.052173156 -0.086341 0.08043181 0.107672244
0.046330404 0.052525837 0.036886603 -0.06888197 -0.0024127376 -0.024018366 -0.011536298 0.03068404
0.002876705 0.0044872714 -0.043954004 0.030619867 -0.051227726 -0.028657638 -0.057904124 -0.11021652
-0.06964992 0.070064366 0.008096351 0.0068985606 -0.045028176 0.0072068176 0.02429785 -0.06307509
0.06407274 0.07370155 -0.035570238 0.036370814 0.056656912 -0.021712009 -0.0027606678 0.019652754
-0.003038672 0.10463187 0.087973796 -0.057756472 0.038611893 0.04528672 -0.0025379318 0.07443247
0.006389064 -0.04778015 -0.008258872 0.05760306 0.05158707 0.04993831 0.09737447 -0.032516595
0.045360968 -0.033769723 -0.013912231 0.039861016 0.015040151 -0.0057649137 -0.046356373 0.019350935
0.07690114 -0.017294383 -0.041361492 0.10307546 0.013992855 0.020934762 -0.013565562 0.028654102
-0.10401531 -0.008923919 -0.062859885 -0.13307127 -0.073593296 0.11113448 0.055603053 -0.037228532
-0.010118242 -0.07022505 -0.0031145765 -0.008821305 -0.085196115 0.05514071 -0.0043653473 0.014092064
-0.02943223 -0.08939675 -0.014741627 0.024052605 -0.006167595 -0.043703683 0.05142574 -0.008120483
-0.03576095 -0.0032167013 -0.038903877 -0.019149141 -0.009028528 0.003993871 0.0037582056 -0.007886286
2.1633117e-05 0.04359454 -0.05309267 -0.10063025 -0.0010716883 -0.098634325 0.028737092 0.007677873
0.0130122565 -0.045023754 -0.038087897 -0.05467499 0.013221182 0.04405677 -7.90329e-05 -0.040061783
-0.0617368 0.084974736 0.03128872 0.05281819 -0.0927467 0.007788235 0.021366924 0.067250974
00000000: 7881 07bd 9b1e 38bd 1c76 833c 6a87 103d
00000010: d572 373d 9cb6 2bbc 7aa6 9ebd 8731 69bd
00000020: 86fb 493d ac60 1f3d 8ac2 d73c 5b52 efbc
00000030: 506c a43d a974 313d 7f84 8cbc 421d 30bc
00000040: 82e4 cbbc 65e6 79bd 965c a83d b021 e4bb
00000050: e04f b5bb 1f13 c03b 2aed 0abd 86c0 9a3b
00000060: 97c3 8ebd 8163 20be 290a 1fbc b000 15bd
00000070: cea1 a5bd d569 133c 7095 cc3d dbb7 02bd
00000080: cffb 953c 0d87 7d3d a470 433d eb96 f73c
00000090: bd17 e83b afbb 90bd e7dc 573d dc54 62bd
000000a0: 18ac 81bd 9654 69bc 45d2 8d3c 8fa9 9cbd
000000b0: 3748 05bb 450b 42bd f7c0 2e3d 6e10 1dbc
000000c0: 6720 8a3c b46f 50bd dc53 7ebd ed15 a2bd
000000d0: c831 bd3b e4af 843d e6dd 48bd 1abf bfbc
000000e0: d950 7d3d 61f0 9b3d 56d5 a9bc 4ae7 8abc
000000f0: 45ab 26bd 67de c43c fbb0 f8bc 2237 00bc
00000100: 020f 783d f35f 01bc 4849 3ebd 0c4d 6cbd
00000110: 374f b03d 5107 34bb 90b5 ca3c 643e 49bc
00000120: 686d f1bc 29d1 353d d10f 833d 7323 9cbc
00000130: 6866 44bd 1170 523c 4ac5 26bd 57cd 323d
00000140: 5e42 7dbd 3c5e ed3b 965e e6bb 65f1 a63d
00000150: 5334 f53c 7194 8c3d afb4 89bd a30f dd3c
00000160: f0f6 13bd b1ca 15bd 58f5 9d3c 02a3 86bd
00000170: 6789 8c3c d3c5 0dbd 15d3 31bd 6dea 84bc
00000180: 97f5 acbc 8e91 eb3c d15b 1bbc 8e90 82bc
00000190: af82 3abd eb72 78bd 2703 183d 930e 1d3d
000001a0: 41d5 49bd 33ab 5a3d 11fd e6bb 1986 6d3b
000001b0: a389 9c3d eb73 02bc aaf6 583d f186 c43b
000001c0: a351 44bd cc70 51bd 425d 57bd 0515 60bd
000001d0: df95 233c 5e07 bdbc c24d 913d 9a9a 4cbc
000001e0: 8757 bdbd 07a4 cdbc 7175 6c3c da98 f6bc
000001f0: 5903 833c f2b4 57bd 4e6d f5bb 01f2 d63c
00000200: 3389 373c 950c 983d f372 36bd c8c0 85bc
00000210: 85b3 553d 8dd3 b0bd 6fb9 a43d 4483 dc3d
00000220: f3c4 3d3d 5525 573d 6816 173d fe11 8dbd
00000230: 051f 1ebb 2ac2 c4bc be02 3dbc 195d fb3c
00000240: 1a87 3c3b f609 933b 1d09 34bd 84d6 fa3c
00000250: 2ad4 51bd 6cc3 eabc e02c 6dbd 33b9 e1bd
00000260: 9ea4 8ebd e87d 8f3d 8fa6 043c 520d e23b
00000270: 776f 38bd 2b27 ec3b 490c c73c 832d 81bd
00000280: 9238 833d d7f0 963d 19b2 11bd 90f9 143d
00000290: 1411 683d 62dd b1bc 52ec 34bb d0fe a03c
000002a0: 7524 47bb 3c49 d63d 9b2b b43d 0d92 6cbd
000002b0: 8127 1e3d 917e 393d 6e53 26bb 0d70 983d
000002c0: 5a5b d13b 1eb5 43bd 3850 07bc 30f1 6b3d
000002d0: f74c 533d 1d8c 4c3d 446c c73d 1f30 05bd
000002e0: 6ccc 393d 1f52 0abd 20f0 63bc 4e45 233d
000002f0: f76a 763c 9ae7 bcbb 2ee0 3dbd da85 9e3c
00000300: 587e 9d3d f3ac 8dbc ab6a 29bd 3a19 d33d
00000310: 4a42 653c 617f ab3c 1742 5ebc 02bc ea3c
00000320: fb05 d5bd a135 12bc afbc 80bd d643 08be
00000330: 15b8 96bd 799a e33d 07c0 633d f27c 18bd
00000340: fcc6 25bc 27d2 8fbd ec1d 4cbb 3c87 10bc
00000350: 4d7b aebd 3adb 613d 300b 8fbb 67e2 663c
00000360: dc1b f1bc a515 b7bd dd86 71bc f809 c53c
00000370: 8919 cabb a202 33bd cca3 523d c60b 05bc
00000380: 137a 12bd 4bcf 52bb ac59 1fbd a9de 9cbc
00000390: 64ec 13bc 05df 823b 3a4c 763b 7b35 01bc
000003a0: c478 b537 3090 323d b377 59bd 3c17 cebd
000003b0: e477 8cba cb00 cabd 0d6a eb3c ab96 fb3b
000003c0: 5c31 553c d46a 38bd 0e02 1cbd e2f2 5fbd
000003d0: a89d 583c df74 343d 77be a5b8 d317 24bd
000003e0: badf 7cbd 3c07 ae3d 9a28 003d e357 583d
000003f0: fbf1 bdbd 7334 ff3b b009 af3c e1ba 893d

decoder_conv.0.bias f4 [16]
-0.0019053099 0.035564296 -0.059714522 0.0833917 -0.004019836 0.07522405 -0.06103321 0.07313688
0.05833973 0.034673087 0.02883253 0.036737356 -0.113083705 0.03278048 0.07390156 -0.055720143
00000000: 97bb f9ba deab 113d 3797 74bd 45c9 aa3d
00000010: d4b8 83bb 110f 9a3d f6fd 79bd cac8 953d
00000020: a4f5 6e3d 5e05 0e3d 3332 ec3c e979 163d
00000030: 6e98 e7bd d344 063d b359 973d ce3a 64bd

decoder_conv.1.weight f4 [16, 8, 3, 3]
0.09348825 0.03136948 0.05009673 0.11006733 -0.044373658 0.01778924 -0.0601324 -0.10746313
-0.04036425 -0.02260223 -0.04618048 -0.06901254 -0.079578236 0.023448793 0.06276273 0.011041476
-0.049810637 -0.10253293 0.057576284 0.013244835 -0.05582592 -0.0047776345 0.110683 0.07943586
0.044614676 -0.065738566 -0.07873328 0.031254455 -0.019492226 -0.01998048 -0.12394553 -0.11476381
-0.12445593 0.000541255 -0.01160505 0.07305202 -0.04947799 -0.09121454 -0.008974408 -0.047397647
0.0673255 0.08501412 -0.045108583 -0.080542125 -0.012901191 -0.021243934 -0.017330118 -0.09799809
0.10563291 0.13792492 -0.051977973 0.03658067 0.0084497165 -0.0071545914 -0.015614145 0.005430835
-0.07563069 0.042235002 0.049127225 0.058758643 -0.056773778 0.0007450489 0.07115178 -0.108718656
0.017885486 0.0052958033 0.0814522 -0.051962595 -0.0075797155 -0.025063828 -0.097436324 -0.109298006
0.030805172 -0.019662894 0.04741085 -0.033706896 -0.07506257 -0.020728033 -0.036970425 -0.09840522
-0.06104447 0.016561052 0.041404713 0.064176954 0.08811635 -0.072178595 0.009023336 0.0033513473
0.0037057311 -0.034813087 0.07014885 0.0704836 0.05033706 -0.122287706 0.013803177 -0.0069847787
-0.08100587 0.061335627 -0.1045314 0.034104157 0.11870358 0.013536418 -0.00014157637 0.13228112
0.11839467 0.047494758 0.113959305 0.075978756 -0.075578876 0.07960655 0.04149065 0.11719794
-0.016670192 -0.006302823 0.060980577 -0.03634356 0.10320193 0.087425016 0.076323606 -0.09107824
0.01660507 -0.066983804 9.473705e-05 0.060513 -0.08364267 -0.11657474 -0.028232357 -0.024455832
0.14178412 -0.031478394 -0.0769012 0.11540169 -0.10861038 0.093894646 0.05607165 0.053606145
0.00080355606 0.020585814 0.075674444 -0.08357313 0.03633557 -0.03240565 0.102536835 -0.047644954
0.01725807 0.03692317 -0.03237355 -0.0801538 -0.039537217 0.022818018 -0.013248856 0.0495887
0.004990296 -0.049844217 0.037373163 -0.027618263 -0.03714816 0.024939343 0.03765233 -0.06805551
-0.03040761 0.1040264 -0.057025444 0.013489566 0.03837623 -0.066373736 0.087895975 -0.09989259
-0.04522623 -0.0026134457 0.08148923 0.07311483 0.10212867 0.06484336 -0.050045203 0.050071765
0.13110642 -0.043921567 0.1087426 0.11893484 -0.04904949 0.061558202 0.13361825 0.020203037
0.07626101 -0.06941234 0.09854728 0.04858932 0.052258696 0.085906826 0.027315076 -0.010589972
-0.10071452 -0.058670573 0.009468037 -0.09774327 -0.014063826 -0.13585897 -0.03428956 0.116117865
0.026221136 0.0024901454 0.08879197 0.111242846 -0.112948574 0.094267786 -0.026443642 0.0600366
-0.037513055 -0.04266235 -0.030335847 -0.09073542 -0.009001432 -0.08857421 0.08767816 0.0908492
-0.093425475 -0.07880525 0.050060675 0.0074722273 -0.027319686 0.025320912 0.01379791 0.08103533
0.061749853 -0.05483141 -0.034758512 0.061396603 -0.113759704 0.035497777 0.0442663 -0.079987206
-0.041626938 -0.034486927 -0.08584886 -0.006183878 0.07218099 -0.06309347 -0.03664884 -0.06485746
-0.08064182 -0.05622729 0.03476635 0.080221586 0.013065767 -0.032990266 -0.13552293 0.102700315
0.027630312 -0.0857646 -0.025971958 -0.03735015 -0.034470268 0.0121635245 -0.05670208 -0.10695532
00000000: c576 bf3d 497d 003d 3b32 4d3d fb6a e13d
00000010: 27c1 35bd beba 913c 644d 76bd a115 dcbd
00000020: fc54 25bd 5028 b9bc be27 3dbd 7256 8dbd
00000030: eaf9 a2bd af17 c03c bf89 803d 4fe7 343c
00000040: 3d06 4cbd c9fc d1bd 1cd5 6b3d dd00 593c
00000050: b8a9 64bd b48d 9cbb c5ad e23d 45af a23d
00000060: e1bd 363d f1a1 86bd ea3e a1bd ac04 003d
00000070: 29ae 9fbc 1bae a3bc 27d7 fdbd 4a09 ebbd
00000080: c0e2 febd 02e3 0d3a 1c23 3ebc 4c9c 953d
00000090: 6fa9 4abd b0ce babd 6509 13bc 0924 42bd
000000a0: f4e1 893d e21b ae3d c7c3 38bd 45f3 a4bd
000000b0: 845f 53bc c207 aebc e4f7 8dbc 39b3 c8bd
000000c0: 1156 d83d 313c 0d3e dbe6 54bd 9dd5 153d
000000d0: ae70 0a3c 1071 eabb 79d2 7fbc 25f5 b13b
000000e0: 43e4 9abd 9cfe 2c3d a139 493d e7ac 703d
000000f0: 9f8b 68bd 634f 433a 06b8 913d e3a7 debd
00000100: 9584 923c 6b88 ad3b 69d0 a63d bbd6 54bd
00000110: 435f f8bb a852 cdbc b28c c7bd a2d7 dfbd
00000120: 215b fc3c 1414 a1bc e131 423d 3e10 0abd
00000130: 68ba 99bd d6cd a9bc 4d6e 17bd ad88 c9bd
00000140: c409 7abd 0bab 873c fd97 293d 356f 833d
00000150: 5876 b43d 5fd2 93bd 9dd6 133c 47a2 5b3b
00000160: dadb 723b 2b98 0ebd 33aa 8f3d b559 903d
00000170: 3c2e 4e3d fa71 fabd b826 623c 92e0 e4bb
00000180: 68e6 a5bd 113b 7b3d 8f14 d6bd cdb0 0b3d
00000190: dd1a f33d dac7 5d3c 1e74 14b9 b474 073e
000001a0: e878 f23d dd89 423d 7f63 e93d c09a 9b3d
000001b0: 19c9 9abd c208 a33d 1af2 293d 7905 f03d
000001c0: ed8f 88bc e987 cebb c5c6 793d fcdc 14bd
000001d0: 895b d33d e30b b33d 8d4f 9c3d 3a87 babd
000001e0: 5b07 883c ce2e 89bd 91ad c638 7bdc 773d
000001f0: d94c abbd bdbe eebd 8b47 e7bc 9957 c8bc
00000200: db2f 113e 7def 00bd 607e 9dbd b957 ec3d
00000210: 1e6f debd d64b c03d 63ab 653d 1e92 5b3d
00000220: bca5 523a 95a3 a83c 34fb 9a3d 6428 abbd
00000230: 9bd4 143d c9bb 04bd d5fe d13d 5b27 43bd
00000240: cc60 8d3c c03c 173d 219a 04bd ad27 a4bd
00000250: c7f1 21bd daec ba3c bb11 59bc 851d 4b3d
00000260: a385 a33b 7329 4cbd 9a14 193d b23f e2bc
00000270: ab28 18bd 984d cc3c 5439 1a3d b060 8bbd
00000280: 6119 f9bc cb0b d53d 8393 69bd 5703 5d3c
00000290: 6530 1d3d f4ee 87bd ce02 b43d 7c94 ccbd
000002a0: 243f 39bd 5846 2bbb d3e3 a63d 3abd 953d
000002b0: d628 d13d 98cc 843d 33fc 4cbd 0d18 4d3d
000002c0: c340 063e 1ae7 33bd 71b4 de3d 1c94 f33d
000002d0: 1ee8 48bd 7424 7c3d 39d3 083e d780 a53c
000002e0: bb2e 9c3d 0f28 8ebd 28d3 c93d 9805 473d
000002f0: 370d 563d ebef af3d dec3 df3c 9081 2dbc
00000300: 6a43 cebd 8e50 70bd d31f 1b3c a02d c8bd
00000310: f66b 66bc 9d1e 0bbe 3673 0cbd 34cf ed3d
00000320: b5cd d63c b531 233b 90d8 b53d 4ad3 e33d
00000330: 9551 e7bd 780f c13d 56a0 d8bc f0e8 753d
00000340: 4aa7 19bd b7be 2ebd e282 f8bc 7ed3 b9bd
00000350: be7a 13bc 6566 b5bd 9b90 b33d 250f ba3d
00000360: db55 bfbd a664 a1bd 6c0c 4d3d 96d9 f43b
00000370: 89cd dfbc cd6d cf3c a110 623c daf5 a53d
00000380: 6aed 7c3d e796 60bd f15e 0ebd 017b 7b3d
00000390: d9fa e8bd 1e66 113d 9450 353d 55d0 a3bd
000003a0: 0281 2abd 2a42 0dbd 87d1 afbd 21a2 cabb
000003b0: a0d3 933d 2637 81bd 181d 16bd fdd3 84bd
000003c0: 8a27 a5bd 964e 66bd 2967 0e3d 374b a43d
000003d0: cc11 563c cd20 07bd 86c6 0abe 8b54 d23d
000003e0: f758 e23c 5aa5 afbd 25c3 d4bc 79fc 18bd
000003f0: b230 0dbd 8549 473c 7140 68bd 640b dbbd

decoder_conv.1.bias f4 [8]
-0.109675236 -0.0802512 0.079521276 0.06466831 -0.003681214 0.0058214446 0.098989464 -0.098529845
00000000: 699d e0bd be5a a4bd 0ddc a23d d270 843d
00000010: 8640 71bb d1c1 be3b fdba ca3d 04ca c9bd

decoder_conv.2.weight f4 [8, 1, 3, 3]
-0.095007 -0.23701407 -0.17662014 -0.106498316 0.26351702 0.24950978 0.28495064 0.06781772
-0.12522464 0.19006361 0.26766953 -0.2603945 -0.1390901 -0.16307083 -0.13045277 0.048405763
-0.33666435 0.02172562 -0.2799724 -0.036259755 -0.2917538 0.09613618 0.06667869 -0.07612861
-0.07717553 0.2534282 -0.10148325 -0.15376498 -0.09102899 -0.25933614 -0.36163446 -0.32448182
-0.28398728 -0.29273 -0.14025752 0.2319479 -0.1699386 -0.085541 0.025613286 -0.18542778
-0.14990215 -0.011132047 -0.29414305 -0.19716607 0.07369776 -0.1811039 0.08599293 -0.2575914
-0.21557789 0.31307873 -0.21088949 0.12291324 0.32842892 0.16690128 0.14356945 0.013030409
-0.050817117 0.25955063 0.05706444 -0.23645706 -0.06343568 -0.27472273 -0.31358892 -0.3314552
0.2574765 -0.15297824 -0.20405512 -0.33029965 -0.3042716 -0.27682388 0.12523946 -0.278938
00000000: 0893 c2bd d1b3 72be e9db 34be ca1b dabd
00000010: b4eb 863e 7e7f 7f3e 0de5 913e 04e4 8a3d
00000020: e33a 00be 09a0 423e fb0b 893e 6e52 85be
00000030: a36d 0ebe 0afc 26be 6995 05be 1f45 463d
00000040: 455f acbe edf9 b13c 8b58 8fbe 1c85 14bd
00000050: c160 95be 0ce3 c43d d68e 883d 51e9 9bbd
00000060: 340e 9ebd 57c1 813e 73d6 cfbd 9174 1dbe
00000070: 686d babd b5c7 84be 2728 b9be 7b22 a6be
00000080: c866 91be b5e0 95be ab9f 0fbe c083 6d3e
00000090: 6204 2ebe 1f30 afbd f4d2 d13c c8e0 3dbe
000000a0: f37f 19be 3063 36bc eb99 96be e7e5 49be
000000b0: daee 963d 4d73 39be 101d b03d 05e3 83be
000000c0: 73c0 5cbe db4b a03e 6af3 57be f0b9 fb3d
000000d0: d627 a83e 2be8 2a3e df03 133e 7f7d 553c
000000e0: 9c25 50bd d2e3 843e 67bc 693d cd21 72be
000000f0: 91ea 81bd 75a8 8cbe ba8e a0be 7fb4 a9be
00000100: f6d3 833e 54a6 1cbe d3f3 50be 091d a9be
00000110: 7dc9 9bbe dcbb 8dbe c63e 003e f6d0 8ebe
