lab5/decoder_params.pth (torch, 103541 bytes, 9 tensors)

decoder_lin.0.weight f4 [64, 2]
000000 6f 9b eb 3e 19 02 29 3f 87 ad dd be 10 64 a5 3b
       0.46017024 0.66018826 -0.43296453 0.005047329
000010 6b da 15 bf c1 60 91 3d 7a 72 92 3e 3c 86 1e be
       -0.58536404 0.070985325 0.28602964 -0.15480894
000020 61 74 dc be 85 15 fa be 3e a1 48 3d b0 48 04 3f
       -0.4305754 -0.48844543 0.048981898 0.5167341
000030 32 ca 63 3e 6b 5a 29 bf 50 1e 68 3e fc f1 87 3e
       0.222451 -0.6615359 0.22667813 0.26551807
000040 a6 88 0b bf 70 af 85 3e 84 30 09 3f c1 1b a1 be
       -0.54505384 0.2611041 0.53589654 -0.31466487
000050 56 86 1b bf 57 c3 1f be 8b 81 1e 3e c4 17 44 3e
       -0.60751855 -0.1560186 0.15479104 0.19149691
000060 c7 69 2f 3d 67 0a 8a 3e 3c d1 d5 be be 5e 83 be
       0.042825487 0.2696106 -0.41761196 -0.2565822
000070 24 f3 1a bf 55 21 31 3f 97 d6 b2 be b5 04 b5 3c
       -0.60527253 0.69191486 -0.34929344 0.022096971
000080 8c 4e 36 3f 93 3c e7 bd 1a 9e 79 3e e0 17 86 be
       0.71213603 -0.112908505 0.24376717 -0.2619009
000090 fc 0c e9 3d b2 68 c1 3c ab 1e a8 be 48 a0 31 bf
       0.1137943 0.023609493 -0.32835898 -0.69385195
0000a0 b2 7b cc be 48 db 1b bf fd b4 d4 3e e2 a6 e3 3d
       -0.39938122 -0.6088147 0.41544333 0.11115815
0000b0 0a fa d3 3e 39 af b8 bd 89 c6 59 be 81 68 cd 3e
       0.41401702 -0.09017796 -0.21267141 0.40118793
0000c0 f7 26 fb be 5a cc 44 be bd 53 24 3f a3 36 b9 be
       -0.49053165 -0.19218579 0.64190274 -0.36174497
0000d0 cd 80 92 bb 4f ab 42 3d be ec 98 3e ca 0e d4 bc
       -0.0044709207 0.047526654 0.2986812 -0.025885958
0000e0 e5 30 3c bd 16 8a d2 be 93 54 85 3e b6 54 4d 3e
       -0.045945067 -0.41120976 0.26041088 0.20051846
0000f0 1e d3 47 3e d4 10 da be 7f f6 13 bf e0 53 a2 bd
       0.19514129 -0.42590964 -0.57798 -0.07926154
000100 7e b1 3b a2 bf 53 e2 b8 03 a9 14 bf 57 cf ab 3d
       -2.543719e-18 -0.00010792119 -0.5807039 0.08389156
000110 5c 0c fe 3e e7 36 ca bd e7 af 2e 3f dc f7 16 3f
       0.49618804 -0.09873753 0.68237156 0.58971953
000120 8e ca 6b be bc c0 3d bc 1b 55 91 3d fe 62 89 3e
       -0.23026487 -0.011581596 0.07096311 0.26833338
000130 89 7d c5 3e 9f 6a 27 3f ef f5 1b 3f 75 7d 47 be
       0.38572338 0.65397066 0.6092214 -0.19481452
000140 6d 28 bc 3e 3b 05 4e be 99 69 84 3e ee 17 d5 3e
       0.36749592 -0.20119183 0.25861815 0.4161982
000150 73 14 28 3f e2 7c 2f 3e 02 5f 1d 3e 0d 44 02 3e
       0.65656203 0.17137483 0.15368274 0.12721272
000160 56 a4 bd be 97 1c d7 3e a6 97 d2 be df e9 2f 3f
       -0.3703944 0.42014 -0.41131324 0.68716234
000170 27 0e c0 3e a4 4e 0f 3d 54 c7 88 bc 7f db 26 bf
       0.37510797 0.034987107 -0.01669661 -0.65178674
000180 5f fc d3 be 69 2c 32 bf 63 81 2a 3e 6c 5e ef be
       -0.4140348 -0.69599015 0.1665092 -0.46751726
000190 c8 95 72 be a4 83 2d be e1 bf d8 3e c3 6f 3f be
       -0.2368995 -0.16944748 0.42333892 -0.18694977
0001a0 b5 15 27 3e 59 0e 85 3d 5a b7 c7 3e b2 cd 23 3e
       0.16316874 0.06496877 0.39007074 0.15996435
0001b0 be ea d9 3e e5 78 ee 3e d5 15 80 3c 24 7e 09 3f
       0.42561907 0.4657661 0.01563541 0.537081
0001c0 43 5f d6 3e ac 83 fc 3d 17 08 14 bf 48 8e b3 3e
       0.41869554 0.12329802 -0.57824844 0.3506949
0001d0 45 f2 ac be 84 2e 3e 3e 84 01 92 bc 7d 88 1e bf
       -0.33778587 0.18572432 -0.017822988 -0.61927015
0001e0 94 2d dc 3d 79 63 ea be 2c d5 da be ac 80 8c 3d
       0.10750881 -0.45779017 -0.42740762 0.0686048
0001f0 fe e4 9f be ad 09 f1 3b 3c b8 cd be aa e7 1c 3f
       -0.31229395 0.00735589 -0.40179622 0.6129099

decoder_lin.0.bias f4 [64]
000000 50 63 9e 3e a3 54 27 3f 80 e2 4e be c2 91 4a bd
       0.30935144 0.6536352 -0.2020359 -0.04945541
000010 09 6e 97 3d 8e 84 a6 be 8f 86 ea be fc 1d e7 be
       0.073940344 -0.32523006 -0.45805785 -0.45140064
000020 e4 5f 17 3e b8 7e a0 3e fe 24 9e bd 5f 16 80 bd
       0.14782673 0.3134668 -0.077218994 -0.06254267
000030 28 79 b9 be 6f b7 d1 3e 31 57 91 3e 18 a9 5a 3e
       -0.36225247 0.4096026 0.28386834 0.21353567
000040 41 ec b0 3e ca 80 a7 3e aa 99 3b bd c4 60 1b 3f
       0.34555247 0.32715446 -0.045800842 0.6069453
000050 a2 1a cb be db fc dd be c7 8b 05 3f 88 4b 2e 3f
       -0.39668757 -0.43356976 0.5216641 0.68084
000060 b1 41 98 be db 26 b4 3e 5d 26 eb 3e 39 e8 06 be
       -0.2973762 0.35185894 0.45927706 -0.13174523
000070 e6 b9 8a be e0 06 61 bd 77 3e a4 be 15 7c 2e be
       -0.27094954 -0.054938197 -0.32078907 -0.17039521
000080 57 7c 95 be d8 21 9c be c7 93 ef 3e e6 4e 53 3e
       -0.29196426 -0.3049457 0.46792433 0.20635566
000090 cb 33 02 3f b8 6c 02 3d 71 a2 7d be 77 fe 0a bf
       0.5086028 0.031841964 -0.24768998 -0.5429453
0000a0 ba a7 a9 3d 5e d1 1c 3f 36 ab dd 3e a0 5a 1a bf
       0.082839444 0.6125697 0.43294686 -0.6029453
0000b0 a7 42 ec be dc ff fe 3d 6b be c8 be 30 db 00 3f
       -0.46144602 0.12451145 -0.39207777 0.50334454
0000c0 e2 3e ef bd 24 82 42 3e 8c 94 7c 3e 7c 8b 78 be
       -0.11681916 0.18994957 0.24666041 -0.24271959
0000d0 10 90 3b 3e 0b fc 55 bd a6 25 fd be 50 d4 82 be
       0.18316674 -0.05224232 -0.49442786 -0.25552607
0000e0 f0 8a e6 3d c3 55 d1 be 30 7b 09 be f2 53 4a 3e
       0.11256969 -0.40885743 -0.13425899 0.19758585
0000f0 37 8a 90 be 35 7b 2b 3f a5 29 83 be 9b 7e ce 3d
       -0.2823045 0.66984874 -0.2561771 0.10082742

decoder_lin.2.weight f4 [288, 64]
000000 28 6d 74 bd 2c fc 9a 3d d5 ae e8 3c 54 3d 35 3a
       -0.059674412 0.07567629 0.028403679 0.00069137407
000010 f1 ca 59 3c 54 35 a3 3b 86 c0 a5 3c ba 2a ba bc
       0.013293014 0.0049807224 0.020233404 -0.022725452
000020 08 98 01 bc 21 98 9b 3d e4 91 7b 3d 74 fb 8d bc
       -0.007909782 0.07597376 0.06141843 -0.017331816
000030 d1 ed 16 bc 71 fb 23 3d ea f3 47 bd 31 94 d0 3c
       -0.009211973 0.040034715 -0.0488166 0.025461288
000040 fd 4a 59 3d b4 c7 c7 bc 37 21 88 3b 7a ce 01 3d
       0.05305003 -0.024387218 0.00415435 0.031691052
000050 00 b1 04 3c db f2 bf bc 52 40 5a 3d 03 34 15 3d
       0.008098841 -0.023431232 0.053283997 0.036426555
000060 e4 21 97 3d c7 e0 d1 bb c0 ac 3e bd 84 c1 06 bb
       0.07379511 -0.0064049694 -0.046551466 -0.0020562122
000070 f9 04 85 39 fb ee c0 bc 61 ad b5 39 f8 4b 54 3d
       0.00025371442 -0.023551455 0.00034652188 0.051830262
000080 00 28 41 a4 ef b0 83 3c 6a 8a 13 bd 0c cc 74 bb
       -4.1884085e-17 0.01607558 -0.036020674 -0.0037353067
000090 48 80 8b bb 99 e1 03 3c 70 f7 54 bd f6 e0 8b bb
       -0.0042572357 0.008049392 -0.051993787 -0.004268761
0000a0 7d 96 28 3b d6 99 78 bd 81 72 1b 3d 53 f8 f7 3b
       0.0025724464 -0.060693584 0.037950996 0.0075674444
0000b0 9b 4c 56 3c f7 a5 d1 3c 86 82 9b 38 3a e5 85 3d
       0.013079788 0.025591834 7.415288e-05 0.06537862
0000c0 94 31 20 3b ad 94 74 bd 2c 68 fc 3c df 17 e5 3a
       0.0024443613 -0.0597121 0.030811392 0.0017478428
0000d0 4d cc 81 bb e8 e2 2b bc 8e 35 27 bd a3 53 7c 3c
       -0.003961122 -0.01049111 -0.040822558 0.0154008
0000e0 46 c8 a9 bc 09 a0 ee 3b 27 e7 1f 3c 6f 93 5f bd
       -0.02072538 0.0072822613 0.009759701 -0.054583963
0000f0 07 08 b6 3b e6 f8 a7 3a 24 bc df 3c 24 83 e3 bc
       0.005555156 0.0012815266 0.027311392 -0.027772494
000100 8e f9 3f bc c3 e1 05 bd 46 26 39 bc d8 9b b6 3c
       -0.011717213 -0.032686006 -0.011300629 0.022291109
000110 dd 8f 6c 3d 91 f4 ba bc e4 ec 00 3d e5 fe 22 bd
       0.057754386 -0.022821696 0.031475917 -0.039793868
000120 5a ff a4 bb 4c b8 34 39 c1 d2 06 3d 34 0f 29 bd
       -0.005035323 0.00017234794 0.032915834 -0.041274264
000130 31 1a 98 bc 90 00 9f 3d 1b 7b 04 bd 2f ba 89 bc
       -0.018567177 0.07763779 -0.032343965 -0.016812412
000140 e9 e7 67 3d 26 b7 c9 bc be 2f f3 3a 1a fb e9 3d
       0.05661765 -0.024623465 0.0018553657 0.11424847
000150 2f cc 13 3d 35 ae b5 b9 62 1e 6b bd 82 21 ff 3c
       0.036083397 -0.00034652805 -0.057402022 0.031143907
000160 da 22 23 3d 58 1a c4 3d 20 8b 07 bc 51 20 78 bc
       0.03982816 0.09575337 -0.008272916 -0.015144424
000170 43 82 70 3d 0b df 25 bd d1 4c 14 3d 37 58 90 3c
       0.058717977 -0.040495913 0.03620607 0.01762019
000180 19 d6 17 b9 ee 36 83 bb f5 a8 c3 bb f8 9f 96 bd
       -0.0001448024 -0.004004351 -0.005971069 -0.0735473
000190 06 eb 08 bd 58 87 0c bd 3b 77 85 bd 0a c9 8b bc
       -0.03342726 -0.03430876 -0.06516882 -0.017063636
0001a0 ef d1 80 3c cd c3 a4 bd 01 9d 9e bc 02 7e 94 3b
       0.015725104 -0.080451585 -0.019361975 0.004531623
0001b0 90 5f 86 bc 87 e2 23 bd 72 ff 1f bd 61 e2 ca 3d
       -0.01640299 -0.040010955 -0.03906197 0.099064596
0001c0 46 ab 10 3d 03 8b fb 3c ff d3 96 3c 9c de fe bc
       0.03531959 0.030705934 0.018411634 -0.031112008
0001d0 8a 3c d8 bc 54 03 84 bc fb da 8b bd 28 32 45 bc
       -0.026396055 -0.016114868 -0.068288766 -0.012035884
0001e0 2d b4 0d bd f1 a9 1f bc ea af 41 bc 50 22 b2 3d
       -0.034595657 -0.009745107 -0.011821726 0.08697951
0001f0 66 53 7e 3c cb 40 15 bd 66 15 7b bb db d8 a5 bb
       0.015522813 -0.036438745 -0.0038312315 -0.0050612516
000200 fa fb bb bd 10 12 d4 bd 59 8e 09 be 99 c9 6b 3d
       -0.0917892 -0.10355008 -0.13433208 0.057565305
000210 ef 18 d4 3d 0b e7 15 3e c3 96 ea bc 28 1f a7 3d
       0.10356318 0.14638917 -0.028636342 0.081602395
000220 02 78 22 3d 32 47 91 3d 2b da c0 3c c5 86 38 3d
       0.03966523 0.070936576 0.02354153 0.0450504
000230 ce 39 fe 3d 57 d0 16 3d 8e 88 dc 3d 37 78 11 be
       0.12413369 0.036819782 0.10768233 -0.14206015
000240 4d 4a df bd 5a e4 c8 bd 3f bd ca 3c 9f e0 91 3c
       -0.109028436 -0.098091796 0.024748443 0.017807303
000250 48 a4 89 3d 8f b7 9d 3c 4e e7 c3 bd 60 f9 55 bd
       0.06720787 0.019252567 -0.09565602 -0.052239776
000260 34 fd da 3d af 0d 71 bb 88 05 7d bd 25 39 a2 3c
       0.10692826 -0.0036781838 -0.061772853 0.01980264
000270 a5 31 08 bd 3c c8 c2 3d b9 93 b7 bc 42 c8 78 bd
       -0.03325047 0.09510848 -0.022409307 -0.060737856
000280 f5 3f da 27 6f 43 18 be 2d 15 54 bd 69 28 16 3e
       6.0576497e-15 -0.14869474 -0.051778007 0.14663853
000290 f6 53 58 3d b5 f3 4d 3d 28 74 68 3d 30 b0 06 bd
       0.052814446 0.050281245 0.0567514 -0.03288287
0002a0 ed a9 be 3b d7 0a bb 3c b9 fa c0 3d 61 24 86 3c
       0.0058185966 0.022832317 0.094228216 0.016374769
0002b0 dc 23 8f 3c bb 14 c9 3c b8 ad ff 3c 08 8e 74 3c
       0.017473154 0.024546018 0.031210765 0.014926441
0002c0 d7 11 7c 3d da 66 e6 bd 41 92 b6 3d 8c 8f ce 3a
       0.06154045 -0.11250086 0.089146145 0.0015759333
0002d0 23 f3 b7 bd 4f 09 81 3d 79 57 e9 3d 34 65 87 3d
       -0.089819215 0.063006036 0.11393637 0.066111
0002e0 a5 18 0d 3d 7a e5 d1 3d b3 36 97 3d 7e 48 0c 3c
       0.03444733 0.10248847 0.0738348 0.008562205
0002f0 da dd 17 bd ac c4 7d 3d 69 12 b7 bd 48 8d 19 3d
       -0.03707681 0.06195514 -0.08939058 0.037488252
000300 34 d8 ab 3c ea fa 2d bb a5 05 27 3c 4b 08 99 bd
       0.020977117 -0.0026547262 0.010194217 -0.07472285
000310 2c 53 7a 3b 19 50 b4 3c dd 8f 02 bb c5 b0 de 3c
       0.0038196547 0.02201085 -0.0019922175 0.0271839
000320 79 44 89 3c 5f ab ba bd 56 3f 9b 3d 59 df b2 3c
       0.016756283 -0.09114718 0.0758044 0.021835016
000330 01 80 5f 3d 23 86 18 3d 4d a1 94 3c c4 bc 98 bc
       0.054565433 0.037237298 0.01814332 -0.018644698
000340 82 66 83 bd 20 c7 11 bd 9c 0f 41 3d 06 d9 07 3c
       -0.06416036 -0.03559029 0.047134027 0.0082914885
000350 be 86 84 3b 15 61 89 3d b9 3e 2b bd 1f bf b7 3b
       0.004044383 0.0670797 -0.041807864 0.0056075
000360 50 27 3f 3d f6 d2 b6 bd 83 1a 91 3b 1b 6d 4e bd
       0.04666835 -0.08926956 0.0044282093 -0.05039702
000370 fa 86 9f 3b 28 37 f7 3b 97 40 71 ba 5d 82 da 3d
       0.0048683854 0.007544417 -0.0009203045 0.10669396
000380 95 34 ee b5 86 04 24 3c e9 3f 51 bd 54 37 ba 3c
       -1.7747685e-06 0.010010844 -0.05108634 0.02273146
000390 12 72 8f 3c 0a 0b bd 3c 2e 09 b9 3c 27 3f 84 bd
       0.017510448 0.023076553 0.022587385 -0.06457358
0003a0 4e c9 a9 bd b0 01 96 3c e6 02 09 3d 4e c6 1c 3d
       -0.08290349 0.018311352 0.03345003 0.038275056
0003b0 5e d8 f2 3b 33 3a ac 3c 88 7c 48 3d 69 a3 8c 3b
       0.007411047 0.021023845 0.048946887 0.004291941
0003c0 4e 63 c6 3b 69 f5 bc bb 09 01 2d 3c cf c2 b3 bd
       0.0060543185 -0.00576656 0.010559329 -0.08777391
0003d0 47 f7 87 3c 0b 45 0c 3d 73 ad 01 3a d9 f3 e1 3c
       0.016597403 0.034245532 0.00049468054 0.027582096
0003e0 a5 3b 11 3d 00 2e 06 3d 40 0b 28 3c 8b 88 25 3b
       0.035457272 0.032758713 0.010256588 0.0025258388
0003f0 5c f5 5a 3a a6 ad 40 3b 43 e7 a0 3d f9 2d a3 3c
       0.00083526014 0.0029400378 0.0785661 0.019919382

decoder_lin.2.bias f4 [288]
000000 ad 1f ba bc 63 68 5e bd b4 4b a9 3d 0a 58 39 bd
       -0.022720182 -0.05429877 0.08266392 -0.045249976
000010 31 cf 49 bd 84 ae 31 ab 4f da 18 bc b2 1c 75 3d
       -0.04926986 -6.312522e-13 -0.009329393 0.05984182
000020 bb 7f 91 3c 5f 6d b3 3c 8d 03 a5 bc 60 df 9a 3c
       0.017761102 0.021902738 -0.020143295 0.018905342
000030 d1 57 61 3b bf fb 8d bd e4 d9 92 bc 04 7b ff bd
       0.0034384618 -0.069327824 -0.017926164 -0.12474635
000040 93 78 db bb 3d 05 bc 3b ed 2e 53 bc 45 1c f4 3c
       -0.006697723 0.005737929 -0.012889606 0.029798636
000050 8d b9 cb bd 0f f5 4c b7 79 83 bf 3d 6e 82 32 b4
       -0.099475004 -1.2216405e-05 0.09351248 -1.6624992e-07
000060 12 1f c8 bd 31 85 f1 b8 08 9d d7 bc a5 2c c1 3d
       -0.09771551 -0.00011516584 -0.026319996 0.094323434
000070 ad 6f 56 3d 85 00 ad 3d 00 19 23 3e de bd ec 3d
       0.052352596 0.08447365 0.15927505 0.11559652
000080 a1 36 2c 3d fb 91 de 3d aa cc fe 3d 49 b8 76 3d
       0.042044286 0.10867687 0.1244138 0.06023434
000090 5c 9e 25 bc e1 6d 0d bd a4 54 58 bd 95 d1 6a bc
       -0.010108557 -0.034528617 -0.052815095 -0.014332195
0000a0 0c 5f 9a bc 7d f1 e5 3b 45 1d 0c 3d d0 95 88 3d
       -0.01884415 0.007017313 0.0342076 0.066691995
0000b0 cb fd bd 3d 5d 16 81 3c 6b f2 23 3d 56 73 5c bd
       0.09276923 0.015757734 0.04002611 -0.05382093
0000c0 f6 ef e9 bd 4b 54 9c bc 12 79 6d bd 32 f3 38 3d
       -0.11422722 -0.019083163 -0.05797679 0.045153804
0000d0 8a 61 46 3d 80 f5 89 3d 2f 86 8c 3d d4 6e 0a 3d
       0.048432864 0.067362785 0.06861531 0.0337971
0000e0 d4 43 55 3d b5 04 da 3d 16 d0 e5 3a 10 3c 59 3d
       0.05206664 0.10645429 0.0017533328 0.053035796
0000f0 1e d3 86 3d a9 5a cf 3c 06 46 3a 3d 6f a1 1f bd
       0.06583236 0.025311785 0.045476936 -0.038972314
000100 72 5f 06 3e 43 e1 73 bb c9 16 97 3d 69 f2 3f 3d
       0.13122347 -0.0037213124 0.07377393 0.04686204
000110 48 d4 c2 3d 4f 94 b2 3d 0b 25 3f bc 7c 1a 57 3a
       0.09513146 0.08719694 -0.011666547 0.00082055456
000120 46 25 a5 3d 86 af 1c b5 a3 b9 34 bd 72 06 97 3d
       0.0806375 -5.836995e-07 -0.04412235 0.07374276
000130 9c 49 a6 3d 47 82 ea 3d 23 c6 51 3d 48 ef 9c 3d
       0.081195086 0.1145063 0.05121435 0.07662827
000140 c9 3d 02 3c d6 0e ac bc be 39 f7 bc 78 2a a4 bd
       0.007949301 -0.021003168 -0.0301789 -0.08015913
000150 3a b0 bf bd 5f 1e 51 3d 4d 37 2b bd 66 84 4e 3c
       -0.093597844 0.051054355 -0.041800786 0.012604808
000160 a2 12 3c 3d d5 0d 8d 3d 50 9a ee bd 2e e4 a0 3d
       0.045916207 0.06887404 -0.116505265 0.07856022
000170 3a 28 7d ad b3 85 9e bd 6d 94 3f 3d 30 cd 6b 3d
       -1.4390317e-11 -0.07740345 0.04677241 0.05756873
000180 f7 24 0d 3d 9e f1 59 bd 58 e4 4c b6 5b fb 43 bc
       0.03445908 -0.05320894 -3.0531282e-06 -0.011961783
000190 4d 1e 49 3c 2e 6d 7c bc f5 e6 f4 3c 47 9c 43 3d
       0.012275291 -0.01540689 0.029895285 0.04775646
0001a0 b5 a8 8a bd 81 d7 9f 3d 5d 93 b1 3d 6c 72 aa 3d
       -0.067704596 0.07804776 0.086706854 0.083226055
0001b0 61 6e 5d 3d 92 81 1a 3d 56 bb 9c bc 93 9b c4 37
       0.054060344 0.037721224 -0.019132297 2.3437466e-05
0001c0 6b fd 16 b8 17 60 19 3d 50 a4 90 bb e1 7c 0d 3d
       -3.59988e-05 0.037445154 -0.004414119 0.034542922
0001d0 77 89 06 b1 58 f2 3e 3d a7 fa 4e 3d 59 94 4c 3d
       -1.9577706e-09 0.046617836 0.05053201 0.049946163
0001e0 93 ff 89 bb 79 f4 b1 3d c9 85 2e b9 ce 7a de 3b
       -0.004211375 0.086892076 -0.00016643772 0.006789542
0001f0 25 64 8e bd 87 87 11 bd 7e ce b5 3d 9d b9 d8 3d
       -0.06952695 -0.03552964 0.08877276 0.10582278
000200 8f 8b 55 3c e0 f1 8a bd db 97 d3 b9 28 cb 6d ba
       0.013033762 -0.06784415 -0.00040358197 -0.0009071105
000210 0d 86 36 3d 9c 71 5c 3d f8 70 38 3c 39 d2 86 bd
       0.044561435 0.053819284 0.011257403 -0.065830655
000220 e5 2e 94 3d 38 d9 d3 bd 6a b0 e4 3d f8 ca 26 3d
       0.07235507 -0.103441656 0.11166461 0.04072091
000230 24 74 b8 3c 19 2c e4 b8 03 60 0d bb 89 7d c4 bd
       0.022516318 -0.00010880101 -0.002157212 -0.095942564
000240 b3 74 8c bd c5 64 39 3b 6c 6a c4 bd d8 5f 08 bd
       -0.06858196 0.0028288823 -0.09590611 -0.03329453
000250 b1 2c c1 bb ba c2 f9 bb 2c b0 7e 3d fc 42 1c 3d
       -0.00589522 -0.00762209 0.06217973 0.03814982
000260 32 98 90 af a1 04 95 bc 46 0c 2e b8 e6 7a 07 3b
       -2.630159e-10 -0.018190684 -4.1496263e-05 0.0020672618
000270 87 93 0d bd 5c 03 7b 3d d3 7b 2e 3d 0c b7 21 3d
       -0.03456452 0.0612825 0.042598557 0.039481208
000280 6e fe b1 3c f7 17 ca 3d af 8d da ba 47 77 e1 3c
       0.021727767 0.09867852 -0.0016674305 0.027522696
000290 bf d3 e4 bc a4 c8 8a bc 53 69 92 3d 17 af 85 3d
       -0.027933 -0.016941376 0.07148995 0.06527536
0002a0 e5 fc 91 bb 9c d4 38 bd 0d 88 f6 bc 7a 70 d6 bd
       -0.004455196 -0.045124635 -0.030094171 -0.10470672
0002b0 80 9c 9c bd e0 c1 3a 39 cc e3 e8 3d 5f bf 70 3d
       -0.076470375 0.00017810566 0.11371574 0.058776256
0002c0 41 32 53 bd f9 3f 27 b9 69 57 45 bd 71 97 5f ba
       -0.051561598 -0.00015950193 -0.048179064 -0.00085293414
0002d0 d0 2b fc 3b bb d5 1a bd b4 88 00 3d ae 55 32 3b
       0.0076956525 -0.037801486 0.03138037 0.0027211714
0002e0 86 c4 39 bd 02 d1 dd a3 1f d4 19 3d 02 62 33 3d
       -0.045353435 -2.4049386e-17 0.03755581 0.04379464
0002f0 65 a7 4b b7 e0 75 41 3d b6 29 0d 3e 55 f6 15 3d
       -1.21387175e-05 0.047231555 0.13785443 0.036611874
000300 3b e0 31 bd 70 03 7e 3d 2d 22 1d 3e 03 d4 10 3e
       -0.043426733 0.062014997 0.15345068 0.14143376
000310 df 6e 86 29 0e b9 ea 3d 75 fe c0 3c 6f 1e ed 3b
       5.9700285e-14 0.11461078 0.023558835 0.007236294
000320 4c 85 50 bc 6f 58 8e 3c 01 f4 02 be 47 0f bf bc
       -0.012727093 0.017376153 -0.12788393 -0.023322714
000330 65 7d d7 bc ba 42 56 b7 d1 79 dc 3c 42 4f 34 3c
       -0.02630491 -1.277093e-05 0.026913555 0.011005225
000340 df 3a 13 bd 3f 99 33 be 58 d1 ba b0 0e 03 e5 3d
       -0.035944816 -0.17538927 -1.359278e-09 0.11182223
000350 7a db bc 3d 2a 76 af bb 0e 8f 5c bc d7 b8 bb bd
       0.09221549 -0.0053546624 -0.013461841 -0.09166115
000360 a1 ba f4 bc 62 d6 9b bb 73 bc 9f bc 14 24 46 3d
       -0.029874148 -0.004755781 -0.01949904 0.04837425
000370 34 0d e5 bc 83 36 ab 3c cb 8c 81 3d 1e c1 a8 3d
       -0.027960397 0.020900017 0.06325682 0.08239959
000380 4e 33 6f bc ad 22 8d 3d 33 de 90 bd 28 57 84 3c
       -0.014599634 0.068913795 -0.07073631 0.01615484
000390 66 dd 5e 3d ab 9c f4 bb 70 79 0f 3e 25 4c 27 bc
       0.05441036 -0.0074649653 0.14011168 -0.010211025
0003a0 25 4b 3d bd cb e1 9d 3d 70 cf 54 bd 62 31 82 3d
       -0.04621424 0.07709082 -0.05195564 0.06357075
0003b0 b9 64 bd 3d 54 09 a2 bb 0b fe f5 3c ad 47 77 3d
       0.09247727 -0.0049449597 0.030028364 0.06037109
0003c0 81 8d 8e ba fe 0a 80 bc c9 e9 fd b8 89 49 ab 3d
       -0.0010875912 -0.015630241 -0.00012107526 0.08363635
0003d0 37 d4 c6 3d 71 73 2a bd ab e2 12 bd 7e 5d a9 3d
       0.097084455 -0.041614 -0.0358607 0.08269785
0003e0 e6 e4 3c 3c 52 f2 10 3e 22 5d dc 3d b2 74 aa 3d
       0.011529183 0.14154938 0.10759951 0.08323039
0003f0 36 4e 8c 3d d6 2d 08 3e a2 78 c1 3a 65 ec af bc
       0.06850855 0.13298735 0.0014760683 -0.021475026

decoder_conv.0.weight f4 [32, 16, 3, 3]
000000 22 c0 a4 bc dd 8a 45 bd ee d1 3e bc 0a a9 3c bd
       -0.020111147 -0.048228133 -0.011646731 -0.046059646
000010 96 09 06 3e 12 5f 12 bd 15 a3 e8 bd df ff 26 bd
       0.13089594 -0.035735197 -0.113592304 -0.04077136
000020 fa 17 dd 3c b2 6f 78 3d 40 76 27 3d 84 e4 bd 3b
       0.026988972 0.060653396 0.040884256 0.0057950635
000030 fc 32 e3 3c 77 f7 29 3d 84 5a a0 3c 14 30 cc bd
       0.027734272 0.041495766 0.019574411 -0.09970108
000040 5b b1 b8 bb 14 8b ad bd 58 c8 8a bc 79 05 59 3d
       -0.005636377 -0.08473793 -0.016941234 0.052983735
000050 77 bc 8c bc 7a f0 7d bd 93 a5 d2 bc 6a 6d bc bc
       -0.01717971 -0.061996914 -0.025713718 -0.023001391
000060 dc 57 27 bd 06 14 2c 3c 9d bf 47 bd 87 2f 52 bb
       -0.040855274 0.010502821 -0.04876672 -0.0032071786
000070 b4 62 69 3c 98 88 64 3c 8e b4 62 3d 85 3e 66 3c
       0.014244724 0.013948582 0.05534797 0.014052992
000080 72 6c 53 3c 62 b3 10 3d a7 8a 76 3d 85 9e ba 3c
       0.012904273 0.035327323 0.060190823 0.022780666
000090 7a 2c 2c bd 55 10 19 bd a7 09 a4 3b 2c b1 78 bd
       -0.042034604 -0.03736909 0.0050060335 -0.06071584
0000a0 cd dd 66 3c bf 64 a3 bd 8e c0 1c bd b4 be 95 3c
       0.014090967 -0.079782 -0.038269572 0.01827941
0000b0 7d 50 e0 bc d0 3e a3 3c e0 17 78 3d 16 8e 2a bd
       -0.02738213 0.019927412 0.060569644 -0.04163941
0000c0 15 56 f0 3b 47 ec 34 3b 5f ba a2 bd 33 3a 8b bd
       0.0073344805 0.0027606653 -0.07945704 -0.0679821
0000d0 c0 be 8a 3d 21 76 fb 3d e1 a2 d5 bd dd 53 39 bd
       0.06774664 0.12278391 -0.10431457 -0.045245994
0000e0 7a ce ac bc ba a0 77 bc fe bd 3b 2d 65 cb e6 bc
       -0.02109455 -0.015114004 1.0671906e-11 -0.028173158
0000f0 e2 bb 0d be 20 ad 24 3c 4d d0 32 bc 0f 12 f8 bc
       -0.13841203 0.010051042 -0.010913921 -0.030282049
000100 c2 27 77 3d f3 a4 6b 3d 3e cc 1d bd 80 72 8c bc
       0.06034065 0.057530355 -0.03852486 -0.017144442
000110 fd e0 a6 3d 4c 5c 78 3c 4e 40 b8 3b 98 2c b7 3d
       0.08148382 0.015158724 0.0056229 0.089440525
000120 04 e9 00 3c a8 b9 0e 3c ba a4 e9 3c 8b 4e 41 bd
       0.007868055 0.008711256 0.02852093 -0.047194045
000130 bf 7e b6 bd 3b 8e 89 bc 05 81 91 bc c8 ad cc 3d
       -0.08910894 -0.016791454 -0.017761717 0.09994084
000140 e6 48 86 bc 44 4f bc 39 08 4e 67 3d 41 d7 5d 3d
       -0.016392183 0.00035917212 0.0564709 0.05416036
000150 f3 3f 07 bd 2e 11 02 3d 8a 37 fa bd b1 17 21 3c
       -0.03301997 0.031754665 -0.122176245 0.009832309
000160 74 7e a0 3c 7e 80 23 bd 79 64 f0 3c 91 cd 6f bd
       0.019591548 -0.03991746 0.029344784 -0.058545653
000170 4c 76 c6 3c e8 90 33 bd 66 75 d8 3c e2 05 51 bd
       0.02422633 -0.043839365 0.026423167 -0.051031
000180 e4 d2 33 bd f1 e6 8b 3d d8 c4 83 bb 6f 15 cf 3b
       -0.043902293 0.06831158 -0.0040212683 0.0063196938
000190 75 57 1a 3d 00 12 8d bd ac 73 24 3d f2 cf c4 3d
       0.03768106 -0.06888199 0.040149376 0.09609975
0001a0 dd a7 1a bd 33 ea ca bb 6c a6 84 3d 3b 9c 1b bc
       -0.037757743 -0.0061924695 0.06477055 -0.009497697
0001b0 84 fb 9a 3d cf 61 2e bd 41 a9 a4 3d 29 c4 1b 3d
       0.07567504 -0.042573746 0.08040095 0.03802887
0001c0 6d b4 97 3d f6 65 6d 3d f2 e6 41 3c 0a c3 66 bd
       0.0740746 0.057958566 0.011834847 -0.056338347
0001d0 3c ea d6 3b 9f e9 aa 3c 00 f0 56 3d 37 e8 7c bd
       0.0065586846 0.020863352 0.052474976 -0.061744895
0001e0 4e ec 8e bd 70 26 28 bd 95 06 8c bd ab 2f 4d bd
       -0.06978665 -0.04105228 -0.06837193 -0.050094288
0001f0 98 fc 30 3d 87 4c f3 bd e0 fd 6b bc 9b c3 ec 3c
       0.043209642 -0.11879831 -0.01440379 0.028901866
000200 cf b7 46 bb 7f fc c6 3c 01 ee dc 3c 00 a9 82 bd
       -0.003032196 0.024290321 0.026968958 -0.063798904
000210 79 59 a9 3c 2d 04 ce bc 03 91 8f 3c 04 c6 29 3d
       0.020672547 -0.025148476 0.017525202 0.041448608
000220 33 02 6a 3d b6 ca 78 bd c3 98 a1 bb 84 87 13 3d
       0.057131004 -0.060740195 -0.0049315407 0.03601791
000230 4c b8 c2 bc dd 68 8c bc 0e 41 18 3d ac 4c 31 3d
       -0.02376952 -0.017139846 0.037171416 0.04328601
000240 d9 8a a6 3a 5e 34 ee 3c 8e a4 be bd 0f 59 10 3d
       0.0012706175 0.029077705 -0.0930873 0.035241183
000250 90 15 00 bd d8 d2 16 bc 3b 93 eb bc 3a 2d 97 bd
       -0.031270564 -0.0092055425 -0.028756728 -0.07381673
000260 8b 63 43 bd 0f 4d 8d 3c 19 3c e3 bb 7d 01 f3 3c
       -0.047702353 0.017248658 -0.0069346544 0.029663796
000270 a6 2f 08 be 94 d9 c9 bc 42 42 da 3c b1 ac 92 bd
       -0.13299426 -0.024639882 0.026642922 -0.071618445
000280 97 6e a5 bc d8 f9 1c 3d 22 45 77 bc 91 82 d1 bc
       -0.020194335 0.038324207 -0.015092166 -0.025574954
000290 30 0f a8 3c c0 c5 fa bc 50 06 39 bd d0 c5 c5 bc
       0.020515054 -0.030611873 -0.045172036 -0.024142176
0002a0 8a d1 1a 3d 93 8b 8c 3d 49 ed 02 3d 56 2e e9 3c
       0.03779749 0.06862559 0.031964574 0.028464478
0002b0 b2 46 41 3c 1f 01 bf bc 78 64 9b 3d d5 21 28 3e
       0.01179664 -0.023315964 0.07587522 0.16419156
0002c0 04 41 bc 3c 82 50 8a 3c 5f 07 8c 3c c7 0d d0 3d
       0.02298022 0.016884092 0.017093359 0.10158878
0002d0 16 25 51 3d 40 5b b2 3c 8f 86 85 3c 90 f4 84 bd
       0.05106076 0.021772027 0.016299514 -0.06491959
0002e0 56 c1 02 3d a7 45 95 bd 28 fd a9 bc 86 e3 a9 3d
       0.03192266 -0.07288676 -0.020750597 0.0829535
0002f0 db 16 09 3c 65 a3 71 3b 2e 9a ec bc 5e ea 02 bd
       0.008367266 0.0036871072 -0.028882112 -0.03196179
000300 e3 53 84 3d 22 27 61 3c cf 07 38 bd 69 30 a0 3d
       0.064613126 0.01374224 -0.04492932 0.078217335
000310 4b e0 5d 3d b5 df 0d 3d 4f 31 d2 bc bc f7 f6 3c
       0.05416898 0.03463717 -0.025658278 0.030147426
000320 8c af c9 bd e5 08 42 3c fe 73 26 a8 88 ec 07 be
       -0.09847936 0.011842941 -9.240003e-15 -0.13273823
000330 1a 65 8b bd c7 b0 8c 3d ee 7b b2 3d 41 5c 8c bc
       -0.06806393 0.06869655 0.08715044 -0.017133834
000340 a1 6b 3e bd 19 b8 be bd 34 e5 f4 bc 20 2d af 3d
       -0.04648936 -0.093124576 -0.029894449 0.08553529
000350 7d 86 91 bd 5c 9e b9 3d 64 14 f1 39 82 39 cd 3c
       -0.0710573 0.09063408 0.00045982294 0.025051836
000360 83 75 06 bc b1 e6 81 bd 7b 94 6c bc 28 60 f4 3c
       -0.008206728 -0.06342829 -0.014439697 0.029831007
000370 c2 91 79 3d 4f 7e d4 bc 33 b1 06 3d a7 ef 02 bc
       0.06093002 -0.025939135 0.032883834 -0.007991708
000380 15 1f 0b bd 76 c6 43 3c 09 93 a3 bd 4e ac 86 bd
       -0.03396519 0.011949172 -0.07987029 -0.06575833
000390 4a 87 3a bc 35 62 c6 3d 8f 2c 46 3c 46 bb 43 3c
       -0.0113847945 0.096867 0.0120955845 0.011946505
0003a0 8c be 4e 3d 69 b8 22 3c 89 c7 2f bc b1 2a 9d bd
       0.05047469 0.009931662 -0.010728725 -0.07674158
0003b0 d4 30 6d bb 81 d5 5c bd d0 2c c6 3d 0b 3c 15 ba
       -0.0036192434 -0.05391455 0.09676516 -0.0005692846
0003c0 d7 20 7d 3d 7c c7 7c 3c 2a 4d bf bc 8d a3 b1 bd
       0.061798897 0.01542842 -0.023352224 -0.08673773
0003d0 75 74 c3 bb 73 1b 0a ba 0e cd 8f bd dd 27 39 bd
       -0.0059648105 -0.00052683725 -0.07021533 -0.045204032
0003e0 42 00 a8 bd e5 16 91 3b 06 bf a6 bd 4b 8e ab 3c
       -0.08203174 0.004427778 -0.081419036 0.020941874
0003f0 63 6b 9a bd 78 04 8d 3c de 4c 0b 3c e1 ea d1 3d
       -0.07540014 0.017214045 0.008502213 0.10249878

decoder_conv.0.bias f4 [16]
000000 a5 b6 58 3c bc 59 55 3d cf f4 bb bc 4c a3 91 3d
       0.01322714 0.05208753 -0.022943882 0.071112245
000010 cb fb 1a 3d 43 5f 9c 3d e6 bf 92 bd 29 fd 8b 3d
       0.037837785 0.07635357 -0.07165508 0.06835396
000020 e7 9e 04 3d 89 3e b1 3c 63 64 3d 3c 31 10 d2 3d
       0.032378104 0.021636264 0.011559579 0.102569945
000030 c9 dd bd 3d 5d d6 25 3d e4 fa 5d 3d 0f 43 14 3d
       0.09270818 0.040487636 0.054194346 0.036196765

decoder_conv.2.weight f4 [16, 8, 3, 3]
000000 b8 cc d4 3d f2 f2 96 3d 70 18 ce 3d 72 4d 05 3e
       0.103906095 0.07370557 0.10063255 0.13017824
000010 0c ed 02 bd 5f 2f 6e 3d 0a 20 f6 bc b1 6e 2f 3c
       -0.031964347 0.058150645 -0.030044574 0.010707543
000020 7b a0 77 bb 0b 82 45 3b 8f 8b 31 bb 77 4a 12 bc
       -0.0037784863 0.0030137326 -0.002709124 -0.008928887
000030 91 58 89 bd 55 6e b4 3d ce 38 97 3d 86 ee cc bc
       -0.06706346 0.08810107 0.073838815 -0.02501608
000040 66 8b ad 3d 2e d3 bd 3a f1 32 03 3d 24 d2 b1 bc
       0.08473854 0.0014482492 0.032031003 -0.021706648
000050 d4 8b a0 bd e7 ad 88 bd 33 aa 62 3d 07 82 59 3d
       -0.0783917 -0.06673794 0.055338096 0.05310252
000060 40 63 c6 3c 73 f6 de bd 01 f2 c2 bd 04 ef f2 3c
       0.024217248 -0.1088685 -0.09518815 0.029654987
000070 81 61 0b bd d2 cf 1a bd 4f 7a 07 be 38 2e f4 bd
       -0.034028534 -0.03779585 -0.13230251 -0.11922878
000080 d6 86 d9 bd df 7b 1b 3c 5e 0a aa bc b5 26 ae 3d
       -0.10621421 0.009489982 -0.020756897 0.085034765
000090 e2 b8 2a be 48 a2 28 bd 6d 81 a1 bc 0f 73 0f be
       -0.1667209 -0.04117039 -0.019715035 -0.14008735
0000a0 4d b0 11 3d b3 61 0d 3e 8e e1 dd bd ae 08 92 bd
       0.035568524 0.138068 -0.10834037 -0.07130562
0000b0 c5 11 d3 bc 07 fb a7 3c d9 b5 0a 3c aa 08 f6 bc
       -0.02576531 0.020505441 0.008466207 -0.030033428
0000c0 b5 76 af 3d 30 62 d9 3d 5d e5 74 bd 60 d8 2d 3d
       0.085675634 0.10614431 -0.05978905 0.04244268
0000d0 b2 a3 b4 3c 72 88 09 bc bf e4 4c bd b2 35 14 bc
       0.022050712 -0.0083943475 -0.050022837 -0.009046005
0000e0 59 da 8b bd b8 96 ec 3c 19 4e 8d 3c 15 0d c0 3c
       -0.06828756 0.028880462 0.017249154 0.023443738
0000f0 68 cd be bd a2 89 8a 3d 09 ff 01 3e 11 e2 46 bd
       -0.09316522 0.067645326 0.12694944 -0.048555437
000100 ad 62 6d bb ac 89 64 3c 10 60 aa 3d 11 f9 82 bb
       -0.0036222145 0.013948839 0.08319104 -0.003996976
000110 82 95 89 ba ef 8a 11 bc 5f 92 0c bd ca f8 e3 bd
       -0.0010496827 -0.008883222 -0.034319278 -0.11131437
000120 17 e8 1f bd b0 37 19 bd d6 8c bd bd 8a 1b ed bc
       -0.039039697 -0.037406623 -0.09255378 -0.028943796
000130 13 1a ee bd 27 5c 3e bd 7b 93 44 bd e6 64 6c 3c
       -0.11626067 -0.046474602 -0.04799221 0.014428353
000140 49 57 09 bd 8f ca 67 bd a6 33 5f bc b9 56 e5 3c
       -0.033530507 -0.05658966 -0.013623154 0.027995454
000150 7a eb a4 3d e6 65 b4 3c 4a 82 8f bd 00 9d 25 bd
       0.08052726 0.022021245 -0.070072725 -0.04043293
000160 29 51 e2 bd 88 33 56 bd 0f 15 8b 3d 86 0b 31 3d
       -0.11050636 -0.052295238 0.06791126 0.04322388
000170 9d c5 a0 3d 06 5d 99 bd 75 9e 56 bc ec 3e cf 3c
       0.07850192 -0.07488446 -0.013099303 0.025298558
000180 36 5e ab bd 7a 36 40 3d 81 0b d7 bd b9 db d8 3c
       -0.08367579 0.046926953 -0.10500241 0.02647196
000190 ce 31 d4 3d 5a 1e a5 3c 17 60 65 3c f2 33 4e 3e
       0.10361062 0.020156074 0.01399996 0.20137003
0001a0 66 5b 17 3e b4 45 dc 3c 7e e8 09 3e 03 45 63 3d
       0.1478096 0.026888706 0.13467595 0.055485737
0001b0 0b 6e 1a bd ad 5e d3 3c bc 9c a5 3c 7c e1 20 3e
       -0.0377026 0.02580198 0.020216338 0.15711015
0001c0 48 c2 71 3d ce 0f 29 3d c0 d9 e4 3d 68 10 8d 3d
       0.05902317 0.04127484 0.11174345 0.06887895
0001d0 16 ba 93 3d 34 fc 88 bd 1b 3c 7e 3c 71 ce 29 bc
       0.072132275 -0.06688729 0.01551726 -0.010364161
0001e0 08 b5 3d bd ec 58 d2 bd 03 39 85 3c c2 7a 5c bd
       -0.046315223 -0.10270867 0.016262537 -0.05382801
0001f0 fc 50 b5 bc af e8 50 bd 6c c3 a5 bc cb e0 a3 bb
       -0.022133343 -0.051003154 -0.020234786 -0.0050011626
000200 79 e0 d6 bc 61 70 18 bd 85 60 c2 bd 8d b8 5f 3b
       -0.026230084 -0.037216548 -0.09491066 0.00341371
000210 e5 b7 b8 bd 3a b2 a3 bb 02 1d b3 3b 56 c6 24 bb
       -0.0901945 -0.0049956115 0.0054661045 -0.0025142631
000220 00 e5 30 a0 96 58 f8 bc 3b af 50 3d 33 e7 bb ba
       -1.498355e-19 -0.030315679 0.050948363 -0.001433587
000230 fb f1 6d bd 3c af 70 bc 3e 45 4b 36 44 71 5a 3d
       -0.0580921 -0.014690217 3.0289661e-06 0.053330675
000240 0d 97 ca 3c 7a f2 63 3d e9 9f 68 3d a2 1a 10 3d
       0.02473023 0.055651166 0.056793127 0.03518165
000250 48 a3 0e 3d 0d 0b 36 3d 91 cf 64 3d 7f a4 d9 3d
       0.034823686 0.044444133 0.055862013 0.10627078
000260 79 18 fb 3c 7d 3b ba bb 43 b5 00 bc 98 0f 40 bb
       0.030651318 -0.005683361 -0.007855716 -0.002930617
000270 5e 0a f4 bd 6f 55 9e 3c 8d ad bf 3c 76 a6 84 bd
       -0.1191604 0.019327847 0.023398185 -0.064770624
000280 ee 00 d4 bc 25 ad 80 3c bf b6 2a 3a 20 9b ce bc
       -0.02587935 0.015707562 0.00065122166 -0.025220454
000290 e0 03 9d bb 11 97 07 3d 23 23 e5 38 11 9f 34 be
       -0.0047917217 0.033103053 0.00010926116 -0.17638804
0002a0 54 1a 5b 38 15 a4 7e bd 8c 53 9c 3c c3 3c b4 bc
       5.223819e-05 -0.0621682 0.019082807 -0.02200163
0002b0 33 fd 7a bd 5c 49 94 3b 3c 77 3f bd 4d 52 bb bd
       -0.061276626 0.0045253467 -0.04674457 -0.09146557
0002c0 91 82 de 3d 87 6a 52 bd 54 27 23 b9 db 5a b2 3d
       0.10864747 -0.051371124 -0.00015559542 0.087087356
0002d0 19 45 a7 bc 85 d9 91 bd ce 23 5d 3d ab a9 52 bd
       -0.02041869 -0.07121567 0.053989224 -0.05143134
0002e0 c3 46 01 be d3 70 d4 bd f9 0b b5 bc f9 ca 35 3d
       -0.1262465 -0.10373082 -0.022100436 0.044383023
0002f0 f6 e8 64 3d a9 e6 df 3d 0e 9e ab bb e1 dd 6a 3d
       0.05588623 0.10932667 -0.0052373474 0.057340506
000300 99 f3 33 bc ed 7e d2 3c fe 56 b3 3d cf 44 d6 3c
       -0.010983371 0.025695289 0.08756827 0.026155857
000310 17 84 90 3d 59 25 8e bb 54 72 44 bd f4 dd 14 3d
       0.07056444 -0.0043379483 -0.047960594 0.036344483
000320 64 b8 e4 3c 67 a1 52 3d 59 db f1 3d ba 1b 74 3d
       0.027919956 0.051423457 0.11809415 0.059596755
000330 6c 73 65 3d cd 79 69 3e ef d3 56 3d c1 a3 c9 bb
       0.056018278 0.2280037 0.05244821 -0.006153554
000340 fb 9c 90 a3 f6 3d 15 3b 23 3d 8b bd dd cd f2 ba
       -1.5678995e-17 0.0022772527 -0.0679877 -0.0018524487
000350 35 e8 8d 3d f3 e3 db bc 88 eb 00 ba 3f ff 3b 3c
       0.069290556 -0.026842093 -0.00049179094 0.01147443
000360 05 87 44 bd 20 3d bd 3c b2 ba 64 3d 7a 36 e5 3d
       -0.047980327 0.023100436 0.05584211 0.11192031
000370 82 94 02 3e bd 95 b4 3d ad bf 5d 3d ec b4 9f 3d
       0.12751964 0.08817623 0.054137874 0.0779818
000380 6a b7 b9 3d b3 ba 39 3c 30 d2 ad bc b5 80 40 3d
       0.090681866 0.0113360165 -0.02121839 0.046997745
000390 8c 53 9b bd 35 bb 15 3c 7d e2 82 bc 21 91 04 bd
       -0.07584295 0.009138872 -0.015977139 -0.03236497
0003a0 f8 29 b5 bc ed 17 1f bd 8e 5b 04 be 6b d0 ec bb
       -0.022114739 -0.038841177 -0.1292555 -0.007226994
0003b0 fe b0 12 3d f3 00 84 bd 7d e4 d2 bd c1 3d ab bd
       0.035813324 -0.064454935 -0.10297487 -0.08361388
0003c0 ba 72 fc bd f2 7a 9a bd d5 20 92 bc f0 b6 75 3d
       -0.1232657 -0.07542981 -0.017837921 0.059988916
0003d0 1a 1e 11 3c 43 a4 2f bd ad 9d bb bd 5f d5 f9 3c
       0.008857274 -0.04288126 -0.09160934 0.030497251
0003e0 46 a8 10 bd 85 48 89 bd 71 11 26 bc 9a 9c 17 bc
       -0.035316728 -0.06703285 -0.010135994 -0.009253645
0003f0 0d 7e ec bc df 75 4f bb e4 4f 17 bb 85 b0 04 bd
       -0.0288687 -0.003165595 -0.002308839 -0.032394905

decoder_conv.2.bias f4 [8]
000000 76 b5 58 bd 2b 5f 40 bd 41 f9 65 3d c1 15 96 3d
       -0.05290743 -0.04696576 0.05614591 0.07328368
000010 6c 46 e5 3d 74 2a 02 bc 79 08 b2 3d 24 6e 8b bc
       0.111950725 -0.007944692 0.08693022 -0.017020293

decoder_conv.4.weight f4 [8, 1, 3, 3]
000000 db 51 51 3d 08 3c a0 bc 4f e1 29 bd 37 d4 82 3c
       0.051103454 -0.019559875 -0.041474637 0.015970333
000010 ae db 88 3e 4f 86 bb 3e bc 5a 9e 3e e6 07 89 3e
       0.26730102 0.36625907 0.309286 0.2676384
000020 92 91 d7 bc 75 00 9d 3e 27 0d 6e 3e b9 5d 6c bd
       -0.02631453 0.3066441 0.23247205 -0.05770657
000030 8d b5 9b 3c a3 4e 56 be b9 12 eb bd ad b0 5f 3d
       0.019007469 -0.20928435 -0.114781804 0.05461185
000040 8b fe 38 be 33 cc 50 3e 84 3f 91 be 47 44 98 3b
       -0.1806585 0.20390396 -0.2836877 0.004646811
000050 52 44 a3 be d7 28 09 3e 25 7a a0 3d 0b 34 b0 bb
       -0.31888062 0.13394485 0.07835797 -0.0053772978
000060 2b ab cc bd 40 d7 82 3e c4 54 57 bd 2b cb dd bd
       -0.09993585 0.25554848 -0.052571073 -0.10829767
000070 16 f1 0f be 3e cf 8d be 28 d0 c0 be a2 53 f4 be
       -0.1405681 -0.27697176 -0.3765881 -0.47720057
000080 24 e1 89 be fa 9b 74 be 0d 54 17 be 1e 8d 20 3e
       -0.2692958 -0.23887625 -0.14778157 0.15678832
000090 12 a7 bf 3d b4 f1 4d be b5 87 3d be 08 6a 9d be
       0.09358038 -0.20111734 -0.185088 -0.30744958
0000a0 6b 98 da be c7 96 3b be 3c 2e f0 bd 27 39 b3 be
       -0.4269441 -0.18319236 -0.117275685 -0.3500454
0000b0 c1 52 d6 bd 9a 9d 83 bd 08 dc 2b 3e 7d 6a f5 bd
       -0.10465003 -0.064265445 0.16783154 -0.11983202
0000c0 40 06 0c be d8 72 c1 3e 34 0d 00 be a4 7c 82 3e
       -0.13674259 0.3778293 -0.12505037 0.25485718
0000d0 7c 53 c5 3e bc 2b 97 3e 81 41 37 3e 4c fc 17 3d
       0.38540256 0.29525554 0.17896082 0.037105843
0000e0 12 2e ac bd 6d b5 b0 3e b6 d7 67 3d 52 07 3b be
       -0.08407225 0.34513417 0.056602202 -0.18264511
0000f0 53 6c 07 bd 4b 93 3b be 77 c6 81 be a9 8d 6e bd
       -0.03306229 -0.18317907 -0.2534673 -0.058240566
000100 be b5 31 3c 19 3b 21 be 5c af bf be 6b 09 c0 be
       0.010846553 -0.157452 -0.37438476 -0.37507185
000110 cb 8e 92 be 12 95 43 bd 74 97 b4 3d 58 b2 80 3d
       -0.28624567 -0.047749586 0.0881795 0.06284016
