lab5/encoder_params.pth (torch, 102517 bytes, 10 tensors)

encoder_cnn.0.weight f4 [8, 1, 3, 3]
000000 38 2f 87 3d d8 2e 84 3e 33 c1 4f be a6 bd 28 be
       0.06600803 0.2581699 -0.20288543 -0.16478595
000010 0b 34 7f bc 51 20 1a 3e f7 42 9f 3d 0f af b7 3e
       -0.015576373 0.1505139 0.077764444 0.35875747
000020 1c 29 4f 3d e1 9f da 3d 57 98 d1 bd b7 f1 3b bd
       0.050576314 0.10675026 -0.10234135 -0.045884814
000030 a2 3e 8e be 1b da 68 be 9f 0d f3 bd ce ea 2f 3d
       -0.2778216 -0.2273945 -0.118678324 0.042948537
000040 dd c3 d5 3d 07 96 4b 3e fc 81 24 be 82 d2 57 bd
       0.104377486 0.1988145 -0.1606521 -0.05269099
000050 00 c9 33 3e 9d 62 a6 3e e3 97 05 3d 08 0c 9c 3e
       0.17557144 0.3249711 0.032615554 0.3047793
000060 b1 60 c4 3c 62 a4 10 3e 99 42 ba 3e 37 ac c2 be
       0.023971887 0.14125207 0.36378935 -0.38022014
000070 f6 a8 bb be a1 bc 56 be 0c 3d 41 be 77 dd 91 3d
       -0.36652344 -0.20970394 -0.18870944 0.07122319
000080 21 f6 b7 be 39 19 4e be 25 18 bb be 27 ba cc be
       -0.3592997 -0.20126809 -0.36541858 -0.39985773
000090 89 f8 31 be 50 b3 8e 3e c9 d5 21 3e 2f 75 be 3d
       -0.17379965 0.2787118 0.15804209 0.09299695
0000a0 ef 3a 29 bd 32 a4 72 be 53 fd b6 3c 06 18 b9 be
       -0.04131597 -0.23695448 0.022337591 -0.3615114
0000b0 d0 6e c0 be 47 1d bf bd 65 42 95 3e 4f 16 7d 3e
       -0.37584543 -0.09331756 0.29152218 0.24715541
0000c0 8a 69 75 bd e8 11 ce 3d 1a 17 8a 3e bd 66 cc 3e
       -0.059915103 0.10062009 0.2697075 0.39922133
0000d0 77 86 70 3e 5e 7d 01 3e 56 94 4a 3e 51 94 09 be
       0.23488794 0.1264548 0.19783148 -0.13435484
0000e0 dd 2d cf 3c 0e 66 5f be 3d 71 8b be 62 1c 99 be
       0.025290424 -0.21816275 -0.2723483 -0.29904467
0000f0 1e 13 90 3d f3 18 99 3c 30 bf 62 be 0d c0 1b 3e
       0.07034896 0.018688655 -0.22143245 0.1520998
000100 cc e0 89 3e e6 8a 17 3d fe 8c bc 3d d5 c0 34 3e
       0.2692932 0.0369977 0.092065796 0.17651685
000110 2c 1e 87 3e 4d ef bb 3e 06 82 07 be f7 51 0f bd
       0.26390207 0.3670601 -0.13233194 -0.034990277

encoder_cnn.0.bias f4 [8]
000000 44 8f 0d 3e 60 16 99 3e f4 fc 99 3e 5b e1 b3 3e
       0.13824183 0.29899883 0.300758 0.3513287
000010 60 48 06 3e 0b 4a 48 be fc 78 ec 3d d7 01 03 be
       0.13113546 -0.19559495 0.115465134 -0.1279367

encoder_cnn.2.weight f4 [16, 8, 3, 3]
000000 4d 57 f6 bd 02 d4 3a bd 07 2d dd 3d 8d fc da bd
       -0.1202837 -0.045612343 0.10799604 -0.106927015
000010 cc 30 2b bd fd f1 e2 3d c6 d7 b0 bd 94 52 6e bd
       -0.041794583 0.11081312 -0.086349055 -0.05818422
000020 84 ff bd 3d 5f c8 81 3d ef b7 d6 3d 98 7d 1d bd
       0.09277251 0.06337046 0.10484301 -0.038449854
000030 21 a1 04 3e 9a da fe 3d 64 54 39 be ba fe 4f 3d
       0.12952091 0.12444039 -0.18098599 0.050780036
000040 e2 84 7e 3d 69 d6 19 be c7 cd 8f bd 45 74 73 3b
       0.062138446 -0.15023197 -0.07021671 0.003714816
000050 34 4a 97 3d e2 aa 0e bd b9 2c 12 3d be 16 80 3d
       0.073872 -0.034830935 0.035687182 0.06254338
000060 d9 a2 87 bd fb e3 14 3d 14 90 ec 3c 3d 28 16 3e
       -0.066228576 0.03635023 0.028877296 0.14663787
000070 9a b9 7d 3c 8c 4e 2b be 10 95 06 3e 32 c3 d8 bc
       0.015486145 -0.16729182 0.131428 -0.026460264
000080 a7 fe 06 be f3 63 4c 3e 5a f9 8e 3c ed ce b8 bd
       -0.1318308 0.19960003 0.017452884 -0.09023843
000090 78 3c 19 3e 7a 02 09 bb 9a e4 b0 bd 9a 62 ed 3d
       0.14964473 -0.0020906017 -0.08637352 0.115910724
0000a0 9e 50 5d bd 55 32 f6 bc ad 88 f9 3d 30 ee 52 bd
       -0.05403196 -0.030053297 0.12184272 -0.051496685
0000b0 de a0 91 bd 1e 1e bb bd 18 2d 49 bd bd 1c 89 3d
       -0.07110761 -0.09136604 -0.04911527 0.066949345
0000c0 97 52 99 bd 49 e4 1f bd d9 d5 ec 3d 70 71 4d bd
       -0.07486456 -0.03903607 0.11564226 -0.05015701
0000d0 5d d4 b3 bc 97 1e bb 3d 53 84 1b 3e da 0e 6e 3b
       -0.021951849 0.09136694 0.15187196 0.003632477
0000e0 ac c6 e5 bd 5d 9b 01 3e fa 2d 18 bd 3e d5 fa bd
       -0.11219534 0.12656923 -0.03715322 -0.12247704
0000f0 1a aa 18 3e 87 89 b1 bc db 52 40 bd 26 2a dd bd
       0.14908639 -0.021672023 -0.046954017 -0.10799055
000100 fb ed a0 bd 6b 8a 08 3d 93 5a db bd 90 17 0b bd
       -0.07857891 0.03333513 -0.10710635 -0.033958018
000110 6b 54 a4 3d 28 f8 9b bd a7 1c 5d bd db 24 86 3d
       0.08023914 -0.076156914 -0.053982403 0.065499984
000120 dd 3e 38 3d ee 6f 14 3e 58 7f bb 3d a4 6c 31 bd
       0.044981826 0.14495823 0.09155148 -0.0433165
000130 68 3d 0c 3e 98 0c 09 bd fd e8 36 3d 9e 34 6b 3d
       0.136953 -0.033459276 0.04465579 0.057423227
000140 68 12 24 3d 5e e9 1f 3d f1 57 6e bd ff d1 c0 bc
       0.040056616 0.039040916 -0.058189336 -0.023537634
000150 8c 6c d0 bc 92 8c 4f bd e7 22 94 bd 75 84 80 3d
       -0.025442384 -0.050671168 -0.072332196 0.06275264
000160 f0 dc 7f bd 58 1f 01 3d ea 84 0f 3e b0 6e 82 3a
       -0.06246656 0.031524032 0.14015546 0.00099512
000170 87 32 0d 3e f4 bc c2 3d 5a 46 12 bd f3 48 f1 3d
       0.13788806 0.09508696 -0.035711624 0.11781492
000180 dc 8b b3 3c f1 6d 60 ba 53 58 fc 3d f6 8f b9 bd
       0.021917276 -0.00085613044 0.12321534 -0.090606615
000190 10 ac 03 bd 79 26 bb bd d2 3c 93 3d 27 5b 47 3d
       -0.032146513 -0.091381975 0.07189335 0.048670914
0001a0 68 62 00 b8 4d fc c2 3b ac 2d 40 bd 59 19 13 be
       -3.0609226e-05 0.0059504868 -0.046918556 -0.14365138
0001b0 08 29 cb bd f8 7b 34 bd 5c ef 8d bc d0 17 8f 3c
       -0.099199355 -0.04406354 -0.01732605 0.01746741
0001c0 77 f0 fc bd 5d 96 be bd d3 d7 65 bd 4b 41 b7 bd
       -0.123505525 -0.09306023 -0.05611403 -0.089480005
0001d0 3e 44 d9 bd 88 79 a8 3d 18 71 ab 3c ed 7f ee 3c
       -0.10608719 0.08226305 0.02092795 0.029113734
0001e0 82 60 99 3d 6a be 2b 3e 66 1a 91 bc 54 08 9e bc
       0.074891105 0.16771856 -0.017712783 -0.01929108
0001f0 18 9b ce 3c 53 3d e3 3d fa 47 4f bc 6f 36 4d 3c
       0.025220439 0.11095681 -0.012651438 0.012525185
000200 13 3b 0a bc ca 39 de bc 8b 3d ae bd 83 8f 60 bd
       -0.008436936 -0.027127165 -0.08507832 -0.054824363
000210 41 5d 60 3c c5 69 6d bd c3 9f 55 bd ea f9 0e 3d
       0.013694108 -0.057962198 -0.052154314 0.034906305
000220 b6 33 a8 bc 4b 35 96 bc bb d1 22 3e e3 58 fb 3c
       -0.02053247 -0.018335959 0.15900318 0.030682033
000230 f0 84 87 3d 64 37 0e 3e 98 4e bc 3d 31 aa 28 3d
       0.06617153 0.13888317 0.09194678 0.041177932
000240 27 77 94 bd 33 5b 0a 3d 8e c4 ee bc 78 23 0e bc
       -0.07249289 0.03377838 -0.029146459 -0.008675449
000250 15 ce 03 bd f0 00 e2 3c 5b 27 e5 3a ff c7 74 3d
       -0.032178957 0.027588338 0.0017483042 0.059761044
000260 61 0d 23 3d 3e 63 06 3e f2 bf 00 3e b9 da da bc
       0.03980768 0.13123795 0.12573221 -0.026715623
000270 6c f5 ed 3d 58 7f d5 3c 91 fe f7 3c 8e dd 7c 3d
       0.11619076 0.026061699 0.030272754 0.06173473
000280 ff b7 b6 3d 98 d8 dc 3d 87 06 28 bc 75 59 25 3d
       0.08921813 0.107834995 -0.0102554625 0.040368516
000290 c7 6d ca 3d 29 0d c6 bd e9 f6 bb 3d 40 a3 84 bd
       0.098842196 -0.09670479 0.09177954 -0.0647645
0002a0 63 13 9b 3c e1 ca 37 3c eb d5 be bc e5 6a 0e 3e
       0.018930143 0.011217804 -0.023295363 0.13907965
0002b0 21 7a 5e 3e 9e bf bc 3d 4c 22 46 3d 27 98 80 3d
       0.21726276 0.092162356 0.04837255 0.06279021
0002c0 ca 04 e8 3a 25 89 2f 3e 93 81 c4 3d ec e7 c3 3d
       0.0017701623 0.1714216 0.09595027 0.0956572
0002d0 c8 ef 9f 3d 99 68 3d 3e c2 2a 18 3e 5e 71 2d 3e
       0.078094065 0.18496932 0.14860061 0.16937777
0002e0 f4 e8 13 3e a2 4a c1 3d e0 58 9f 3d 10 34 09 3e
       0.14444333 0.09438063 0.077806234 0.13398767
0002f0 20 aa 3e 3e ac 5b da 3c 29 b1 bf bc a6 b7 6e 3c
       0.18619585 0.02665504 -0.023399906 0.014570152
000300 63 f6 d9 bd 82 d8 0d b9 40 93 7e bc 0e 5a 96 bd
       -0.10642698 -0.00013527463 -0.015538037 -0.07341395
000310 2e 74 a3 3d 98 25 88 bc 51 e3 e3 3d 77 4c 03 3e
       0.07981144 -0.016619489 0.111273415 0.12822138
000320 37 8c b7 3d 8b ec 78 3d 79 69 80 3d 32 08 17 3e
       0.08962291 0.06077246 0.06270117 0.1474922
000330 9f 2c dc 3d 82 61 39 3e 92 6b c2 3d 82 14 37 3d
       0.10750698 0.18103603 0.09493174 0.044697292
000340 9b 0a 80 3c 6a f2 80 3d 51 62 9e bd cd 12 8f bc
       0.015630057 0.06296237 -0.07733596 -0.01746502
000350 b1 f5 34 3d 49 c6 ad 3c ad d7 25 bb e9 74 1b bc
       0.044179622 0.021212714 -0.0025305555 -0.009488323
000360 63 98 d4 3d 92 46 dd 3b 7f ff 98 3d 3c a5 12 3b
       0.10380628 0.0067527974 0.07470607 0.002237632
000370 5d b8 a4 3c f5 3c 54 3d de cd b8 bc 2d cb af 3d
       0.020107443 0.051815946 -0.022559103 0.085836746
000380 ad ca 79 3d 4f bf 1f bd 58 28 13 3d 36 d8 94 3d
       0.060984302 -0.039000805 0.035927147 0.072678015
000390 7f 3f eb 3a 9c ad 9f bd ea c5 17 be d6 4e 5f 3c
       0.0017948 -0.07796785 -0.14821592 0.013629636
0003a0 c6 ef 2d 3d 2f f1 2d bc 28 b1 c4 3d f4 f3 0c 3e
       0.042464994 -0.010616585 0.096041024 0.13764936
0003b0 0a 53 09 bc 79 bf 82 3d 9f 26 f3 3d 46 d8 8a 3d
       -0.008381614 0.06384177 0.11872601 0.06779532
0003c0 48 1a 46 3d 15 ad 8e 3d 9c 3e 49 bd ee 42 cb bb
       0.048364908 0.069666065 -0.049131975 -0.006203047
0003d0 ce 07 e1 3c 51 12 0d 3c e3 c3 8c 3d 00 87 ea 3c
       0.027469542 0.008610324 0.068733 0.028628826
0003e0 fb f9 b5 3a eb d3 2d bd 5f 72 db bd dc 39 55 be
       0.0013883704 -0.04243843 -0.10715174 -0.20822853
0003f0 5b a3 45 3d 38 a6 10 bd 23 8b 11 be ef 10 b4 ba
       0.04825149 -0.03531477 -0.14213233 -0.0013737957

encoder_cnn.2.bias f4 [16]
000000 21 14 a1 3b a7 74 89 bb fb 7f d3 3d 8c 2c 81 bd
       0.0049157296 -0.0041948142 0.10327145 -0.06307325
000010 10 e0 ae 3d 6d 6b 4c 3d 9b 37 b6 3d 4f bc 56 3b
       0.0853883 0.049907137 0.08897325 0.003276605
000020 b0 c8 ad bd 61 24 5a 3d 7a 0b 3b 3d cd 39 94 bd
       -0.08485544 0.05325735 0.04566524 -0.07237587
000030 d1 52 b2 ba 6c b2 77 bd be 5b 1c b5 7c 1d 79 3d
       -0.0013605003 -0.06047289 -5.824803e-07 0.060819134

encoder_cnn.4.weight f4 [32, 16, 3, 3]
000000 f2 6a 28 3d 46 df 4e 3c 5e c7 24 bd b6 a0 20 3c
       0.041117616 0.012626475 -0.040229194 0.0098039415
000010 06 58 8d bc 3f 8a b3 bd 22 60 13 3d 61 94 0c 3d
       -0.017253887 -0.08766603 0.03598035 0.034321193
000020 5d 60 6e bd db f9 3e bd 08 86 80 3d dd eb bd 3d
       -0.058197368 -0.046625 0.062755644 0.09273503
000030 f8 d2 bc bc 10 19 58 3d 07 97 df 3d ac 3e c1 3c
       -0.023049816 0.052758276 0.10917478 0.023589455
000040 85 65 a6 3d 6b 4d da 3d 2c 05 31 bc 19 d9 a4 3b
       0.08124832 0.106592976 -0.010804456 0.005030763
000050 e3 a9 c3 bc b3 83 87 3a a5 6b 58 bd 99 c6 41 bd
       -0.02388472 0.0010338932 -0.052837033 -0.047308538
000060 cd ab c3 bd a1 b2 8c bd d3 99 f5 bd 57 ed 0d 3c
       -0.09554253 -0.06870008 -0.1199223 0.008662543
000070 e7 9f c0 3d 0b 8e 9b 3d 4c ce 90 3d ac 7a ad 3d
       0.09405499 0.07595452 0.07070598 0.084706634
000080 84 e3 88 3c 2d cb 58 3d 62 76 a9 3d 06 11 c3 3d
       0.01671005 0.05292814 0.08274533 0.09524731
000090 52 b7 ae 3c f9 1d 7a bd da c1 63 bd 1c 2f dd 3c
       0.021327648 -0.06106374 -0.055604793 0.027000003
0000a0 c2 1a 8a bd 4e 46 ba bd cc 63 55 3c 20 89 49 bc
       -0.06743385 -0.09095441 0.013024282 -0.01230076
0000b0 26 ab b8 bd af 06 c5 bb 65 7a bc bc cd 45 50 bc
       -0.09017019 -0.0060127596 -0.023007581 -0.012711954
0000c0 c6 f6 0f 3d a9 93 ab 3c cc 01 e0 3d 6f 13 a2 bc
       0.03514745 0.020944433 0.10937843 -0.019784657
0000d0 ca f5 45 3d 0a 27 92 3d ef 36 1f 3c 25 6d 3e 3d
       0.048330106 0.07136352 0.009717687 0.046490807
0000e0 b9 df 81 3d fe 61 8f 3c 0e dd 15 3c 5a 3d e2 3b
       0.063415 0.017502781 0.009146942 0.0069042863
0000f0 ca f8 e3 3a d5 54 95 3d 83 13 10 3e 68 45 a7 bc
       0.001739287 0.07291571 0.14069943 -0.020418838
000100 e5 47 a9 3b 77 99 90 bd 88 cf 48 bd c3 42 d7 bd
       0.005166041 -0.07060521 -0.049026042 -0.10510781
000110 af 85 25 be 20 70 fd b8 b7 b0 04 3c 81 30 81 bd
       -0.16164277 -0.00012084865 0.008098773 -0.063080795
000120 ed 6c c4 3c d1 34 2b 3d a8 17 42 3d 6d 34 09 3b
       0.023977721 0.041798417 0.04738584 0.002093579
000130 9b a5 c9 bc aa f3 df 3d 57 79 6a 3d 3d cb 24 3d
       -0.0246151 0.10935147 0.057244625 0.040232886
000140 bc b4 8c 3d 8e 75 a9 bc 40 b9 90 3b 85 49 a1 bb
       0.0687041 -0.020685937 0.004416615 -0.0049220943
000150 93 12 49 3d 0d 87 44 3d bc 93 94 3c 26 7d 02 3d
       0.04908998 0.047980357 0.018136851 0.031857632
000160 b4 c4 92 3d 6b 0b 83 3d a2 c4 5d 3c d2 4d 10 3d
       0.071664244 0.06398662 0.01353565 0.035230465
000170 3f 7b 3e bb d1 de ae 3c 3c cc af 3c 92 52 c8 3d
       -0.002906516 0.021346482 0.021459691 0.09781374
000180 f5 b6 17 3c c5 46 3c 3d 94 03 01 3e 2c 7a 80 bd
       0.009259929 0.04596593 0.12599021 -0.062733024
000190 87 c6 9c bb 2a bb 73 3d a9 26 03 bd 8c 40 5f 3d
       -0.0047844085 0.059504665 -0.03201929 0.054504916
0001a0 27 df 7e 3d 21 94 25 3d 66 cd 8b bc f6 14 90 3d
       0.062224533 0.04042447 -0.017065715 0.07035248
0001b0 8d 89 8c 2b c2 b9 08 aa 16 be b0 28 98 01 47 aa
       9.985776e-13 -1.2143674e-13 1.9622362e-14 -1.7675303e-13
0001c0 77 bc 2e 2b ed 40 04 34 b9 c6 03 2a df b8 06 ab
       6.2078766e-13 1.2317078e-07 1.1704083e-13 -4.7862923e-13
0001d0 a4 81 80 2b e6 95 0f 3d 94 78 6b 3d e1 79 12 3d
       9.13093e-13 0.035055064 0.05748804 0.035760764
0001e0 d6 63 93 bc a0 ba d0 3d a0 80 0d 3d f5 39 89 3d
       -0.017991941 0.10191846 0.034546494 0.067005076
0001f0 9c 2b aa 3b 41 82 a7 3d b2 7f d8 1e 62 5d d8 21
       0.005193187 0.08179141 2.2922703e-20 1.4661448e-18
000200 d9 56 f5 a0 d2 a9 94 22 d6 31 88 1f 5a 91 d6 21
       -4.1562085e-19 4.0295285e-18 5.768069e-20 1.4539678e-18
000210 18 8f af 34 96 23 89 29 a3 15 a1 20 c2 6a 6e bc
       3.2700405e-07 6.0901954e-14 2.728878e-19 -0.01455182
000220 64 d4 9b 3c f7 97 0b bd fc f0 63 bd 9f 46 d5 bd
       0.019022174 -0.03408047 -0.055649742 -0.104138605
000230 99 2b 2f be 4c aa 0d bb a1 d3 6b 3c e3 36 0b bd
       -0.17106475 -0.0021616397 0.014393718 -0.03398789
000240 c5 98 12 3d bd 9c 18 bc 56 ff 32 3b 8e f3 ef 3c
       0.035790224 -0.009314713 0.0027312837 0.02929094
000250 b4 b8 25 bd e8 a2 fc bc f6 40 c1 3d 59 d5 ce 3c
       -0.04045935 -0.030839399 0.094362184 0.025248216
000260 85 54 45 bc b7 28 c6 bc 31 3c 2b bd e6 89 20 3d
       -0.012044077 -0.024189336 -0.04180545 0.03919401
000270 0a cc 38 3d b6 c5 4e 3d eb c2 a2 3d 50 a7 c0 3c
       0.04511646 0.05048152 0.07947334 0.02351728
000280 2a 0a ad 3d 8e 4c 17 3d c8 fb 8a bd 87 53 da bd
       0.08449204 0.036938243 -0.06786305 -0.10660463
000290 37 c9 89 bd 4d ac ea bc 72 43 73 bd 0f 61 be bd
       -0.06727832 -0.028646613 -0.059390493 -0.09295856
0002a0 de b2 67 bd 8a b0 3e be 9a 66 37 be dc 7d fe 3c
       -0.056567065 -0.18622032 -0.17910233 0.031065874
0002b0 51 14 fa 3c 4e a1 18 bd 5a c9 30 3c bc bf 36 3c
       0.030527266 -0.037263207 0.010790193 0.0111541115
0002c0 00 80 e5 bc 82 77 73 3d 5c 34 e3 3d 29 67 e5 3d
       -0.028015137 0.059440143 0.11093971 0.11201317
0002d0 31 49 b7 bd 22 b7 00 be 98 4d 02 be b6 88 59 bd
       -0.08949507 -0.1256986 -0.12724912 -0.053108893
0002e0 6f 42 c9 bc 36 9b d8 bd 8e 20 d5 bd ac a7 e6 bd
       -0.02456781 -0.10576479 -0.104066 -0.112624496
0002f0 58 b0 c2 bd 0f 7b 75 bd 79 f3 4f bd 9c 1a 9c 3d
       -0.09506291 -0.05993181 -0.050769303 0.07622263
000300 8c b0 1f bc a2 82 e1 3c 66 b3 d1 3c 13 0d f9 bc
       -0.009746682 0.02752811 0.02559824 -0.030401742
000310 e6 3d 30 3d bc 1c 9c 3d 55 97 5c bc 36 bd 54 3a
       0.04302778 0.07622668 -0.013463815 0.0008115353
000320 95 81 03 3b 7d ea 45 bd 69 1d 5b 3d 7d 94 5f 3d
       0.002006625 -0.04831933 0.053494845 0.05458497
000330 a5 7e 75 3d 7a f7 0a 3d ef cc b6 3d a8 90 84 bd
       0.05993523 0.03392742 0.08925807 -0.064729035
000340 3c 20 49 bd 06 8a f1 bd 05 71 83 bd 8d e7 fb bd
       -0.049103007 -0.11793904 -0.06418041 -0.12300024
000350 25 2f 3b be ff fd 90 bd 33 e1 06 be 97 3b 0f be
       -0.18279703 -0.07079696 -0.13171844 -0.13987575
000360 20 b3 90 3c 67 cf de bc 62 18 46 3d 4b de 84 3d
       0.017663538 -0.027198507 0.048363097 0.064877115
000370 24 72 c5 3d 1c 9f cd 3c 21 bb 45 3d af a2 84 3d
       0.09640911 0.025100283 0.048274163 0.06476342
000380 fc b8 04 3e 31 e8 ab 3d dc 97 c4 bc 5f ec 3c bd
       0.12961191 0.08393896 -0.023998193 -0.04612386
000390 84 56 31 bd 38 19 d8 b6 57 4f b9 3d fe 63 7f 3d
       -0.0432954 -6.4402375e-06 0.09048336 0.06235122
0003a0 f3 ba fb 3d eb 3d fb 3d c6 7b e2 3b 33 fa 24 bd
       0.12291517 0.12267669 0.0069117276 -0.04027767
0003b0 8e fe a1 3d 0b 28 a7 3d d0 5d 53 3d 02 4c b2 bc
       0.079098806 0.081619345 0.05160314 -0.021764759
0003c0 7a bf b5 3d f5 81 62 3d 21 a9 e1 3d bb a6 3a bc
       0.08874412 0.055299718 0.11018587 -0.011392291
0003d0 ea 5c 95 3a 82 a0 a0 bd 72 d4 80 bd 0b e6 99 3c
       0.0011395488 -0.078431144 -0.06290521 0.01878645
0003e0 06 94 06 bd 90 b2 a0 bd 9f 41 1e 3d dd 19 97 38
       -0.03285601 -0.07846558 0.0386368 7.2050585e-05
0003f0 05 1a 27 2c 37 a5 b1 b0 3a b0 6d 2a 93 67 1f ab
       2.3746571e-12 -1.2925402e-09 2.111097e-13 -5.6631886e-13

encoder_cnn.4.bias f4 [32]
000000 66 25 20 bd a9 5d cb bc 10 de 5a 3d ca 38 5d 3a
       -0.039098166 -0.024824934 0.05343443 0.0008438943
000010 c9 9d 05 3d 57 58 18 3d bf 29 4d 3d f8 e1 91 3d
       0.03262118 0.037193622 0.05008864 0.07123178
000020 52 01 35 3d 98 4f 98 3d 0b 9f 1d 3d 4d 2e 08 3d
       0.044190712 0.07437056 0.038481753 0.03324728
000030 92 7f b2 bd 76 f1 30 bc fa 3d 62 3d 30 43 01 3e
       -0.08715738 -0.010799756 0.055234887 0.12623286
000040 90 79 4b 3d db e3 6c 3b 3e 16 0c bd d9 ca 30 3d
       0.049676478 0.0036146555 -0.0342009 0.0431622
000050 d0 90 c6 bc cd 55 39 3d 56 32 7b bd e9 2f 2a 3d
       -0.024238974 0.04524784 -0.0613273 0.041549597
000060 9b 10 96 bb 69 cc df bc 5a 39 35 3d 6b 6d 09 3d
       -0.0045796162 -0.02731915 0.044244148 0.033551615
000070 ea 01 67 bc 04 57 13 3d 1a 0c 99 3c 20 c5 67 bc
       -0.014099577 0.035971656 0.018682528 -0.014146119

encoder_lin.0.weight f4 [64, 288]
000000 90 6a 59 be d9 5a 0f bd 4f 49 a2 bc 14 fe 0f bd
       -0.21232057 -0.03499875 -0.019810347 -0.035154417
000010 ee 91 9a 3c a0 d8 49 3d a7 28 00 3d 57 25 0e 3d
       0.018868413 0.049278855 0.03128877 0.03470358
000020 71 24 2b 3d 21 c1 4d be 44 b8 8b bd 01 8a d6 bb
       0.0417828 -0.20093204 -0.06822255 -0.006547213
000030 77 36 99 ba b4 5b 6a 3c d3 d8 32 3d 06 4f 38 3d
       -0.0011689205 0.01430409 0.04366381 0.044997238
000040 3e ba fc 3c 60 40 00 3d 63 1c 71 be e2 4d 91 bd
       0.030850526 0.031311393 -0.23545985 -0.07094933
000050 c4 bf 8a bc e6 18 2b bd a8 1c 24 bc 4b 70 d2 3c
       -0.016937144 -0.041771792 -0.010016598 0.025688311
000060 80 95 31 3d d0 76 9d 3c 32 40 f1 3c 9a df 46 be
       0.043355465 0.019221693 0.029449556 -0.19421235
000070 83 b7 b7 bd 9b 6b 62 bc 43 12 97 3c 89 5d 72 3c
       -0.08970549 -0.0138196 0.018441325 0.014792808
000080 df e3 3b 3d 34 40 8d 3d ff 9e 1a 3d 58 e7 f6 3c
       0.04587161 0.068970114 0.037749287 0.03013961
000090 5e 8e 51 be 45 eb 33 bd 7d f5 0d bc 67 4f 28 bd
       -0.20464465 -0.043925542 -0.008664486 -0.04109135
0000a0 10 9d 84 3b 22 c6 ec 3c 76 12 83 3d 9d a0 1b 3d
       0.0040470436 0.02890307 0.064000055 0.03799497
0000b0 1e c4 c7 3c 93 a0 5c be bd 43 4e bd fe ca c8 bb
       0.024385508 -0.21545629 -0.05035757 -0.006127714
0000c0 6c 65 28 bd 68 b7 b6 3c 48 8c e5 3c 85 6c 37 3d
       -0.04111235 0.022304252 0.028020993 0.044781227
0000d0 13 0e 29 3d c4 38 e1 3c 1d 79 7d 3d 33 7e 2e 3d
       0.041273188 0.027492888 0.06188308 0.04260082
0000e0 68 ae 9a 3c 8f 2a 93 bd 13 af 99 bd c4 a0 98 ba
       0.018881992 -0.07185852 -0.07504096 -0.0011644592
0000f0 6d e5 0c 3d 7d cc 04 3d 59 b5 34 3d ef 7e 4d be
       0.034398485 0.032421578 0.04411826 -0.20067953
000100 ff f2 1f bd 3f 5d 5e 3b 88 a1 a3 bc 2d 55 6d 3c
       -0.0390501 0.003393009 -0.019974485 0.0144856395
000110 f8 ec 02 3d 05 fc 07 3d 05 6c eb 3c 08 41 d1 3c
       0.031964272 0.03319933 0.028738031 0.025543705
000120 13 9e 61 be 2a 5d 4e bd 6b ba 65 bc a7 65 a4 bc
       -0.22032957 -0.050381817 -0.014021496 -0.020068003
000130 0b 47 57 3c 4f 8d c9 3c 89 70 37 3d 8c 19 0f 3d
       0.013139497 0.024603514 0.044785056 0.034936473
000140 2e 49 16 3d 68 be 51 be 4b e8 32 bd 34 ba 47 bc
       0.036690883 -0.2048279 -0.043678563 -0.01219039
000150 b1 e2 4e bd c6 59 15 b9 d6 e7 00 3d bf b2 45 3d
       -0.05050916 -0.0001424319 0.031471096 0.04826617
000160 55 3a ea 3c 2a 11 be 3c fe c6 37 be 41 cf 12 bc
       0.028592268 0.023201544 -0.17947003 -0.008960546
000170 fd da f7 3c 31 11 5e bc 3c 0c 8d 3d c3 92 85 3d
       0.030255789 -0.013553903 0.06887099 0.06522133
000180 38 9e 01 3c ba c5 dc 3b 75 af 90 3c 9b 07 0c be
       0.007911257 0.006737438 0.01766179 -0.13674776
000190 0b e3 09 3d 82 d0 96 3d b0 ca 2a bd 79 eb 94 3d
       0.03366379 0.073639885 -0.041697204 0.07271475
0001a0 29 13 9c 3d 2b 88 2d ba e6 3a f6 3c 46 55 cd 3d
       0.07620842 -0.0006619717 0.030057382 0.1002603
0001b0 80 2d 70 be 0f 13 9e bd da 26 00 bc eb cf fd bc
       -0.23454857 -0.07718479 -0.007821763 -0.030982932
0001c0 f8 52 2c 3c 21 37 14 3d bb e9 57 3d c1 c0 09 3d
       0.010517828 0.036185388 0.052713137 0.03363109
0001d0 a1 38 06 3d 37 d0 69 be 45 f5 9b bd 93 82 40 bc
       0.03276885 -0.22833334 -0.07615141 -0.011749881
0001e0 02 b5 37 3b 19 80 ac bc 06 6a f4 3c 8f 58 9f 3d
       0.0028031473 -0.021057175 0.029835712 0.07780563
0001f0 1d 7e aa 3c 85 1a f9 3c 7c b5 58 be 1b 3a 8c bd
       0.020812089 0.030408153 -0.21162981 -0.0684702
000200 6a fe 14 bd 87 05 94 bd 4e f0 e9 bb 57 d2 3a 3d
       -0.03637544 -0.07227617 -0.0071392423 0.045610752
000210 f7 c9 81 3d 79 ef bd 3c 8a b8 f5 3c 41 1a 96 3c
       0.0633735 0.023185479 0.029995222 0.018323066
000220 8e b1 03 3d b1 9e 12 bc cb 04 77 bd 85 0e 53 bb
       0.03215175 -0.008948968 -0.060307305 -0.00322047
000230 bd 62 e4 bd 34 d5 03 bd 15 59 1c 3c 4a f1 0d bc
       -0.11151645 -0.03218575 0.009542723 -0.008663485
000240 fd ac 94 bd 95 28 bc 3d 0f 96 91 bc e1 01 a5 bd
       -0.072595574 0.09187428 -0.017771749 -0.08056999
000250 6a ad 72 3d 2f 1a b8 3c d8 c1 63 bb ea 3f e8 3b
       0.05924741 0.022473423 -0.003475299 0.0070876973
000260 34 a8 b6 3d 57 29 61 be 26 44 63 bd 4c d4 c1 bb
       0.08918801 -0.21988426 -0.055484913 -0.0059152003
000270 3b 0b e0 bc 8b 42 51 3c 86 52 d5 3c 3a 24 5d 3d
       -0.027349105 0.012772213 0.026040327 0.053989626
000280 a7 0c 2b 3d a4 7a cf 3c 42 b8 74 be c6 76 83 bd
       0.041760113 0.025327034 -0.23898414 -0.064191386
000290 30 06 3e bb 36 9a be bc 9a a1 2b 3b 5a 50 1f 3d
       -0.0028995387 -0.023266893 0.0026188851 0.03889499
0002a0 e8 c6 51 3d a1 d7 07 3d a5 ed ec 3c 6c 13 37 3d
       0.051215082 0.033164624 0.028921911 0.044696257
0002b0 82 11 27 bd 5d d7 21 bc 22 64 b3 bd f7 2c 81 bd
       -0.04078818 -0.009878007 -0.08759333 -0.063074045
0002c0 ed f4 89 3c 84 5d 83 3d 74 b1 20 3d a6 ab fe 3c
       0.016840423 0.06414321 0.039231732 0.031087708
0002d0 4d c1 65 be 3b 99 86 bd 95 50 83 bc cd 5f 47 bc
       -0.2243702 -0.06572195 -0.016029635 -0.012168837
0002e0 98 46 7a bc d5 2d c3 3c eb 61 80 3d aa 42 ec 3c
       -0.01527562 0.023825565 0.06268676 0.028840382
0002f0 c2 9c f2 3c 71 82 6b 3d bc 6a 8d 3c 46 5e 2c 39
       0.029615764 0.057497445 0.017262809 0.00016438318
000300 bc ba 86 bd d3 30 d0 bc ee dc ad bc 76 4b 5f 3c
       -0.065785855 -0.025413906 -0.021223512 0.013628831
000310 6e 6c ce 3c 16 b7 1e 3d 26 64 58 be fc dd 1a bd
       0.025198188 0.038748823 -0.21131954 -0.037809357
000320 94 a4 92 bc 4d 12 15 bd b2 cd 50 3c 42 9e 08 3d
       -0.017900743 -0.036394406 0.012744354 0.03335405
000330 ca aa 34 3d 5e 88 0b 3d 22 53 bf 3c ff df 80 be
       0.04410819 0.034065597 0.02335507 -0.25170895
000340 a2 e1 77 bd 72 da 2f bc 74 6d 17 bd 51 d5 84 38
       -0.060517915 -0.010733234 -0.036969617 6.333984e-05
000350 f0 48 17 3d 30 e4 5c 3d 2a 0d 02 3d bd 41 10 3d
       0.036934793 0.053928554 0.031750835 0.035218943
000360 0d 47 7c be a5 a7 7b bd 87 88 23 bc 50 35 18 bd
       -0.24636479 -0.061439175 -0.009981281 -0.037160218
000370 14 44 82 bc d4 6d 19 3d 48 b4 6f 3d d7 75 08 3d
       -0.015901603 0.037458256 0.05852154 0.033315506
000380 a5 6c e7 3c c9 fa 57 be b8 62 81 bd 37 3d eb bc
       0.028250048 -0.2109176 -0.06317657 -0.028715713
000390 a8 ac cc bc 4f 0f 23 3c 86 3c 02 3d cc f5 28 3d
       -0.024984673 0.00995238 0.031796 0.041250035
0003a0 32 d0 ee 3c 3c 65 a1 3c 64 1a d5 bd 7b db 69 3d
       0.02915201 0.019701593 -0.10405424 0.05709408
0003b0 c3 2b be 3d 2d 80 cb bc 93 1a 63 3d 8b 7c b0 3d
       0.09285691 -0.024841392 0.055445265 0.08617505
0003c0 2e ac 08 3b 37 6c 99 3c 58 8b 01 3e d2 db 02 be
       0.002085458 0.018728359 0.12650812 -0.12779167
0003d0 d6 72 ca 3c 62 93 3f 3d 55 a5 bb 3d 41 e2 91 3d
       0.024712961 0.046771415 0.09162394 0.07123233
0003e0 07 b7 27 3d 8d 54 6e bd 4f 2d cc 3c 61 8d bf b9
       0.040946033 -0.058186103 0.024923949 -0.00036535694
0003f0 5f d0 5a be e0 74 8f bd 7e d7 57 3b fa 95 59 bd
       -0.2136855 -0.07004714 0.003293484 -0.053121544

encoder_lin.0.bias f4 [64]
000000 47 4d dd bc 5d 5e 77 bd 4f f5 d7 bc 38 49 1a bd
       -0.027014388 -0.060392726 -0.02636209 -0.037667483
000010 22 70 93 3c 05 fc 46 3d fb 71 34 bd 44 cd d4 3c
       0.017997805 0.04858019 -0.044054013 0.025976785
000020 64 86 ca bc a2 fe 4b 3d 24 64 36 3d 9a 32 1f 3d
       -0.024722286 0.049803384 0.044529095 0.038866617
000030 bd 3e 41 bd de ca 63 3c 69 ef 36 3d 00 fe 8e 3d
       -0.047178973 0.013903348 0.044661913 0.069820404
000040 b8 15 70 bc 12 33 b4 3c 42 b8 97 bc dd 7f c0 3a
       -0.014653616 0.021997008 -0.018520478 0.0014686544
000050 93 1f c3 bb 9b af de 3c 84 22 1c bd dc 6d 00 3d
       -0.0059546917 0.027183345 -0.038118854 0.03135477
000060 6a e4 e0 3b ce 10 18 b4 a7 9b 18 bd 26 66 18 3c
       0.0068631666 -1.4162217e-07 -0.037257817 0.009301698
000070 91 f9 f0 3c 9e 77 3e 3d 9c ee 7a 3d d4 34 a6 bc
       0.029415878 0.046500795 0.061262712 -0.020288862
000080 c7 17 2b 3d 6c eb 2d 3c 6f 2b 4e 3c a2 fb 17 3d
       0.041770723 0.010615211 0.012583598 0.03710521
000090 36 12 3f bc 6b cf f6 3b af 5e 3c 3d 9b 3d 01 3d
       -0.011662057 0.0075320504 0.045988735 0.031552892
0000a0 db 0d 9b bc 2f 95 4e bc 92 81 f3 3a 27 dc 86 3b
       -0.018927505 -0.01260881 0.0018578044 0.0041155997
0000b0 66 e1 fc 2f 24 69 48 bd e8 c6 45 3d 4d ff 09 bb
       4.5998688e-10 -0.048928395 0.048285395 -0.0021056712
0000c0 04 6f 39 3c 13 bc fa bc ad 4e 78 bc c1 7a 31 3d
       0.011317972 -0.030607259 -0.0151554765 0.043329958
0000d0 df 52 99 bd 32 22 01 b2 11 6a b6 b8 71 5e 17 ac
       -0.074865095 -7.516563e-09 -8.698193e-05 -2.1510816e-12
0000e0 a3 59 80 3d 1d b1 59 bd 6b ad 6d 3c 06 80 0e 3d
       0.06267097 -0.053147424 0.014506678 0.03479006
0000f0 71 75 17 3d a7 12 34 3d f1 46 d8 bc 52 84 a9 a9
       0.036977235 0.0439631 -0.026401015 -7.5280616e-14

encoder_lin.2.weight f4 [2, 64]
000000 5e 89 2e 3e 48 61 a4 bd 55 55 61 be bc 53 03 3e
       0.17044589 -0.080263674 -0.22005208 0.12824911
000010 2d 9a 9e bd ae 22 05 be c9 84 15 be 51 09 f5 3d
       -0.077442504 -0.1300151 -0.14601435 0.119646676
000020 7d 7e 85 3e 9f 61 cb bd df aa de bd da 92 57 3d
       0.26073065 -0.09930729 -0.10872435 0.052630283
000030 ff 13 07 3e e5 21 8b bb 6e ba 83 3d f4 03 f4 bd
       0.13191222 -0.004245984 0.06432043 -0.119148165
000040 6c 39 b9 bd 33 92 2e 3d 72 dc 55 3d da b8 84 bc
       -0.090441555 0.042619895 0.052212186 -0.016201425
000050 6e c5 a1 39 8a 31 e7 3d 04 1f af 3d 92 87 f8 bd
       0.0003085541 0.11288746 0.08550838 -0.12135233
000060 13 cf ac bd 97 e6 39 bc 22 e0 35 3e f4 03 b6 3c
       -0.08437934 -0.011346481 0.17761281 0.022218682
000070 75 96 fc 3d f0 a7 00 3e a8 96 82 3d 28 43 35 be
       0.12333385 0.12564063 0.06376392 -0.177014
000080 47 ad cd 3d 4d 0f d2 bd ea 8a 3b bd 82 6c d8 3d
       0.10042816 -0.10256825 -0.045786776 0.10567571
000090 8c b1 5e be 97 e9 30 bb dd f9 94 bd 17 fb 0a bd
       -0.21747416 -0.00269947 -0.0727422 -0.033930864
0000a0 8b 17 6e 3e cf 26 73 3c 58 ce 6a 3b c3 19 0f 3e
       0.23251168 0.014840796 0.0035828557 0.13974671
0000b0 83 a3 b8 3b eb a4 e1 3d d9 87 b2 bd fc b4 fa 3c
       0.0056347265 0.11017784 -0.08717317 0.030603878
0000c0 f6 bc e8 3d 9d 89 4f 3e ac 07 83 bb 4e 53 97 3d
       0.113641664 0.20267339 -0.0039987173 0.07388936
0000d0 6f 5d e6 3d 2f 84 39 35 1c 87 24 3a c7 87 88 ba
       0.1124829 6.9110223e-07 0.00062762364 -0.0010416441
0000e0 2f 42 96 bd 35 17 a6 3d 36 79 1d 3d 8f 75 04 3e
       -0.07336842 0.08109895 0.038445674 0.1293547
0000f0 c7 5c de bc 11 b8 96 bd 6a f1 0e be 67 a1 12 34
       -0.027143849 -0.07359327 -0.1395928 1.3656027e-07
000100 ed 5b 61 bd 8f 5d 13 3e 8f 55 21 3d 53 3a ad 3d
       -0.055019308 0.14391159 0.039388236 0.0845839
000110 17 84 84 ba b5 8e f6 3d 39 55 b2 3d 33 3f 83 3d
       -0.0010110167 0.12038938 0.08707661 0.06408539
000120 a8 be 38 bd 7f a7 6f 3b c7 1f e6 bc 1d 20 a2 3d
       -0.0451037 0.0036568341 -0.028091324 0.07916281
000130 ce 3a 16 bd 65 19 2e 3e 37 9e ce 3d e8 58 e2 3d
       -0.036677174 0.17001875 0.10088771 0.11052114
000140 80 c4 70 3d ca 2f 38 bd ce cb d5 3d 93 ff 30 3e
       0.058781147 -0.04496745 0.10439263 0.17284994
000150 d4 47 04 b4 33 82 d9 3c db 8f 1c 3d 1d bf f6 bc
       -1.2319589e-07 0.026551342 0.03822313 -0.030120427
000160 5b 76 28 3d ee 20 f6 3a 2e 15 b1 bd 96 73 f8 3d
       0.041128498 0.0018778124 -0.08646618 0.12131421
000170 a7 37 a0 bd 8d 52 e6 3d dc c7 27 be f5 ef 4b be
       -0.07823115 0.11246214 -0.16384834 -0.19915755
000180 45 cb 0e 3e 7d 05 86 3d ad 8c bf bd d5 e8 83 3d
       0.13944729 0.065440156 -0.09353004 0.064408936
000190 7d bf a1 3c ba f8 ed 3d e7 57 b9 3d 01 78 e8 3d
       0.019744629 0.116197065 0.09049969 0.11351014
0001a0 fc 38 ae bd 3e 7d a1 bd 46 85 c0 3d 1a 5c 4d be
       -0.08506963 -0.07885216 0.0940042 -0.20054665
0001b0 19 a2 7d 39 2c 53 c6 bd 26 bc 0b bd ab 00 09 3e
       0.00024188346 -0.096838325 -0.03411498 0.13379161
0001c0 31 60 40 be a2 2f b8 bd c3 1c 62 bd 97 f8 21 be
       -0.18786694 -0.0899346 -0.05520321 -0.15817486
0001d0 5f 24 24 3c 45 ad 29 b5 3e 61 9c 3b d9 fa 01 3a
       0.010018437 -6.3209546e-07 0.0047723344 0.00049583387
0001e0 99 68 91 3d 6a f3 1e 3d e2 19 eb 3d 9a ee d2 3d
       0.071000285 0.038806356 0.11479546 0.10299416
0001f0 3e ab 08 be 86 ff 10 bd d3 27 10 be 4a 55 f6 27
       -0.13346574 -0.035399936 -0.14077692 6.8371187e-15

encoder_lin.2.bias f4 [2]
000000 5f 85 48 3d 36 79 e2 3b
       0.048955318 0.006911422
