lab5/encoder_params.pth (torch, 102645 bytes, 10 tensors)

encoder_cnn.0.weight f4 [8, 1, 3, 3]
000000 a8 16 ea 3b b4 0d 02 3e 0b 3f 54 be 52 b1 47 be
       0.007143814 0.1270054 -0.20727174 -0.19501236
000010 c3 4b 00 be ed d1 e7 3d e2 f0 0e bc 28 41 3a 3e
       -0.12528901 0.11319337 -0.008724423 0.18188918
000020 87 50 df bb d1 7c d2 3d 8f 23 05 be 5a d6 f6 bb
       -0.0068150195 0.10277713 -0.13001846 -0.007532877
000030 b7 5e 81 be 1d 0a 78 be 22 c3 94 bd c9 00 3d 3b
       -0.25267574 -0.24222608 -0.07263781 0.002883958
000040 4e 11 c4 3c 93 15 33 3e 44 c2 38 be 1e 0e bf bd
       0.023934033 0.17488699 -0.18042856 -0.093288645
000050 65 7f 20 3e d2 08 93 3e 95 0c ea 3a e7 d6 98 3e
       0.15673597 0.28717667 0.0017856533 0.29851457
000060 7d f9 c5 bc ca 55 58 3d 42 fb a1 3e 9d f2 c3 be
       -0.024166817 0.05281619 0.31637007 -0.38271037
000070 73 c6 98 be 77 4d 35 be 9c 4f 44 be 65 9a b9 3d
       -0.29838905 -0.17705332 -0.19170994 0.090626515
000080 8f fa 84 be 17 22 a7 be 80 97 c2 be 4f be d2 be
       -0.2597241 -0.32643196 -0.3800621 -0.4116082
000090 fa e8 62 be b7 dc f9 3d f7 b5 b3 3c 2d d0 8f 3d
       -0.22159186 0.12200301 0.021937354 0.07022128
0000a0 96 c9 dd bd 6e 14 3f be b4 ee 96 bd 33 2c bc be
       -0.10829465 -0.18660137 -0.07369748 -0.3675247
0000b0 4d 7b ba be 7c ee ba bd 0b 31 a6 3e 91 cf 72 3e
       -0.36422196 -0.091275185 0.32459292 0.23711993
0000c0 44 01 56 bd 34 15 22 3e b2 9e 86 3e 33 2c bb 3e
       -0.0522473 0.15828401 0.2629295 0.3655716
0000d0 d8 35 84 3e de 62 c4 3d 3b 00 0c 3e f7 3f 42 be
       0.2582233 0.0958917 0.13671963 -0.18969713
0000e0 43 ba 83 bd 9e 16 4f be ef e9 a7 be 6c 7f ab be
       -0.06432011 -0.20223472 -0.32795665 -0.33495653
0000f0 34 b6 8d 3b da 8a 70 be 78 71 c3 be c6 19 36 3e
       0.004324699 -0.23490468 -0.38172507 0.1778327
000100 07 0a ab 3e 3e d3 3c 3d 8e 2d e3 3d 74 d7 7a 3e
       0.33406088 0.046099894 0.11092673 0.24496251
000110 fc 38 82 3e df 68 c3 3e 71 33 85 bd 08 9e 43 bd
       0.254341 0.38165948 -0.06503952 -0.047758132

encoder_cnn.0.bias f4 [8]
000000 d6 b5 85 3e 6f d6 d2 3e 00 cd d4 3e 61 76 ae 3e
       0.26115292 0.41179225 0.41562653 0.3407469
000010 94 8e 26 3e 73 77 7d be 41 ad 2b 3e 15 23 da bd
       0.16265327 -0.24752598 0.1676531 -0.106512226

encoder_cnn.2.weight f4 [16, 8, 3, 3]
000000 9a 64 10 3d a7 93 08 3e 29 04 f3 3d bb ca 31 3d
       0.03525219 0.13337575 0.11866028 0.04340623
000010 c7 b1 c8 3d ec 15 e3 3d be 74 0c 3d 70 40 b3 3c
       0.09799533 0.11088166 0.03429102 0.021881312
000020 eb 74 7c 3d 1e 2d c1 3d 3a f8 2f 3e 9b 67 2c 3e
       0.06163494 0.094324335 0.17184535 0.16836397
000030 ed 9b 3f 3e 3c 48 3e 3e 32 17 c5 3d 6c 49 07 3d
       0.18711825 0.18582243 0.09623565 0.033029005
000040 f0 08 24 3e dc 98 f6 3d 7e dc e0 3c 42 2b 2e 3d
       0.16019034 0.12040874 0.027448889 0.042521723
000050 78 86 49 3e 51 49 10 3e f0 94 86 3d 9d fb f6 3d
       0.19680202 0.14090468 0.06571376 0.1205971
000060 86 6e 56 3c f3 58 c0 3d fa c0 6d 3d ef 4b 5c 3d
       0.013087874 0.09391966 0.058045365 0.053783353
000070 7e 3b ff 3d 49 20 9a 3d 68 1c 41 3d 2d e9 1c 3e
       0.12462519 0.07525689 0.04714623 0.15323325
000080 16 34 c2 3c 1e fd 09 3e 46 0a 5e 3e 17 16 d8 3c
       0.023706477 0.13475463 0.21683607 0.02637772
000090 36 aa 48 3d 19 ae 67 3d 26 cb bf 3c 3b 1d 8b 3d
       0.04899045 0.056562517 0.023412298 0.06792685
0000a0 70 39 d5 3d da 39 3b 3d 1c 10 84 3d f6 23 15 3e
       0.10411346 0.04570947 0.06448385 0.145645
0000b0 0f da 80 3c 0f 11 7b bd 2b c4 06 be 9d 8d 33 bd
       0.015728978 -0.061295565 -0.1316077 -0.043836225
0000c0 f5 74 94 bc 04 95 2d be 6f 6e a6 bc e9 8f 52 3c
       -0.018122176 -0.16951376 -0.02031633 0.012851694
0000d0 86 a7 0b be 6c 22 9d bc 2f 73 5d 3d 2e d2 84 3d
       -0.13638124 -0.019181453 0.054064926 0.06485401
0000e0 38 08 03 3d 5b 18 95 3d 5f 0c 0c 3e e7 04 a3 3d
       0.03199026 0.07280036 0.13676594 0.079599194
0000f0 ee 15 0f 3e 91 61 28 3e 5f 79 fd 3d a7 a1 2f 3d
       0.1397321 0.16443469 0.12376665 0.042878773
000100 9e 8d f5 bd e7 35 2f bd 13 24 5f 3d 7c 77 d9 bd
       -0.11989902 -0.042776015 0.054477762 -0.10618493
000110 29 40 bd bd 0b 87 83 3d 2e 8d b0 bd 88 59 07 bd
       -0.09240753 0.06422242 -0.08620678 -0.033044368
000120 c5 f9 c2 3d fb 55 95 3d f1 c3 e6 3d e6 2a c7 3c
       0.09520296 0.0729179 0.112678416 0.024312448
000130 38 1b 6f 3d 08 96 62 3d d5 15 55 3d b1 bc 3f bc
       0.058375567 0.055318862 0.052022774 -0.011702702
000140 6e fa a3 3d d2 63 94 3d a0 6d a8 3d b9 f6 6c 3d
       0.0800675 0.07245602 0.08224034 0.05785248
000150 f5 ac 25 3d c1 85 15 3e e6 d7 c2 3d 61 a9 0f 3d
       0.040448148 0.14601804 0.095138356 0.03507364
000160 2f cf 91 3d 7e 18 e0 3d 1d 84 1b 3e 66 4f 31 3c
       0.07119595 0.109421715 0.15187116 0.010822153
000170 e4 ba 14 3e a9 36 d9 3d 0a 6e 50 bd 2d 08 f2 3d
       0.14524418 0.10606129 -0.05088619 0.11817966
000180 37 a8 4e 3d 6d c4 1a bc 2d 88 02 3e 33 01 91 bc
       0.05045339 -0.009446246 0.1274726 -0.017700767
000190 1b ac 61 3d 56 3d ac 3c 90 e6 18 3d 6c 14 87 3d
       0.055095773 0.021025341 0.037329257 0.06595692
0001a0 9f fc 8e 3d e0 11 31 3d 0f 5b e8 3d b8 33 50 3d
       0.069817774 0.043229938 0.11345493 0.050830573
0001b0 27 fe 9e bc 42 c9 fb 3c 15 5e 1b 3c 72 0d d6 3c
       -0.019408299 0.030735616 0.00948288 0.026129458
0001c0 61 64 1f 3d 34 9d eb 3c 11 8f a4 3c 1c e6 b3 3d
       0.03891409 0.028761484 0.02008775 0.08784124
0001d0 cb 12 b2 3c f1 47 87 3d b6 52 0c be 66 bb 02 bd
       0.021737477 0.066055186 -0.13703427 -0.031917
0001e0 29 4d 6b 3d d2 7e 53 bd 4c ab e7 bd 8d 84 0b bc
       0.057446633 -0.051634617 -0.11311969 -0.008515489
0001f0 1a a2 2d be db a0 79 ba 8f ce 88 bc 6a c8 6b 3c
       -0.16956368 -0.00095225655 -0.016700057 0.014391044
000200 28 b6 1b 3b de a6 7e bc 0b d5 a7 3d 37 7c d4 3c
       0.0023759697 -0.015542714 0.081949316 0.025938137
000210 b3 95 47 3d f5 8e f7 3d 59 5f 63 3d e5 c7 be 3d
       0.04872675 0.12087814 0.055510852 0.093154706
000220 eb 06 d6 bd be 4f 97 bd 22 6d 10 3e 90 bf 0d be
       -0.10450538 -0.073882565 0.14104131 -0.13842607
000230 92 84 77 bd 7f e5 3f 3e 6c ff 41 bd 14 3d e3 bc
       -0.060429163 0.1873989 -0.04736273 -0.027739085
000240 f6 29 48 3d 65 0c 14 3e 59 45 c8 3c af f5 d5 3d
       0.048868142 0.14457853 0.02444713 0.10447251
000250 bf 9f dc 3d c8 cd bf 3d 89 fb 41 3d 5b 22 07 3e
       0.10772657 0.093654215 0.047359023 0.131967
000260 96 02 89 3c ac e4 89 3e 67 8a 33 3e 91 2f 28 3d
       0.016724866 0.26932275 0.17533265 0.041060988
000270 0d 84 65 3e 56 33 a1 3d 19 2d c5 3d b1 c1 16 3e
       0.22413655 0.0787112 0.09627742 0.14722325
000280 a6 25 cd 3d f7 1d c2 3d 3c c7 16 3d 8d f1 96 3d
       0.100169465 0.094783716 0.0368111 0.07370291
000290 f8 58 e9 3d ec c3 c6 bc 2d 60 15 3e 3c d9 17 3c
       0.113939226 -0.024263345 0.1458747 0.009268101
0002a0 6b 84 28 3d a5 2e 94 3d 6d f2 22 3d 70 05 14 3e
       0.04114191 0.07235459 0.039781976 0.14455199
0002b0 c3 15 0a 3e e0 58 96 ba 5f 89 e3 3d 32 0f 89 3d
       0.13484864 -0.0011470579 0.11110186 0.066923514
0002c0 f9 48 cf bd 23 66 0f 3e 3f 89 2c 3d 3c 59 ab bd
       -0.1012134 0.14003806 0.042123076 -0.083666295
0002d0 22 84 a0 3d 7b 78 26 3d 6b fd 3d 3c 4a dc 17 3e
       0.07837702 0.040642243 0.011596064 0.14830127
0002e0 bf 4f 64 3d 74 b1 cc bc 85 3c d6 3d d6 f8 62 3d
       0.055740114 -0.02498696 0.10460762 0.05541309
0002f0 a2 df 9d 3c cb 20 56 be b3 b8 2a bd 79 64 06 bd
       0.019271675 -0.20910947 -0.04168005 -0.032810662
000300 ff 35 78 be fa 28 93 3c 40 82 22 bd 72 5a 74 be
       -0.24239348 0.017963875 -0.039674997 -0.23862627
000310 90 25 73 3d f8 c9 4e bd 17 47 ca 3d a0 22 bc 3c
       0.059361994 -0.05048558 0.098768406 0.02296573
000320 dd 29 e5 bc 7f 49 04 3e 27 7d 15 3d 06 20 b2 3c
       -0.027974064 0.12918662 0.036496308 0.021743786
000330 89 7d 0f 3e 5b 8f 85 3d 91 17 51 3c 93 2e 0d be
       0.14012732 0.065214835 0.012761966 -0.13787298
000340 c8 a1 57 bd ec 71 2a 3d 16 83 46 be 0d c9 84 bd
       -0.05264452 0.04161255 -0.19385943 -0.0648366
000350 9b ff 96 3b 9b 5d 37 bd b4 8f 59 bc 3d 10 1b 3d
       0.0046081073 -0.044767004 -0.01327889 0.037857283
000360 af fc e8 3d 98 ae 40 3d 60 77 a8 3d 0f e0 b4 3d
       0.113763206 0.047041506 0.08225894 0.08831798
000370 27 2c ad 3d 24 29 d2 3d ac 09 2c 3c b2 b0 52 3d
       0.08455687 0.10261753 0.010500353 0.05143804
000380 bc cb e8 3c d4 53 03 3e 11 75 33 3e 81 43 18 3e
       0.02841746 0.12824947 0.17525126 0.148695
000390 6e be 4f 3e 56 20 36 3e 66 29 b7 3d f2 8f df 3d
       0.20287487 0.17785773 0.08943443 0.10916127
0003a0 03 53 08 3e 29 f9 55 3d 01 de 80 3d b8 9a cb 3d
       0.13312916 0.05223957 0.06292344 0.0994162
0003b0 23 82 09 3d 1f dc 6b 3d 2b 2a be 3d 93 d5 b3 3d
       0.033571374 0.05758297 0.09285387 0.087809704
0003c0 b9 d9 7e 3d 98 cb 9b 3d 96 b4 1b 3c 12 b3 1a 3e
       0.062219355 0.07607192 0.009503504 0.15107372
0003d0 32 c3 2d 3e 17 ac 02 3e be e5 0f 3e 35 96 f2 3d
       0.16968992 0.1276096 0.14052483 0.11845056
0003e0 39 dc 8e 3d e3 34 87 3d 4f 7a ab 3d 86 d9 de ba
       0.06975598 0.06601884 0.08372938 -0.0017002083
0003f0 14 cf ef 3d 90 77 b0 3d 43 87 b3 3c 21 7e dd 3d
       0.11709419 0.08616555 0.021915084 0.10815073

encoder_cnn.2.bias f4 [16]
000000 11 26 cc 3d 54 42 8e 3d ad eb 06 3e 5e dd 23 3d
       0.09968198 0.06946245 0.1317584 0.040006034
000010 77 49 02 3e 6c a2 d9 3d be 8b 17 3e ef ac aa 3c
       0.12723337 0.10626683 0.14799401 0.020834414
000020 5e af e3 3b ef cb 0c 3e 8f 44 e5 3d 68 93 7e bc
       0.0069483956 0.1374967 0.11194717 -0.015538074
000030 29 c6 16 3d af 7f 0b bc 81 de 54 bb f6 4e fc 3d
       0.036810074 -0.008514329 -0.0032481255 0.12319748

encoder_cnn.4.weight f4 [32, 16, 3, 3]
000000 37 07 f5 3c a0 c8 02 3d 5c 62 f2 3c 74 06 55 3d
       0.029910667 0.031929612 0.029587917 0.052008107
000010 e8 f8 85 3d ad eb dc bb 4d d6 29 3c 78 1b 5f 3d
       0.06541616 -0.006741962 0.010366035 0.054469556
000020 e8 d3 71 3d 37 80 4d bd 3f 6f 02 3d 72 65 c8 3c
       0.05903998 -0.050171103 0.031844374 0.024462435
000030 b7 82 1a bd 02 83 fd 3c 33 fc 14 3d f2 3d 2e bd
       -0.037722316 0.030946258 0.03637333 -0.042539544
000040 86 e5 b4 3c 6e e4 fd 3c 91 c2 2e 3c 2d cc a3 3b
       0.022082102 0.030992713 0.010666505 0.004998705
000050 59 ae c3 b9 82 5c 24 3d 79 c4 0f 3c e3 85 be bc
       -0.00037323197 0.040127285 0.00877487 -0.023257202
000060 c2 80 0e bb 0e 2d 1f 3d 6b c3 ec bc e0 08 e5 3b
       -0.0021744226 0.038861327 -0.028901776 0.0069895834
000070 77 67 1c 3c 4e 5c f6 3b fc c9 d0 3c 2b 05 dd 3c
       0.009546152 0.007518328 0.025486939 0.026980003
000080 ee 1e ce bc d9 66 78 3c 93 64 f6 3c c8 43 71 3c
       -0.025161233 0.01516124 0.030077254 0.014725633
000090 ce 6d ff 3c c5 3e 61 bc 2f d7 91 3b 65 c9 82 3d
       0.031180289 -0.013747876 0.0044507007 0.06386069
0000a0 46 e5 dc 3b 64 ff 49 bc 60 86 8c 3d ca 05 63 3d
       0.0067411987 -0.012328956 0.068615675 0.055425443
0000b0 65 d4 1b 3d 4d f1 27 3c f7 33 d8 bc 4b 35 ca bc
       0.038044352 0.010250402 -0.026391966 -0.024683615
0000c0 ab 31 14 3d c1 7c fb 3c cb da fa 3c bc 5c 03 3b
       0.03618018 0.030699136 0.030621907 0.0020044288
0000d0 67 f4 18 3d 32 3e 03 3d 60 cd e9 3b b8 07 2b 3c
       0.037342455 0.032041736 0.0071350783 0.010438852
0000e0 5f 55 1d 3c 4e e2 c9 3c 19 b3 6f 3c 13 fc da bc
       0.009602874 0.024644043 0.014630103 -0.026731526
0000f0 0d e9 29 bc 7a 33 0a 3d 0b 2c 68 3d 12 92 1b 3d
       -0.010370505 0.033740498 0.056682628 0.0379811
000100 0a 85 bd bc d1 2a db 3a 40 b9 a6 3c be e3 81 3c
       -0.023134727 0.0016721134 0.020352006 0.015855666
000110 49 18 7b bc 8f 57 b4 3b 1d 40 3a 3d e5 f0 1a 3d
       -0.015325614 0.005503602 0.0454713 0.03782739
000120 29 01 86 3c 63 83 d2 bc 80 2a 93 3b 32 88 83 bc
       0.016357975 -0.025697416 0.0044911504 -0.016056154
000130 b3 55 10 bd e8 eb a8 3c 7a 52 b6 3c 41 a2 a0 bc
       -0.03523798 0.020620301 0.022256125 -0.019608619
000140 88 f3 f2 3c 40 b6 91 bc 9f 73 0f bc f1 fd 02 bd
       0.02965714 -0.017787099 -0.008755594 -0.03198046
000150 87 73 9b 3c f6 5b 03 3d f9 69 94 bc 1b 6e bb 3b
       0.018975986 0.032070123 -0.018116938 0.0057199127
000160 0d 07 5e 3c c2 1c 11 3c e1 0a 84 ba c1 20 a8 bb
       0.013551486 0.008856954 -0.0010074043 -0.0051308577
000170 ab f7 fa bc 41 ab 3d 3c 3b 25 88 3b 25 6c 74 3c
       -0.030635675 0.011576475 0.004154829 0.014918362
000180 7d db 0b 3c 56 a4 b7 3c eb 4a 69 3d a8 4f b9 bc
       0.008536217 0.022417229 0.056956213 -0.02262099
000190 c6 f7 3a bb ed 13 31 3d a2 9c 11 3c 98 f6 59 3d
       -0.0028529032 0.043231893 0.008887442 0.053213686
0001a0 63 72 25 3d 92 1e 2a 3d 29 73 16 3d 4b 0b 8b 3d
       0.04039229 0.04153306 0.03673092 0.06789263
0001b0 72 d7 06 ba c5 ee 01 bd 84 03 dd bb cc 89 88 bc
       -0.0005143798 -0.03172185 -0.006744804 -0.01666727
0001c0 7a 9a 15 bd 22 58 39 3b 94 8a 04 bd 8c 81 38 bd
       -0.036524273 0.002828129 -0.03235872 -0.04504542
0001d0 e2 4d 89 bd aa 12 09 3c 97 b4 9f bc c2 b4 30 bc
       -0.06704308 0.008366266 -0.019495292 -0.0107852835
0001e0 2f e7 5e bd 14 53 9e bc 11 b0 31 bd 28 5c 7a bc
       -0.054419693 -0.019326724 -0.0433808 -0.015280761
0001f0 04 68 c7 bd 53 1f 92 bd ee 56 71 30 4e 17 15 32
       -0.09736636 -0.07134881 8.7798824e-10 8.67824e-09
000200 9e e0 56 30 18 dd 28 32 08 44 a6 32 04 5c 1d 31
       7.8171947e-10 9.829158e-09 1.935588e-08 2.2898812e-09
000210 6d bb a6 32 a0 d9 96 32 60 e7 b1 2f ea 5e b9 3d
       1.9410175e-08 1.7561263e-08 3.2360514e-10 0.090513065
000220 49 84 af bb 72 31 ea 3d 4d e4 54 3d 30 65 e0 bc
       -0.005356346 0.11435212 0.051975537 -0.027392
000230 12 b4 5d 3d 21 ce ce 3d ed 1c 46 bd c4 5f 4f 3d
       0.054126807 0.1009791 -0.04836743 0.05062844
000240 1e e4 1f be 10 a3 d5 bc 8b ce a5 bd a1 c7 87 3d
       -0.15614364 -0.02607873 -0.080960356 0.06629873
000250 b5 c9 37 3e 1f da 13 3e 82 29 3b bc 82 ac 1f 3e
       0.17948039 0.14438675 -0.01142347 0.1559315
000260 9c 1c a9 3c 82 34 2e be 62 ba fc bd 71 2e a2 bd
       0.020643525 -0.17012218 -0.12340237 -0.07919014
000270 2a 5f 65 bd e4 11 70 3d de 15 9c 3d 87 be df bd
       -0.05599896 0.05861081 0.07621358 -0.10925012
000280 9c 58 60 3d 2b 73 f7 bc 30 45 08 be 40 b4 90 bd
       0.054772004 -0.030206284 -0.13307643 -0.0706563
000290 a5 ff 86 bd 02 c5 81 3e 58 a1 30 3e d3 2d 22 3e
       -0.06591729 0.25345618 0.17249048 0.15837793
0002a0 0e 30 03 3e df 7a 84 3d bf 4e a9 3c fe e1 2f be
       0.128113 0.06468748 0.020667432 -0.17176053
0002b0 20 22 8e bd 9a 7a 26 be b9 35 04 3e 36 ad 07 3e
       -0.069401026 -0.16257706 0.12911119 0.13249668
0002c0 68 81 b7 3d 17 e8 8a 3d 8d c7 00 3e 3e 99 3c 3d
       0.08960229 0.06782549 0.12576123 0.04604458
0002d0 5f f4 78 bd af e3 0c bd 51 7e d3 bd 3a 0c eb 3d
       -0.060779925 -0.034396823 -0.10326827 0.114769414
0002e0 ef 7e 0a 3e ad 53 52 3d b9 45 dc 3c 87 d7 e0 3c
       0.13524984 0.05134933 0.026888715 0.027446521
0002f0 01 81 06 ba 72 9e 08 be 66 67 82 bd 47 a0 86 bd
       -0.00051309174 -0.13341692 -0.06367378 -0.06573539
000300 77 44 11 3e ed c2 31 3e b7 55 d2 3d 63 29 c9 3b
       0.14186274 0.17359515 0.10270255 0.006138967
000310 78 2d cb 3d 16 00 a1 3c 9b db b3 bd a5 36 8f bc
       0.09920782 0.019653361 -0.08782121 -0.017482111
000320 5b 6c 05 bd 15 04 25 3d 74 58 22 3e 96 10 fa 3d
       -0.03257404 0.040287096 0.15854055 0.12210195
000330 18 4d 86 3c 7e 7c b4 3d 8c 21 1c 3c 7e 36 e5 bd
       0.016394183 0.088128075 0.009529483 -0.11192034
000340 09 d2 14 bc dc f1 f1 bd ee 61 55 3e 68 58 80 3e
       -0.009083279 -0.11813709 0.20838138 0.2506745
000350 4b a4 42 3e 26 f0 54 3d fc 4b 21 3e c0 60 a9 3c
       0.19007985 0.051986836 0.15751642 0.020676017
000360 e3 95 20 be 06 06 94 bd 7a 62 39 be bb fe 20 3e
       -0.15682177 -0.072277114 -0.18103972 0.15722172
000370 a7 1a 66 3e dd 69 0b 3e 61 c4 1e 3d 2f cb e8 3d
       0.22471105 0.13614602 0.0387615 0.11366879
000380 7d 4d 9b 3d 7e 8a 40 bd b8 da 9d bd 7f 67 d2 bd
       0.07583139 -0.047007076 -0.07707733 -0.102736466
000390 60 4a 32 bd c5 52 2c 3d b4 f6 86 3d f0 57 35 bd
       -0.04352796 0.042071123 0.06590024 -0.044273317
0003a0 11 b0 7f 3d 4c 81 27 bc 70 82 65 bd ed 9f d2 bc
       0.06242377 -0.010223698 -0.056032598 -0.025711024
0003b0 d1 61 66 3c 1c 01 b9 3d 37 af a9 3d ab 89 1b 3d
       0.014061407 0.09033415 0.08285373 0.037973087
0003c0 aa 14 c7 3c 2a 8c f3 3c 9f 2d ae 3b fa 27 c0 bd
       0.024301846 0.029729921 0.005315497 -0.09382625
0003d0 72 fe 9c bc 8c 45 19 be 05 01 d1 3d 0d c9 4a 3e
       -0.019164298 -0.14967936 0.102052726 0.19803257
0003e0 7b b1 f3 3d f1 b9 62 3c c3 21 29 3e 71 a5 2c 3d
       0.11899086 0.013838277 0.16516785 0.042149965
0003f0 19 ef 82 3d cc a6 85 bd 52 87 8b 3c dc 93 bc be
       0.063932605 -0.065259546 0.0170323 -0.36831558

encoder_cnn.4.bias f4 [32]
000000 aa 87 26 3c 7b c5 07 bd b4 36 a2 3d 6d 78 b4 3d
       0.010164181 -0.033147316 0.0792059 0.08812032
000010 2c fa 9c 3d 6b 0f 23 3d 08 07 8c 3d 37 86 e1 3d
       0.07664904 0.039809626 0.068372786 0.110119276
000020 b8 43 63 3d fe 3d c2 3d 2f 6f 03 3e bb b0 a8 3d
       0.055484504 0.0948448 0.12835382 0.08236834
000030 7a 66 9c bc 05 ba 96 3c 4a 99 ca 3d bb 0d de 3d
       -0.019091833 0.018399248 0.09892519 0.10842463
000040 45 2d 19 3d 26 73 2f 3d ad 7e 49 bd 0f 74 46 3c
       0.037396688 0.042834423 -0.049193073 0.012112631
000050 0e 73 f5 3c f5 d4 90 98 85 d5 5d bb 3d e2 9d 3d
       0.029962089 -3.743816e-24 -0.0033849191 0.07709167
000060 7d 32 5c 3d 9f f0 a9 3c 5b d8 ea 3c 2a 63 63 3c
       0.053759087 0.02074462 0.02866762 0.013878623
000070 f5 3a 59 3c 67 92 c6 bd ba c5 88 3d 67 88 be 3b
       0.013258685 -0.09695893 0.06678338 0.0058146003

encoder_lin.0.weight f4 [64, 288]
000000 f1 1f e9 bc 16 f9 29 bd 6e ce 0b bd bf 94 30 3d
       -0.028457614 -0.041497312 -0.034132414 0.043110605
000010 7c 3e 1b bb 66 07 df 3c 5c 35 6a 3d 9e 68 a0 3b
       -0.0023688367 0.027225208 0.057179794 0.004895284
000020 65 bc 65 3c c5 5c 8a bd 5c 68 09 be 97 6e c4 bd
       0.014021968 -0.06755976 -0.13418716 -0.09591406
000030 38 af 26 3d ef 95 84 bd 8c 4f 4a 3b 09 f5 31 bc
       0.040694445 -0.0647391 0.0030870168 -0.010861644
000040 24 81 1b be 44 2a ae b9 38 ca f8 bb 2e 77 4f bd
       -0.15185982 -0.00033219357 -0.0075924657 -0.050650768
000050 33 f2 ca bc f0 bf 17 3d 34 09 1f 3d b4 16 a3 3c
       -0.024773693 0.03704828 0.038827136 0.019908287
000060 4a 60 e9 3c 35 7c 7f 3d 84 70 fd 3c 57 24 f8 bc
       0.028488297 0.062374312 0.03093744 -0.030290766
000070 d1 09 54 bd bb 3e db bc 71 b1 01 3d 04 eb 6a 3c
       -0.051767174 -0.02676331 0.031663362 0.014338259
000080 15 2d 0d 3d de 61 58 3d 58 cd d1 bb 4d 43 d3 3c
       0.03446682 0.05282771 -0.0064026527 0.025788927
000090 05 1b 33 bc 55 fb 42 bd 38 b9 a2 bc 3b ec 17 bd
       -0.010931735 -0.04760297 -0.01986371 -0.03709052
0000a0 bc f2 ca bc 50 fd ab 39 b5 d8 8d 3d 1b ea bd bb
       -0.024773948 0.00032804394 0.06926099 -0.00579573
0000b0 d2 41 10 3c 71 97 a9 bb d2 89 d1 bd d6 2a 2a bd
       0.008804755 -0.005175524 -0.10231365 -0.041544758
0000c0 b4 25 80 3d 90 f1 df bc a2 2e ef 3c 09 75 7a 3d
       0.06257191 -0.027336866 0.029197041 0.06114677
0000d0 2d dc 12 3d 0c 8b a5 3c f6 05 48 bb 13 49 7e 3c
       0.035854507 0.020207904 -0.003052113 0.015520352
0000e0 f1 cb 8a bb 6e 24 87 bd d0 58 23 3d 03 0e 1c bc
       -0.0042357375 -0.06598745 0.03987962 -0.009524825
0000f0 d4 df 83 3c 4a 9b 0c bd 35 12 0c 3d 95 83 26 bc
       0.01609794 -0.034327783 0.03419705 -0.010163208
000100 a6 92 6d bd 50 60 d7 bc 3d 9e 41 3d f9 75 bd 3b
       -0.058001183 -0.026291043 0.04727005 0.0057818857
000110 2d 09 c3 3c ef ab 72 3d eb 15 0b 3b fd ba c4 3c
       0.023808086 0.059246 0.002122278 0.024014944
000120 58 8d 04 bd ea 5a d2 bd 30 33 69 bd df dc 65 bd
       -0.03236136 -0.10271247 -0.05693358 -0.056118842
000130 d9 7e 18 bd f1 88 85 3c e0 e2 b9 3d b6 69 28 bd
       -0.037230346 0.01630065 0.09076476 -0.04111644
000140 fa 67 02 3d e0 38 b0 bc 78 7e 40 bd 29 bf 7f bc
       0.03183744 -0.021511495 -0.04699561 -0.015609541
000150 b3 35 f7 3c 1e 66 ea 3b 1c 0a 52 3d 0c 9f 65 3d
       0.030176973 0.0071532866 0.051279172 0.056059882
000160 1c 82 f6 bb fa 1e 0e 3d b7 86 79 bd dc 6b f6 bc
       -0.0075228345 0.03469751 -0.06091949 -0.030080728
000170 37 2d 80 3c 10 70 52 bc f2 03 9d 3d 92 b5 f7 3d
       0.01564656 -0.012844101 0.07666768 0.12095179
000180 63 f4 a7 bc bc b8 b0 bc b4 67 0b 3d de 86 a3 bd
       -0.020502275 -0.021572463 0.034034446 -0.07984708
000190 f9 8a 14 3d be a3 67 3d be 89 a3 bd ab ff 6d 3d
       0.036265347 0.05655264 -0.079852566 0.058105152
0001a0 1d 63 e2 3d e0 66 6f bc 83 7e 02 bd c8 98 ae 3d
       0.110540606 -0.01461193 -0.031858932 0.085252345
0001b0 d3 95 25 3c 12 58 c7 bd 81 5f a1 bd 72 0d a6 3d
       0.010106522 -0.09733595 -0.07879544 0.08108033
0001c0 03 07 5e 3b 2d 0f 27 bc d4 25 7b 3d 6e a1 3d 3d
       0.003387869 -0.010196489 0.061315373 0.04629653
0001d0 68 a8 ec 3c 82 ce 23 bc 53 57 a4 bd 91 3e 0b bd
       0.028888896 -0.009997966 -0.08024468 -0.033995215
0001e0 ba 01 2f 3d fb ab 22 bc fb 8c 1d 3d 70 23 8c 3d
       0.042726256 -0.009928699 0.038464528 0.06842697
0001f0 be 85 50 3d 8c e8 de 3c e1 cf 17 bd 75 76 59 bd
       0.050908796 0.027210496 -0.037063483 -0.053091485
000200 2f bb 96 bc 59 65 44 3c dd 77 ba bb 2e 62 88 3d
       -0.018399803 0.011987054 -0.0056905583 0.06659351
000210 80 7e 85 3d a7 0a d0 bc e3 93 25 3d b6 54 6d 38
       0.065182686 -0.025395704 0.04042424 5.6584096e-05
000220 23 93 b5 3c e2 5e f0 bc 51 74 57 3d 9f 77 19 3d
       0.022164887 -0.029342119 0.052601162 0.037467595
000230 35 44 2f bd 9a e5 89 bb 0f a9 d3 3a 4c 23 e6 bc
       -0.042789657 -0.004208279 0.0016148406 -0.028093003
000240 b7 73 8e 3b 7f c2 b7 bc d5 44 8a bd 9a f5 ec 3b
       0.0043472904 -0.02243161 -0.0675141 0.0072314264
000250 ee 5d 43 3d 4c 2d 11 3d 0e d4 1c 3d 3d c2 98 bc
       0.047697 0.03544359 0.03828817 -0.018647308
000260 e4 44 84 bb 3a 67 0f 3c d1 67 c1 bd fe 86 83 bd
       -0.0040365327 0.0087526385 -0.094436295 -0.06422232
000270 d4 ea 9e 3d 9f c6 30 3b ac 70 12 3c ae d5 5c 3d
       0.07759634 0.0026973856 0.008937996 0.05391472
000280 be 34 2b 3d f4 39 df 3c f4 7b 89 3d 0e d7 d0 bb
       0.041798346 0.027249314 0.06713095 -0.0063732928
000290 a9 06 97 3d 85 38 40 bd ca 60 c1 3c 21 c7 36 be
       0.07374317 -0.0469289 0.023605723 -0.17849399
0002a0 88 00 d8 bd 3a d1 4f bd f8 21 8d bd 94 04 86 bb
       -0.10546976 -0.050736643 -0.06891245 -0.004089901
0002b0 c7 8c 9e bc 89 e0 79 3c 3d 96 2d be 9d 97 33 3c
       -0.019354237 0.015251287 -0.16951843 0.01096144
0002c0 b2 25 ac bd b3 ac ec bc 8b fd 12 bd 3b d1 34 3c
       -0.08405627 -0.028890943 -0.03588633 0.011036213
0002d0 71 39 34 bc d1 6b 2d bd 06 29 85 bc 2c 63 16 3d
       -0.011000023 -0.04233915 -0.016254913 0.03671567
0002e0 07 72 fc 3c 99 e6 3b 3c 40 1a 30 3d 76 2d be 3d
       0.030816091 0.011468553 0.042993784 0.09286015
0002f0 4f 7b 2f 3d e4 99 f8 97 0c dc 34 96 3e 00 a0 96
       0.042842206 -1.6065472e-24 -1.4609719e-25 -2.5849547e-25
000300 9f 55 28 16 49 0f 68 13 13 97 44 97 63 26 89 95
       1.3597949e-25 2.9290053e-27 -6.35217e-25 -5.539442e-26
000310 46 21 fd 16 14 ed 47 97 da 56 cb bc 09 da 4d bd
       4.0895353e-25 -6.4599603e-25 -0.024821687 -0.050256763
000320 2d aa dc bc 14 57 13 3d 22 89 15 3d 32 33 b5 3c
       -0.026936615 0.035971716 0.036507733 0.022119138
000330 36 ed 73 3d 5c c5 53 3d 16 e6 01 3d 1b 26 5c bc
       0.059552394 0.05170189 0.031713568 -0.013436819
000340 72 fd f9 bc 07 00 e9 bc 70 41 68 bc 5b 5a 34 3c
       -0.03051636 -0.028442396 -0.014175758 0.011007871
000350 ec 42 af 3c a7 ec 97 3d 7f 01 1c 3d 0d 66 a8 3c
       0.021394216 0.07418185 0.038087364 0.020556474
000360 32 cc 09 3d 21 6c 05 3d fe 47 16 3d cd 41 a2 bc
       0.033642 0.032573823 0.03668975 -0.019806767
000370 7d 0c 13 3d e0 e5 42 3c 60 57 c1 3b 64 87 31 bc
       0.03590058 0.011895627 0.0059003085 -0.010835502
000380 ba 13 ca 3c 1b d1 2e 3c 11 97 81 bd 3a d2 97 bd
       0.02466761 0.010669972 -0.06327642 -0.074131444
000390 58 96 76 3d ef 91 b2 3c 56 9d 85 bb e8 99 6e 3d
       0.060201973 0.021798102 -0.004077594 0.058252245
0003a0 16 a6 29 3d 63 94 8d 3c f2 ca 25 bd f8 bf ad bd
       0.041418158 0.01728267 -0.040476747 -0.08483881
0003b0 39 28 5b bb fc 70 58 3d 50 85 82 bc 88 26 02 3e
       -0.0033440723 0.052842125 -0.015932709 0.12710011
0003c0 c5 56 09 3e 4c 12 58 bd 7e 62 99 3d 50 32 a8 bc
       0.13412006 -0.052751824 0.07489489 -0.020531803
0003d0 45 62 74 bd bb 29 1f bd 55 3f 1c 3d e5 3d 0a 3d
       -0.05966403 -0.038858157 0.038146336 0.033750433
0003e0 6e 84 1c 3d 47 5f 69 3d 7d c0 96 3c 16 a4 b1 3c
       0.038212232 0.05697563 0.018402332 0.021684688
0003f0 1f 0d 88 bc ac 00 29 bd c8 d7 b0 bc af 7a d5 bc
       -0.01660782 -0.041260406 -0.021587268 -0.026059477

encoder_lin.0.bias f4 [64]
000000 a5 90 29 3c 81 64 05 80 9d d9 44 3d 9e 3d 07 bc
       0.010349427 -4.95231e-40 0.048059095 -0.008254437
000010 2a 60 4e 3d ef 2a 5f 3d f3 78 d3 bc 4b 7f c1 bb
       0.050384678 0.054484304 -0.025814509 -0.005905067
000020 0b 03 ea b9 a6 15 8d 3d d8 2d fd 3c 8a 58 14 bb
       -0.00044634225 0.06888895 0.030905649 -0.0022635781
000030 fc 67 05 00 dc 96 0a 3d b3 99 e5 bc 61 a4 87 3d
       4.9648e-40 0.033835277 -0.028027391 0.0662315
000040 79 ee 41 bb d4 68 36 bc 82 6d 75 bc 73 61 05 80
       -0.0029591604 -0.011133391 -0.014979722 -4.94136e-40
000050 fd 6e 92 ab 43 51 1c 3d e4 35 f7 2c 34 97 7f b0
       -1.0404729e-12 0.038163435 7.0261453e-12 -9.298333e-10
000060 a3 f9 0c 3d 0a 70 04 80 0a be 92 bc 1a 33 ef bc
       0.03441776 -4.07534e-40 -0.017912883 -0.029199172
000070 82 35 ba 3a e5 15 81 3c e9 9a b0 bb 02 2e 24 3a
       0.001420662 0.01575751 -0.0053895605 0.0006262959
000080 78 85 76 a8 f2 d8 ca 3c 68 cd 0c 3d 16 1b a3 ba
       -1.3684685e-14 0.02476165 0.03437558 -0.0012443985
000090 9d 51 17 3d c2 95 2b bd df c4 88 bc 36 bc 53 3c
       0.036943067 -0.041890867 -0.016695438 0.012923291
0000a0 20 6e c0 3b 70 01 bd bb 1a 87 1f ad 19 5f 5e 3d
       0.005872503 -0.0057679936 -9.068102e-12 0.05428991
0000b0 93 fe 84 3c 11 7b a7 3d 2f b8 94 3d b3 53 6e 3c
       0.016234672 0.0817777 0.07261693 0.014546323
0000c0 09 5c 95 3c 9c 15 5d a4 93 98 03 3b cd fc 21 3d
       0.018232362 -4.794004e-17 0.0020079955 0.03954773
0000d0 29 15 57 bc 83 e0 5e bd ab 1f a0 3c d3 35 35 3c
       -0.013127604 -0.05441333 0.01954635 0.011060196
0000e0 5e ca 5d 3d e2 08 c5 ba b0 f8 18 10 ea 9c 07 bc
       0.05414807 -0.0015032555 3.0168296e-29 -0.008277157
0000f0 4b b8 69 98 64 c2 f1 bc 13 44 13 3d 8c c6 7f bb
       -3.0207588e-24 -0.029511638 0.035953593 -0.0039028255

encoder_lin.2.weight f4 [2, 64]
000000 11 3f 82 bd 04 38 ef 39 f1 37 11 be 28 79 3a 3e
       -0.06359685 0.00045627367 -0.14181496 0.1821028
000010 1a 50 d2 bd 71 ab 29 be ee c0 48 be 37 da 07 3f
       -0.102691844 -0.16569306 -0.19604847 0.53067344
000020 36 a8 52 3e 3a 44 03 be 33 21 45 be 06 22 1b 3d
       0.2057198 -0.12818995 -0.19250946 0.037874244
000030 51 96 65 3b a0 de d0 bd 36 3c ff 3c 10 33 5e be
       0.0035032223 -0.10198712 0.03115664 -0.21699166
000040 d0 94 8d be d6 50 f8 3e dc d6 e7 3c e6 fc 06 3a
       -0.27652597 0.48499173 0.028300695 0.0005149379
000050 c6 68 41 bc 26 ee b8 3e 02 01 11 3c d2 73 9e bb
       -0.011804765 0.36119193 0.008850338 -0.004835584
000060 65 17 aa bd ec ee 26 3c 08 55 ec 3e fe 6b d3 3d
       -0.083052434 0.010188799 0.46158624 0.10323332
000070 75 66 c6 bc 19 d2 f7 3d 7c 51 82 3c b7 a4 b4 bd
       -0.024218777 0.1210062 0.015907995 -0.08820479
000080 e9 cb 98 3a 04 f0 14 be 4d 0b 7e bd f8 c2 5c 3e
       0.001165745 -0.14544684 -0.062022496 0.2155875
000090 38 9b 01 be ce 94 07 bf a5 fb b8 bd 93 5b 7f be
       -0.12656868 -0.5296143 -0.090323724 -0.24937277
0000a0 f5 74 27 3e 93 76 a2 3b d1 d1 25 3c e1 43 9d bd
       0.1635321 0.004957983 0.010120825 -0.076789625
0000b0 74 2e 8a bd 39 96 9a be 5e ee f6 bd 7a 0b 30 bd
       -0.067471415 -0.30192736 -0.12057184 -0.042979695
0000c0 82 e3 8d bb 75 9f cf bb f8 c6 49 bc ef f6 b4 bb
       -0.0043300996 -0.0063361474 -0.012315504 -0.005522601
0000d0 de 5b dc 3e 9d a7 62 be a5 9c 37 3e 35 f1 34 be
       0.4303884 -0.22134252 0.17930849 -0.17670138
0000e0 e8 22 e0 bd 84 c8 ff 3d 27 e4 4b bc 4c 7c 0e 3e
       -0.10944158 0.12489417 -0.0124445325 0.13914603
0000f0 69 31 aa 3b 63 59 37 bf 1f 84 80 bd 96 6b 30 3e
       0.0051938784 -0.7162077 -0.062752 0.17228541
000100 ba 6b 13 3e f9 4e 0a 39 1d 17 a5 bd 01 eb 60 3e
       0.14396563 0.00013190125 -0.08061049 0.21964647
000110 1e c6 9d bd e8 4d 71 3d 1e f3 4d 3e 83 aa 58 bd
       -0.077038035 0.058912188 0.20112273 -0.052896988
000120 7f 77 04 bc 34 d9 98 bd d8 ec 13 bd 1b a4 b8 3d
       -0.008085131 -0.07463303 -0.036114544 0.09015676
000130 80 8b 32 3b f0 ef 3f 3e c6 0b fd 3e 09 66 a6 3d
       0.0027243793 0.18743873 0.49423045 0.081249304
000140 86 1a 87 3d 43 cb 55 be 3e 7a 02 3e aa c3 ad 39
       0.06596856 -0.2087832 0.12741944 0.00033142912
000150 7b e4 28 bb 1e f0 39 3e 67 c2 0a bb ca 64 73 bc
       -0.002577095 0.18158004 -0.0021173002 -0.014855573
000160 42 a4 46 bd 10 58 80 3b 2e f7 0c bd 1a 95 87 3e
       -0.048496492 0.003916748 -0.034415416 0.26480943
000170 14 7e 34 be 2b 74 d8 3d 37 3a af be 8a f8 e6 bd
       -0.1762622 0.10569032 -0.34224102 -0.11277874
000180 83 10 a7 3b dd 77 44 3d 3a ab ac bd ec c3 a9 3d
       0.005098404 0.047965873 -0.084310964 0.08289322
000190 77 68 a1 bd ee 22 11 3e 5d cc 37 3e 3f ae 48 3d
       -0.07881253 0.14173481 0.17949052 0.0489943
0001a0 17 4b 30 bd 85 cb 08 be b7 b4 3a bc a1 47 fb bd
       -0.04304036 -0.13358887 -0.011395625 -0.122695215
0001b0 0f c8 43 3e df be a0 3d 5f 3a cd bd 8f 09 34 3e
       0.19119285 0.07848906 -0.10020899 0.17581771
0001c0 df 47 f0 bd df e2 19 bc a7 97 02 be 1e 42 29 be
       -0.11732458 -0.009392469 -0.12753163 -0.16529128
0001d0 eb a7 82 3e 79 f0 8a 3e 78 f6 de 3d 06 2b fb bd
       0.25518736 0.2713659 0.10886854 -0.122640654
0001e0 30 e9 cd 3a 44 9b 0d bd 2e 58 03 3c 6b a3 00 3f
       0.0015709754 -0.0345719 0.008016629 0.50249356
0001f0 da d2 01 bb 2e d2 c0 3c 7c e6 26 be 69 57 c9 3b
       -0.0019809515 0.023537721 -0.1629886 0.0061444533

encoder_lin.2.bias f4 [2]
000000 36 8c 82 3b 2d 9d 7d bc
       0.0039839996 -0.015479368
