lab5/encoder_params.pth (torch, 102389 bytes, 10 tensors)

encoder_cnn.0.weight f4 [8, 1, 3, 3]
0.001641365 0.19289593 -0.26455128 -0.24197322 -0.1124354 0.07172961 -0.013221084 0.26234764
-0.04033418 0.08192554 -0.12381256 -0.06978345 -0.31960455 -0.24581367 -0.14127903 0.011180494
0.106668934 0.193889 -0.20811799 -0.12365658 0.11668888 0.28181744 -0.04922887 0.2421154
-0.040969815 0.05352553 0.2962072 -0.31006026 -0.23326695 -0.08912188 -0.13592523 0.25509042
-0.22129793 -0.15494552 -0.255951 -0.3133023 -0.1984318 0.25732955 0.13991064 0.15197547
-0.011088655 -0.17573318 0.051663928 -0.3316106 -0.24327423 -0.16488148 0.23549578 0.19534928
-0.13593133 0.023242187 0.21886076 0.33403563 0.16055013 0.048348963 0.21941322 -0.2205741
0.05821685 -0.26249602 -0.26643634 -0.17988987 0.1435921 0.10028965 -0.19641103 0.110471234
0.20724589 -0.046110556 0.020891268 0.1041734 0.19741628 0.3228969 -0.2232265 -0.12195486
00000000: 1223 d73a 8386 453e 4473 87be d4c7 77be
00000010: 8844 e6bd f9e6 923d 3f9d 58bc 6e52 863e
00000020: 7435 25bd 94c8 a73d 7191 fdbd a0ea 8ebd
00000030: 35a3 a3be 94b6 7bbe 73ab 10be 642e 373c
00000040: 3e75 da3d d78a 463e e21c 55be a93f fdbd
00000050: 94fa ee3d 604a 903e 36a4 49bd 19ed 773e
00000060: f7cf 27bd 963d 5b3d 78a8 973e 38c0 9ebe
00000070: 88dd 6ebe 8885 b6bd fc2f 0bbe 369b 823e
00000080: ed9b 62be 0aaa 1ebe 020c 83be 2969 a0be
00000090: b531 4bbe b3c0 833e bc44 0f3e 759f 1b3e
000000a0: 31ad 35bc 66f3 33be 8e9d 533d ddc8 a9be
000000b0: e11c 79be b1d6 28be ce25 713e a409 483e
000000c0: 9531 0bbe 6666 be3c 091d 603e b806 ab3e
000000d0: 4167 243e 9009 463d dcad 603e 2dde 61be
000000e0: cb74 6e3d e165 86be 586a 88be 0d35 38be
000000f0: cf09 133e a964 cd3d f91f 49be be3e e23d
00000100: 4438 543e 6cde 3cbd 2a24 ab3c dd58 d53d
00000110: 7e27 4a3e be52 a53e 7d95 64be 78c3 f9bd

encoder_cnn.0.bias f4 [8]
0.12607455 0.27273288 0.28827885 0.29166842 0.06506809 -0.2866427 0.03374208 -0.20812872
00000000: b019 013e a5a3 8b3e 4999 933e 9055 953e
00000010: 6b42 853d d5c2 92be 2335 0a3d b21f 55be

encoder_cnn.1.weight f4 [16, 8, 3, 3]
-0.11311775 0.08590599 0.07038379 -0.11620774 0.015461722 -0.026991276 -0.03033496 -0.06524957
0.025434429 -0.05407123 0.050716106 0.06459702 0.10328831 0.06435899 -0.0922903 -0.061403874
0.066484846 0.0332046 -0.08687115 -0.06673662 0.11357348 0.07682218 -0.05496787 -0.02891893
-0.10731949 -0.0015674187 -0.0841019 -0.07738465 0.0052134558 0.026233695 -0.033811044 0.08220469
-0.05966203 0.11660637 0.091978475 -0.08326309 -0.02971885 0.016553259 0.02025172 0.044177983
0.06333196 0.014117483 -0.049062822 0.06759825 -0.08216353 -0.080723785 -0.048142612 -0.064760834
-0.057998005 -0.11571295 -0.041242216 0.008865702 -0.09704706 -0.022125468 0.0906614 0.002487015
0.0073519144 0.015306144 0.059962396 0.096446194 0.12245405 0.08825937 0.120961145 -0.022700258
-0.109036714 -0.06175058 0.058321215 -0.017274521 -0.07281867 -0.097701 -0.11406466 -0.10568663
-0.014645162 0.06894116 0.06544191 -0.09311264 0.07336843 -0.0801699 -0.014322921 -0.03787672
-0.010959741 -0.03240418 -0.104075 -0.1058916 -0.029531362 -0.0073494255 -0.061561935 0.025651861
-0.10908964 -0.018219145 0.09986851 -0.044993557 0.10559024 0.046624333 -0.09838516 0.07801649
-0.0136836525 -0.04970782 0.09533487 -0.10587341 0.002673822 -0.034939907 0.0618337 0.018824346
0.04028415 0.019410383 -0.042463735 -0.04195959 -0.08348617 0.04285304 0.07751284 0.04047877
-0.09115677 -0.018678773 -0.0794833 -0.07385029 -0.082461655 0.05158569 -0.053387832 0.010549461
0.028681515 0.093934864 -0.06839065 -0.0550713 -0.048810408 0.100025505 -0.049239945 0.08574441
0.03389632 -0.009526211 -0.025003048 -0.040405866 -0.006592695 -0.035573665 -0.016084876 0.024389485
-0.08146971 -0.04565159 0.101514995 -0.07887573 0.0066211144 0.13079607 0.053145085 0.01713597
-0.093026705 0.04884994 -0.081320904 -0.030598719 -0.0306842 -0.011382422 -0.00033909507 0.08450904
0.008169088 0.12166585 0.08229339 -0.05803768 0.07777122 -0.050642963 -0.020682963 0.05338818
0.053508867 0.09512335 -0.03468471 0.0023141098 0.0675637 -0.10867485 0.08376899 -0.08691871
0.007862663 -0.01293513 -0.048845686 0.028153567 0.10631406 -0.024235643 -0.053002287 -0.030175975
-0.10405396 0.06804188 -0.043924198 -0.067179844 -0.06750873 0.07158082 0.05422829 0.09692006
0.043048326 -0.038181406 -0.019042332 0.03669194 0.08749605 0.014712861 -0.074905835 -0.06387744
-0.12954384 0.00059263804 -0.079857975 -0.12161416 0.07761866 -0.08122566 0.00056395034 0.044489
0.008389277 -0.046081852 -0.055970278 0.10191958 0.03647026 0.10084907 -0.036409695 0.016181782
-0.031880356 -0.015826417 -0.08709609 0.019636013 0.016659178 -0.017791165 -0.03897621 -0.077235594
0.07145904 -0.08262136 0.04641807 -0.04024489 -0.05300633 0.02012618 -0.064204685 0.017905729
0.020719942 -0.062417366 0.037503563 0.06582267 0.06269062 0.0071532903 -0.07347207 -0.0017261168
0.05709043 -0.023214556 0.051091187 0.078522496 -0.050947208 0.002115333 0.04521373 0.013691145
0.016231997 0.016361011 -0.08504892 0.022281254 0.09864347 0.11797416 0.08230663 0.038423717
0.07057058 -0.040663388 -0.072689675 -0.0778684 0.103041776 0.0854507 -0.06315299 0.06639205
00000000: 47aa e7bd 7bef af3d 6025 903d 53fe edbd
00000010: 2a53 7d3c cf1c ddbc 0681 f8bc 91a1 85bd
00000020: dd5b d03c cb79 5dbd b1bb 4f3d 714b 843d
00000030: d288 d33d a5ce 833d b202 bdbd a182 7bbd
00000040: 3529 883d 8c01 083d 80e9 b1bd 36ad 88bd
00000050: 3699 e83d f254 9d3d fd25 61bd 64e7 ecbc
00000060: 52ca dbbd d871 cdba 9e3d acbd d87b 9ebd
00000070: a3d5 aa3b 0ce8 d63c 737d 0abd ef5a a83d
00000080: 2c60 74bd 52cf ee3d 365f bc3d d785 aabd
00000090: f274 f3bc b39a 873c efe6 a53c f9f3 343d
000000a0: 30b4 813d 044d 673c 19f6 48bd f470 8a3d
000000b0: 5a45 a8bd 8352 a5bd 3031 45bd 54a1 84bd
000000c0: 518f 6dbd e9fa ecbd 99ed 28bd 7341 113c
000000d0: 9cc0 c6bd 7840 b5bc afac b93d 30fd 223b
000000e0: 54e8 f03b 9fc6 7a3c 219b 753d 9585 c53d
000000f0: 30c9 fa3d 54c1 b43d 7aba f73d e4f5 b9bc
00000100: a44e dfbd 2dee 7cbd 3ae2 6e3d 4c83 8dbc
00000110: f421 95bd 7617 c8bd bc9a e9bd 3b72 d8bd
00000120: 43f2 6fbc 0631 8d3d 6806 863d d7b1 bebd
00000130: 3042 963d 1e30 a4bd afaa 6abc 9f24 1bbd
00000140: 7c90 33bc 3fba 04bd 4625 d5bd b2dd d8bd
00000150: c1eb f1bc 73d3 f0bb 5e28 7cbd da23 d23c
00000160: 646a dfbd 5140 95bc dd87 cc3d 2a4b 38bd
00000170: b23f d83d 28f9 3e3d 297e c9bd 1cc7 9f3d
00000180: 6631 60bc 6d9a 4bbd ee3e c33d 29d4 d8bd
00000190: 4a3b 2f3b 261d 0fbd 5545 7d3d 8435 9a3c
000001a0: fe00 253d 8602 9f3c 74ee 2dbd d2dd 2bbd
000001b0: ccfa aabd ab86 2f3d 0dbf 9e3d 11cd 253d
000001c0: 67b0 babd 3a04 99bc 24c8 a2bd d23e 97bd
000001d0: a8e1 a8bd 844b 533d 33ad 5abd a5d7 2c3c
000001e0: 7ff5 ea3c ec60 c03d 6610 8cbd 7292 61bd
000001f0: 6ced 47bd 2cda cc3d d3af 49bd c49a af3d
00000200: ded6 0a3d d313 1cbc 31d3 ccbc 9f80 25bd
00000210: 8907 d8bb b1b5 11bd 6ec4 83bc 75cc c73c
00000220: 97d9 a6bd 29fd 3abd 18e7 cf3d 9989 a1bd
00000230: eff5 d83b 68ef 053e a9ae 593d bc60 8c3c
00000240: c984 bebd e016 483d 938b a6bd 2aaa fabc
00000250: 6e5d fbbc 577d 3abc 92c8 b1b9 1313 ad3d
00000260: a3d7 053c f22b f93d 7089 a83d ebb8 6dbd
00000270: 8446 9f3d ff6e 4fbd 516f a9bc 90ad 5a3d
00000280: 1d2c 5b3d 08d0 c23d 8e11 0ebd 52a8 173b
00000290: d65e 8a3d eb90 debd 148f ab3d 7002 b2bd
000002a0: 66d2 003c deed 53bc 6a12 48bd 4fa2 e63c
000002b0: 30bb d93d d489 c6bc ed18 59bd 9b33 f7bc
000002c0: 3e1a d5bd 8b59 8b3d dce9 33bd 9695 89bd
000002d0: 0442 8abd f798 923d 7c1e 5e3d 067e c63d
000002e0: 7153 303d 1b64 1cbd aafe 9bbc 4a4a 163d
000002f0: 2131 b33d 360e 713c 3b68 99bd 2dd2 82bd
00000300: 24a7 04be 445b 1b3a 948c a3bd d810 f9bd
00000310: 88f6 9e3d a459 a6bd 11d6 133a 193a 363d
00000320: 2e73 093c 53c0 3cbd 1741 65bd 36bb d03d
00000330: d761 153d f589 ce3d 5522 15bd a88f 843c
00000340: fa94 02bd 67a6 81bc 6f5f b2bd b4db a03c
00000350: d478 883c c7be 91bc 85a5 1fbd b22d 9ebd
00000360: 1e59 923d 6335 a9bd e020 3e3d d3d7 24bd
00000370: 2a1d 59bd a9df a43c bf7d 83bd 09af 923c
00000380: debc a93c 5aa9 7fbd 569d 193d 09ce 863d
00000390: f163 803d 2666 ea3b 8678 96bd de3e e2ba
000003a0: a8d7 693d 742c bebc fe44 513d 67d0 a03d
000003b0: 05ae 50bd 66a1 0a3b 0832 393d d350 603c
000003c0: f7f8 843c 8707 863c 212e aebd 2d87 b63c
000003d0: 9605 ca3d 709c f13d 6190 a83d 3062 1d3d
000003e0: 4f87 903d a78e 26bd 53de 94bd 7879 9fbd
000003f0: 9107 d33d c700 af3d 5b56 81bd 8ef8 873d

encoder_cnn.1.bias f4 [16]
-0.04609536 -0.030281253 0.0683756 -0.08620524 0.05820995 0.03872376 0.08498936 -0.103219345
-0.09642648 0.05204721 0.042459365 -0.11077875 -0.061821185 -0.102517776 -0.08816112 -0.053585865
00000000: 7dce 3cbd 6410 f8bc 8208 8c3d 5f8c b0bd
00000010: 8e6d 6e3d ce9c 1e3d e70e ae3d aa64 d3bd
00000020: 3f7b c5bd 752f 553d dfe9 2d3d f8df e2bd
00000030: 3638 7dbd d7f4 d1bd d18d b4bd da7c 5bbd

encoder_cnn.2.weight f4 [32, 16, 3, 3]
0.055262156 -0.009352923 0.031243889 0.055877168 0.050083783 -0.06579786 0.01910125 0.05406439
0.059976537 -0.052058723 0.040541362 0.04518926 -0.062052995 -0.0025363483 0.06668274 -0.041403875
0.013894448 0.028983561 0.025806515 0.074359894 0.050456226 0.06925517 -0.0028485146 0.06024884
-0.05906437 -0.027615145 -0.010113368 -0.032752454 0.06760896 0.035588413 0.03362015 0.045234665
-0.055092074 -0.025652641 0.015175686 0.011290802 0.0431436 -0.025411675 -0.018975824 0.06808567
-0.011873513 -0.055919588 0.051867474 0.061839398 -0.024145123 -0.0054336046 -0.038858492 -0.04021027
0.008437247 0.0020511823 0.06607928 -0.051603384 0.023175364 0.0029277704 0.024124572 0.04713792
0.052535556 0.019337723 -0.011553545 -0.015270838 -0.047482766 0.0132911345 0.079032026 -0.021554079
-0.000499613 -0.054888837 0.005593172 0.06160823 -0.072313435 -0.07380613 0.07279292 0.016598593
-0.011772132 0.028149419 0.008350843 -0.05129531 -0.04486632 0.048716262 -0.022636546 -0.006388525
-0.010012741 -0.031372227 -0.020884495 -0.058824938 0.05612304 0.02379572 -0.02459775 -0.011849731
0.02317164 -0.024266921 0.021123657 0.010369901 -0.03952659 0.030292362 0.0053217844 0.06393273
-0.009816312 -0.028007377 0.06464832 -0.056270715 0.009290228 0.062032375 -0.03231001 0.08736431
0.061062805 0.064883865 0.011142442 0.056940023 -0.025201896 -0.012124139 0.025561828 0.01044288
0.028569836 0.061864637 -0.050816108 0.030949567 0.015934505 0.037371412 0.031845722 -0.033600025
-0.07245804 0.055545587 -0.037351284 0.03266734 -0.06942062 -0.016192807 -0.013504307 0.0099987155
0.0031547258 0.014615964 -0.01724372 0.014431137 0.07107156 -0.057432115 -0.010152893 -0.033040557
0.058361 0.05408356 -0.012205014 -0.0258094 -0.05400307 0.04363312 -0.0068949284 0.06393369
0.04191113 0.047901306 0.05537641 -0.051028732 -0.00074443914 -0.045569103 0.038677465 -0.036983747
-0.007985042 -0.047071483 -0.05920853 0.03593885 0.019311696 0.022136264 0.05478314 -0.024275312
0.04247116 -0.031767115 0.010391256 -0.033975415 0.04507127 0.05361584 0.047258936 -0.009327487
0.029898806 -0.09930397 -0.05859871 0.015474419 -0.0059787743 -0.057036527 -0.025285602 -0.04516057
-0.077799045 0.01866444 0.04369127 0.02994583 -0.054561846 -0.08792168 -0.08362896 -0.0151391635
0.03641369 -0.051595647 -0.05700991 -0.058761574 -0.025732744 -0.07872772 -0.076902516 0.054524437
-0.039664138 -0.037079867 -0.044417877 -0.06604771 -0.03346513 0.0007976092 -0.01384253 -0.015366056
-0.019090258 -0.081276126 0.022468803 0.033854846 0.030332416 -0.041182984 0.0016921388 -0.07222695
-0.035513133 -0.02720026 -0.022804715 0.010755018 -0.049010172 -0.0031094297 -0.045421924 -0.085284844
-0.009520665 -0.0705375 0.022515122 0.036190763 0.047760632 -0.052641023 0.00884589 -0.001598649
0.051796388 0.068091 -0.032182153 -0.06144457 -0.06464311 -0.019896438 0.07045591 0.024025075
0.0877316 0.06298931 0.00065107987 -0.03456771 0.07429599 0.0571419 0.0459744 -0.033298705
0.053736947 0.021437917 0.056041222 0.018901644 0.025405295 -0.0800412 -0.05694059 0.02316855
-0.037403475 -0.07520395 0.051276132 -0.017188778 0.053865638 -0.054142818 0.023593001 -0.02229521
00000000: 925a 623d 013d 19bc 2ff3 ff3c 75df 643d
00000010: a724 4d3d 07c1 86bd 3a7a 9c3c 9f72 5d3d
00000020: f5a9 753d 873b 55bd b30e 263d 6018 393d
00000030: 482b 7ebd dd38 26bb f690 883d 1c97 29bd
00000040: 8aa5 633c ef6e ed3c 2f68 d33c 004a 983d
00000050: 30ab 4e3d a8d5 8d3d 25ae 3abb 7dc7 763d
00000060: 7bed 71bd 2839 e2bc 8ab2 25bc 7027 06bd
00000070: 9176 8a3d 28c5 113d 48b5 093d fc47 393d
00000080: 3aa8 61bd 7d25 d2bc 71a3 783c 0efd 383c
00000090: 58b7 303d 252c d0bc 3073 9bbc 8070 8b3d
000000a0: 2089 42bc f00b 65bd fd72 543d 4f4b 7d3d
000000b0: fecb c5bc 610c b2bb 152a 1fbd 86b3 24bd
000000c0: 613c 0a3c 216d 063b 9354 873d 125e 53bd
000000d0: 43da bd3c d6df 3f3b e5a0 c53c b113 413d
000000e0: 862f 573d 256a 9e3c 144b 3dbc 8932 7abc
000000f0: 4a7d 42bd 0fc3 593c 8bdb a13d 2e92 b0bc
00000100: 76f8 02ba 1ed3 60bd ed46 b73b e958 7c3d
00000110: 1119 94bd ab27 97bd 7414 953d c6f9 873c
00000120: e6df 40bc 9c99 e63c f9d1 083c 081b 52bd
00000130: bfc5 37bd b48a 473d 4770 b9bc d556 d1bb
00000140: 7b0c 24bc 2a80 00bd f615 abbc 6bf2 70bd
00000150: 46e1 653d 3eef c23c 3881 c9bc 6025 42bc
00000160: 73d2 bd3c 6ccb c6bc 850b ad3c 84e6 293c
00000170: a2e6 21bd b027 f83c 5d62 ae3b 2aef 823d
00000180: 99d4 20bc ba6f e5bc 5766 843d 1f7c 66bd
00000190: 0a36 183c a915 7e3d 8057 04bd 0fec b23d
000001a0: fe1c 7a3d d5e1 843d ca8e 363c f139 693d
000001b0: 3574 cebc 53a4 46bc 0a67 d13c 9d18 2b3c
000001c0: 4a0b ea3c c665 7d3d 8d24 50bd f289 fd3c
000001d0: 1489 823c c412 193d a970 023d 2ea0 09bd
000001e0: e264 94bd c583 633d a9fd 18bd 30ce 053d
000001f0: 662c 8ebd c7a6 84bc 2b41 5dbc a7d1 233c
00000200: 84bf 4e3b cc77 6f3c b442 8dbc 9370 6c3c
00000210: f78d 913d f03d 6bbd 5258 26bc 8955 07bd
00000220: f20b 6f3d b986 5d3d 8af7 47bc 3c6e d3bc
00000230: 5332 5dbd a4b8 323d daee e1bb abef 823d
00000240: 01ab 2b3d 2934 443d 60d2 623d 8103 51bd
00000250: 7726 43ba aba6 3abd 436c 1e3d 457c 17bd
00000260: b2d3 02bc 07ce 40bd a584 72bd 9e34 133d
00000270: 9033 9e3c 1c57 b53c 4964 603d 05dd c6bc
00000280: 3df6 2d3d 3c1e 02bd 1640 2a3c ce29 0bbd
00000290: a79c 383d 489c 5b3d 9692 413d 51d2 18bc
000002a0: 57ee f43c e15f cbbd 3305 70bd 6b88 7d3c
000002b0: 98e9 c3bb 229f 69bd c023 cfbc 4afa 38bd
000002c0: 1b55 9fbd 2be6 983c 9ef5 323d f550 f53c
000002d0: 3e7c 5fbd 4810 b4bd a945 abbd 410a 78bc
000002e0: 8526 153d f555 53bd 3983 69bd faaf 70bd
000002f0: 7acd d2bc 003c a1bd 117f 9dbd 0455 5f3d
00000300: dd76 22bd 0fe1 17bd 85ef 35bd 0644 87bd
00000310: bb12 09bd a616 513a c7cb 62bc e9c1 7bbc
00000320: 2c63 9cbc 1974 a6bd 7f10 b83c 61ab 0a3d
00000330: b07b f83c 7daf 28bd c2ca dd3a b9eb 93bd
00000340: 3876 11bd 14d3 debc f4d0 babc d135 303c
00000350: e4be 48bd 93c7 4bbb 570c 3abd d2a9 aebd
00000360: 90fc 1bbc f775 90bd a271 b83c c43c 143d
00000370: a7a0 433d 1d9e 57bd 5aee 103c c289 d1ba
00000380: 7328 543d 4b73 8b3d 6fd1 03bd 4dad 7bbd
00000390: 9b63 84bd dbfd a2bc 304b 903d 3cd0 c43c
000003a0: a0ac b33d 8a00 813d 3bad 2a3a df96 0dbd
000003b0: 7f28 983d a00d 6a3d a74f 3c3d 3964 08bd
000003c0: 461b 5c3d 929e af3c 7b8b 653d 9fd7 9a3c
000003d0: c41e d03c a4ec a3bd 893a 69bd f9cb bd3c
000003e0: 6334 19bd 8704 9abd ec06 523d 7bcf 8cbc
000003f0: 37a2 5c3d dcc4 5dbd 1c46 c13c 72a4 b6bc

encoder_cnn.2.bias f4 [32]
-0.021282498 0.013232446 0.045190793 0.052367065 0.041186493 0.035282895 -0.021279288 0.07442464
0.058336295 0.07256324 -0.061964475 -0.03210563 -0.06974603 0.0024736088 0.06433623 -0.058098495
0.019227508 -0.0013950067 -0.07742758 -0.0005246264 -0.008183134 -0.03840914 -0.05046822 0.049298763
-0.011394065 -0.015491117 -0.024468409 -0.0068378937 -0.020580921 -0.04835426 0.035726447 -0.0020570704
00000000: a258 aebc e7cc 583c fb19 393d d97e 563d
00000010: 2bb3 283d cc84 103d e751 aebc f26b 983d
00000020: 0af2 6e3d 099c 943d 76ce 7dbd 3181 03bd
00000030: 02d7 8ebd 451c 223b b7c2 833d b0f8 6dbd
00000040: 0283 9d3c a8d8 b6ba 5a92 9ebd 1587 09ba
00000050: 8d12 06bc e752 1dbd c4b7 4ebd 80ed 493d
00000060: 2cae 3abc 74ce 7dbc f971 c8bc 6910 e0bb
00000070: 5299 a8bc 1e0f 46bd e555 123d eacf 06bb

encoder_lin.0.weight f4 [64, 288]
-0.025233576 -0.015850406 0.002460202 -0.008593148 0.014319465 0.041004363 -0.009259591 0.005589284
0.035613798 -0.031436965 -0.04588586 0.0023742495 -0.0055764876 -0.0039685443 0.02456656 -0.032971356
-0.03445519 0.01667546 -0.03745314 -0.015481012 0.0083626835 -0.021119948 -0.04106445 -0.026535317
-0.037933715 -0.047326446 -0.020856349 -0.04421494 -0.03879156 -0.0064793667 0.022962026 0.03809849
0.039501783 -0.0015031673 0.013576608 -0.026174521 -0.011384794 0.019360082 0.006294701 0.018181564
0.02029264 -0.012992941 0.013204022 0.004093943 -0.035007738 0.012153996 0.015744554 0.01966812
-0.0055230362 0.03161869 0.016115597 0.008181181 0.025993265 0.014851784 0.023090862 -0.011530034
0.0060659074 0.013381236 0.009782566 -0.020985836 0.029960211 -0.011779588 0.0357032 -0.014120754
0.013002266 -0.017655369 -0.019818094 0.0086358385 0.022517603 -0.010780509 0.013717027 -0.020715423
0.005568163 -0.010350906 -0.01618894 0.020413822 -0.016755303 -0.025536058 -0.012996458 0.012192833
0.020447886 0.020537447 0.013745032 -0.0149446335 0.019506231 0.012235235 0.00085505686 -0.024080396
-0.017907474 0.0024460484 -0.00110287 -0.017560462 -0.033944335 0.02060753 0.0046720263 -0.015424494
0.0024369478 0.009933203 -0.02550769 0.0007637943 0.0454963 -0.0038818389 -0.024938367 -0.021658337
0.026525969 0.024760857 0.03329847 -0.011994928 -0.010210552 -0.030763464 0.015050276 0.0029364254
0.04332622 -0.014672022 -0.0040932912 0.024706952 0.0038768812 -0.013518461 0.029474413 0.019548297
-0.041164022 0.0040809205 0.013225383 0.019246347 -0.032874502 0.018397894 -0.034298576 -0.053495698
-0.026323725 -0.04162982 -0.0075945137 0.029373333 -0.012076652 -0.04309155 -0.013898677 -0.022358501
0.038337383 -0.0034365784 0.04847988 0.02122216 0.013356012 0.017161844 0.044912543 -0.02232827
-0.011694102 0.020382438 0.01238197 0.016922144 0.0023697442 0.0035189758 0.015831875 0.018319048
0.014468428 -0.019428678 0.004168911 -0.02612519 -0.004907251 0.023232438 -0.015275797 0.017345227
0.036779627 0.010900214 -0.017312488 0.009240648 0.036398683 0.0043646377 0.02696688 0.0052489615
-0.010076555 0.023893097 0.017534953 0.021715574 -0.03517589 -0.044139534 0.020306332 0.007962367
0.029252877 -0.027519945 -0.02897142 -0.011216052 -0.03070552 0.018943898 0.016724626 0.028313292
-0.00017875481 -0.04208766 -0.027274618 0.0035510154 -0.020637808 0.0112908855 -0.022033691 0.020308722
0.025638005 0.042657714 0.0121757295 -0.035163444 -0.016406968 -0.019904405 0.017491259 -0.006600579
0.0134681845 0.0076484215 -0.013328888 0.002291086 -0.0068135937 0.0062736524 -0.035328075 0.0032895722
0.012228597 0.0072203446 -0.01970819 0.018567357 -0.020951089 0.026999472 -0.009782965 0.03773895
0.015785882 -0.012367809 0.01394959 0.020281572 -0.035238434 -0.0028521412 0.0072360984 -0.010957153
0.0014458436 0.024618492 -0.039968062 0.0126823 -0.042395633 0.02335332 -0.0286797 -0.025784068
0.002376311 -0.04475143 0.005120963 -0.0062789917 0.020369997 0.0041266773 -0.037644096 -0.008424269
0.016051756 0.032401573 -0.02005573 -0.014509632 0.034445345 -0.013436913 -0.0069671404 -0.044964872
-0.014331999 -0.01986524 0.01471875 0.040129095 0.015398257 -0.046391077 0.021030748 -0.03549413
00000000: a5b6 cebc b6d8 81bc 573b 213b 46ca 0cbc
00000010: 309c 6a3c 31f4 273d 8ab5 17bc 5026 b73b
00000020: c6df 113d 0cc4 00bd d0f2 3bbd 4c99 1b3b
00000030: f8ba b6bb 900a 82bb cf3f c93c f90c 07bd
00000040: e320 0dbd f99a 883c 7768 19bd 12a4 7dbc
00000050: a303 093c be03 adbc 3233 28bd 9860 d9bc
00000060: 6260 1bbd 60d9 41bd efda aabc ba1a 35bd
00000070: e6e3 1ebd de50 d4bb dc1a bc3c 2a0d 1c3d
00000080: 9fcc 213d ed05 c5ba 6c70 5e3c f36b d6bc
00000090: 4987 3abc 0999 9e3c c743 ce3b 81f1 943c
000000a0: c03c a63c 58e0 54bc af55 583c 7c26 863b
000000b0: 4664 0fbd 8e21 473c b9fa 803c 0a1f a13c
000000c0: 96fa b4bb 9982 013d db04 843c 5c0a 063c
000000d0: d4ef d43c e654 733c 0c29 bd3c 78e8 3cbc
000000e0: 85c4 c63b f93c 5b3c 0e47 203c 7dea abbc
000000f0: 1e6f f53c 2cff 40bc 853d 123d bc5a 67bc
00000100: 7507 553c fea1 90bc 8e59 a2bc 557d 0d3c
00000110: d676 b83c bba0 30bc 62bd 603c 64b3 a9bc
00000120: 2375 b63b d996 29bc ab9e 84bc e33a a73c
00000130: 6b42 89bc ff30 d1bc 19ef 54bc 73c4 473c
00000140: 5382 a73c 263e a83c d832 613c 56da 74bc
00000150: 88cb 9f3c 4c76 483c e525 603a 4044 c5bc
00000160: b2b2 92bc e24d 203b 2d8e 90ba f5da 8fbc
00000170: 3709 0bbd 1fd1 a83c cc17 993b 04b7 7cbc
00000180: 33b5 1f3b e0be 223c 81f5 d0bc 5e39 483a
00000190: 545a 3a3d 7366 7ebb 8c4b ccbc d36c b1bc
000001a0: fd4c d93c 48d7 ca3c fa63 083d 6086 44bc
000001b0: 294a 27bc a903 fcbc 6f95 763c 0b71 403b
000001c0: d676 313d ec62 70bc 0421 86bb 3c66 ca3c
000001d0: 4613 7e3b 897c 5dbc 5374 f13c c023 a03c
000001e0: 9b9b 28bd 3eb9 853b 47af 583c 84aa 9d3c
000001f0: 6aa7 06bd 2eb7 963c aa7c 0cbd 4e1e 5bbd
00000200: daa4 d7bc 0884 2abd 66db f8bb 58a0 f03c
00000210: 26dd 45bc c480 30bd 47b7 63bc 2d29 b7bc
00000220: a907 1d3d 3838 61bb d792 463d 18da ad3c
00000230: 2dd3 5a3c ff96 8c3c 37f6 373d c7e9 b6bc
00000240: 9e98 3fbc 12f9 a63c bfdd 4a3c 4fa0 8a3c
00000250: b64d 1b3b 9e9e 663b d9b1 813c d411 963c
00000260: fc0c 6d3c e428 9fbc 5c9b 883b 7f04 d6bc
00000270: 01cd a0bb f451 be3c 5647 7abc 9417 8e3c
00000280: 3ca6 163d d096 323c ebd2 8dbc 1666 173c
00000290: c916 153d 3c05 8f3b a5e9 dc3c 7bff ab3b
000002a0: 2318 25bc 75bb c33c 76a5 8f3c dce4 b13c
000002b0: 9814 10bd a8cb 34bd 7759 a63c 9674 023c
000002c0: bba3 ef3c 8271 e1bc 7955 edbc 88c3 37bc
000002d0: 258a fbbc 3c30 9b3c 1502 893c 47f1 e73c
000002e0: 2170 3bb9 1c64 2cbd 056f dfbc 27b8 683b
000002f0: 9f10 a9bc 68fd 383c 0080 b4bc 7a5e a63c
00000300: cb06 d23c dbb9 2e3d b67c 473c 8b07 10bd
00000310: e867 86bc 900e a3bc d449 8f3c ab49 d8bb
00000320: a9a9 5c3c 9c9f fa3b 6961 5abc 0b26 163b
00000330: 9144 dfbb 3693 cd3b 2cb4 10bd dd95 573b
00000340: 745a 483c a498 ec3b 1273 a1bc 921a 983c
00000350: 9ea1 abbc ff2d dd3c bb48 20bc 2894 1a3d
00000360: 6551 813c 5aa2 4abc d28c 643c 8a25 a63c
00000370: 2d56 10bd fdea 3abb cb1c ed3b a185 33bc
00000380: 7682 bd3a b8ac c93c 8db5 23bd 6cc9 4f3c
00000390: 0ba7 2dbd 764f bf3c b1f1 eabc 1c39 d3bc
000003a0: e2bb 1b3b 474d 37bd c0cd a73b 00c0 cdbb
000003b0: fbde a63c 1439 873b b230 1abd f205 0abc
000003c0: f97e 833c 83b7 043d ea4b a4bc cfb9 6dbc
000003d0: 9016 0d3d 7f26 5cbc 9c4c e4bb 162d 38bd
000003e0: c3d0 6abc 6ebc a2bc e926 713c 685e 243d
000003f0: f948 7c3c 9204 3ebd ad48 ac3c 4b62 11bd

encoder_lin.0.bias f4 [64]
-0.04554272 -0.051785085 0.013479227 -0.03827874 0.022804545 0.028287917 0.01740692 0.042467587
-0.041218113 0.04398242 -0.0116837025 0.04055061 -0.04843351 0.029772162 0.042759556 0.048906382
-0.0038836075 0.0436081 -0.0073471926 0.014303834 -0.023811523 0.051122308 -0.020030618 -0.03410874
0.0063797235 -0.04513591 -0.05720853 0.023553142 0.050021317 0.046738937 0.051808275 -0.048906863
0.04399079 -0.012827034 0.013862342 0.04090484 0.000640467 0.021787144 0.023107747 0.052237727
0.008179182 -0.011603693 0.010780017 0.037112314 -0.04907325 -0.02224649 0.05737792 0.0050732405
0.031105421 -0.030310337 -0.029754782 0.053092815 -0.052897785 -0.0073877345 -0.020516448 -0.034806725
0.04750222 -0.051231835 0.01587176 0.034697443 -0.03008162 -0.029267019 0.009425113 -0.015137345
00000000: 018b 3abd 991c 54bd fad7 5c3c 2bca 1cbd
00000010: 99d0 ba3c 10bc e73c f598 8e3c 7ef2 2d3d
00000020: 53d4 28bd e926 343d 006d 3fbc 6518 263d
00000030: 3762 46bd c0e4 f33c a524 2f3d 0f52 483d
00000040: 1f84 7ebb 689e 323d b8c0 f0bb a15a 6a3c
00000050: 6210 c3bc a065 513d 4017 a4bc 9bb5 0bbd
00000060: 000d d13b 6fe0 38bd 7e53 6abd 85f2 c03c
00000070: 27e3 4c3d 5471 3f3d ea34 543d 9052 48bd
00000080: b02f 343d 7b28 52bc e01e 633c d58b 273d
00000090: 03e5 273a f47a b23c 754c bd3c 3af7 553d
000000a0: fa01 063c 6a1d 3ebc ab9e 303c 1503 183d
000000b0: 0801 49bd 453e b6bc 1c05 6b3d 6d3d a63b
000000c0: ccd0 fe3c 624d f8bc 4dc0 f3bc da77 593d
000000d0: 59ab 58bd cf14 f2bb 1c12 a8bc 7f91 0ebd
000000e0: b091 423d 79d8 51bd 7e05 823c e81e 0e3d
000000f0: bb6d f6bc 63c1 efbc ca6b 1a3c a002 78bc

encoder_lin.1.weight f4 [2, 64]
0.024425045 -0.102008305 -0.12747493 0.10749594 -0.07437342 -0.12241941 -0.11104987 0.11328675
0.11269542 -0.09295013 -0.046015874 0.030422194 0.076640226 -0.020644983 0.06262061 -0.104873955
-0.06905877 0.09992972 0.026372667 -0.03381157 0.10646007 0.091561414 0.066767216 -0.08533538
-0.05887811 0.0029467335 0.07753104 0.0020854545 0.029542038 0.1090161 0.04548794 0.017114926
0.094040714 -0.10720305 -0.034847643 0.087715946 -0.09673932 -0.014660149 -0.0499972 -0.033305634
0.11549968 0.010221514 -0.010349749 -0.047857136 0.05827319 -0.018388439 -0.09142696 0.016130963
0.02337523 0.06566022 -0.0006501065 0.034141682 0.09745818 -0.060573764 0.11191826 -0.08960079
-0.065444864 0.083128706 0.02152478 0.11154223 -0.07124702 -0.03497226 -0.030968232 0.08713653
-0.042837825 0.12569048 -0.038318843 0.07172251 -0.021212747 0.10252288 0.0788366 0.041660246
0.004409374 -0.014179545 -0.033049922 0.065659046 -0.05025834 0.12983803 0.07438848 0.087694615
0.06896808 -0.094441205 0.078412436 0.12336803 -0.031717878 0.009533668 0.01567917 -0.065429196
0.018623723 -0.09863812 0.036174443 0.07095163 -0.051120464 0.10213338 -0.10299378 -0.01956077
0.11709364 0.09360185 -0.027076747 0.060922597 -0.03424201 0.07177696 0.08617362 0.06450381
0.025284996 -0.09042205 0.06354257 -0.070070945 0.12802473 -0.05690898 -0.04453859 0.11291457
-0.05746494 0.03989766 -0.08822318 -0.10962964 0.011599881 -0.025407739 0.08594026 -0.063238785
0.053029586 0.034576103 0.09375263 0.08367405 -0.0866369 0.032551903 -0.11986577 0.044003997
00000000: 0817 c83c bbe9 d0bd ca88 02be d526 dc3d
00000010: 1751 98bd 07b7 fabd 1d6e e3bd e202 e83d
00000020: dbcc e63d a35c bebd 247b 3cbd f737 f93c
00000030: 8df5 9c3d ab1f a9bc 3c3f 803d 28c8 d6bd
00000040: af6e 8dbd f4a7 cc3d 7e0b d83c 007e 0abd
00000050: bd07 da3d 8d84 bb3d 40bd 883d 51c4 aebd
00000060: 2c2a 71bd fc1d 413b 98c8 9e3d 1fac 083b
00000070: 2502 f23c d543 df3d 9051 3a3d 9a34 8c3c
00000080: 6b98 c03d 468d dbbd 67bc 0ebd 6ba4 b33d
00000090: 441f c6bd 1f31 70bc ddc9 4cbd 7d6b 08bd
000000a0: 198b ec3d 2378 273c fe91 29bc d805 44bd
000000b0: deaf 6e3d 5aa3 96bc 0f3e bbbd 1525 843c
000000c0: 697d bf3c de78 863d e96b 2aba 26d8 0b3d
000000d0: 2798 c73d 321c 78bd 6735 e53d 9e80 b7bd
000000e0: f507 86bd 623f aa3d bc54 b03c 4170 e43d
000000f0: f5e9 91bd 133f 0fbd 17b1 fdbc a374 b23d
00000100: b776 2fbd 01b5 003e 38f4 1cbd 40e3 923d
00000110: 5bc6 adbc 84f7 d13d 1575 a13d efa3 2a3d
00000120: 837c 903b 5351 68bc 5b5f 07bd 4078 863d
00000130: b0db 4dbd 43f4 043e fd58 983d 3c99 b33d
00000140: 233f 8d3d 646a c1bd b396 a03d 61a8 fc3d
00000150: 9bea 01bd 1a33 1c3c 9a71 803c beff 85bd
00000160: c790 983c c802 cabd a72b 143d 174f 913d
00000170: b163 51bd 4e2b d13d 67ee d2bd e83d a0bc
00000180: cace ef3d 54b2 bf3d 0ed0 ddbc f989 793d
00000190: 5a41 0cbd ccff 923d cb7b b03d 931a 843d
000001a0: 7b22 cf3c 322f b9bd 9b22 823d 5b81 8fbd
000001b0: ea18 033e 6419 69bd 196e 36bd c13f e73d
000001c0: 5b60 6bbd bb6b 233d 5bae b4bd 8185 e0bd
000001d0: 6d0d 3e3c e423 d0bc 7201 b03d 5683 81bd
000001e0: 8d35 593d ac9f 0d3d 6101 c03d 4d5d ab3d
000001f0: b06e b1bd 2555 053d 2f7c f5bd 893d 343d

encoder_lin.1.bias f4 [2]
0.059016507 0.016237386
00000000: 4bbb 713d 4404 853c
