lab2/lightning_logs/version_1/checkpoints/epoch=29-step=600.ckpt (torch, 811467 bytes, 15 tensors)

net.0.weight f4 [256, 2]
0.09222449 0.7281301 -0.440793 0.019890599 -0.43416485 0.02646741 -1.3638862 0.29469612
0.032345638 0.53191656 -0.013412731 -0.46224165 -0.020629553 -0.40392447 -0.02879903 -0.40232727
-0.5941007 -0.126209 -0.1546481 -0.9291711 0.017997377 0.34175277 -0.024272025 -0.3868071
-0.017746149 -0.35380834 0.0027422956 0.32996145 -0.430662 0.009815641 -0.023367709 -0.35592526
0.11134968 0.79919493 -0.33506763 0.077692665 -0.074071415 0.22283393 -0.02447791 -0.3740326
-0.023217576 -0.36715582 0.8277431 0.2236967 -0.8760061 -0.22891632 -0.013130294 -0.4104716
1.235968 -0.3660392 0.84130496 -1.1776117 0.078124106 0.70906734 -1.2263193 0.2192412
0.013883689 0.34685844 -0.01694854 0.27795678 -0.88376266 -0.23112528 0.0051675783 0.32611033
-0.44492823 -0.005000611 0.021156473 0.36437982 1.5364468 -0.2710498 1.4180418 -0.26432338
-0.68402165 -0.1636542 -0.77254105 -0.19969799 0.8644728 -1.1802796 -0.1400676 -0.8457871
-0.34446493 -0.05089811 -0.7748569 -0.1979275 0.8367739 0.23129578 -0.16424948 -0.6092013
0.72295994 -1.0043759 0.11232635 0.7694328 -0.8226919 -0.20228654 -1.0478708 -0.2424749
-0.12082298 -0.6514779 -0.023262888 -0.35792124 0.017875334 0.3774613 -0.31594425 0.006858931
0.0775597 0.68519366 -0.021191338 0.34561658 -0.8337057 -0.22705527 0.08072694 0.7392392
-0.125417 -0.68473077 1.1961731 -0.42988652 -0.8157123 0.2960881 0.31137496 1.0790058
-0.004538528 0.40085742 0.40061796 1.3091675 -1.3442893 0.34781158 -1.3052099 0.19500206
-0.017739266 -0.38416654 0.11296969 0.79358006 0.79043955 0.20661801 -0.21432155 -0.75636446
0.17553158 0.7916368 0.004395773 -0.4897765 0.08463057 0.7385093 -0.772192 -0.20220691
-0.3379445 -0.0978838 -0.030135896 0.2903397 -0.005824681 0.32142678 -0.56704354 -1.5045195
-0.02454594 -0.38092324 -0.7948761 -0.22207746 -0.0042195315 0.38154668 0.03039012 0.50365233
-0.34242138 -0.04401203 0.034486122 0.5064779 -0.0048130853 0.36576796 -1.4448487 0.31480864
0.88176477 -1.2388368 0.9905 0.11718899 -0.021567715 0.29648575 -0.0075437664 -0.2855439
-0.752251 -0.20748657 0.9284283 0.23156345 -0.020590384 -0.35076576 -0.017998595 -0.33894446
0.01276141 0.34572852 0.0376088 0.5440343 0.91644454 -1.189981 0.10391134 0.7721969
2.0259879 0.01733767 1.3768688 -0.30233356 -0.03117273 -0.25776422 -0.12775338 -0.7092954
0.95350486 0.2434507 -0.5186916 -0.052913878 0.94282115 0.21332416 0.06949467 0.7918966
-0.025846172 -0.30640188 0.010789706 0.4409959 2.0228014 0.15046872 0.79929376 0.21733454
-0.019101584 -0.40178922 -0.8316165 0.67686284 -0.01903338 0.32475314 -0.8869076 -0.23495404
1.1167048 0.09568509 -0.543845 0.08162719 0.6678621 -0.90049326 0.006338388 0.3985563
0.5389619 1.5454979 -0.8134233 -0.2448327 0.7611154 0.21198776 -1.5122807 0.27043003
-0.12930058 -0.73574513 -0.35599583 0.12843208 -0.12861878 -0.6766993 -0.6061413 -0.11145165
0.10979293 0.7860602 -0.41997862 -0.01598813 0.94007766 0.1606065 -0.14539747 -0.8931719
00000000: 32e0 bc3d bc66 3a3f 9faf e1be 9cf1 a23c
00000010: db4a debe 2fd2 d83c d393 aebf 69e2 963e
00000020: dc7c 043d af2b 083f 12c1 5bbc f0aa ecbe
00000030: 4fff a8bc 30cf cebe f2eb ebbc d7fd cdbe
00000040: fc16 18bf ef3c 01be 125c 1ebe 28de 6dbf
00000050: 3c6f 933c 38fa ae3e 20d6 c6bc 950b c6be
00000060: 5f60 91bc 5e26 b5be 16b8 333b b5f0 a83e
00000070: bb7f dcbe c8d1 203c a36d bfbc d63b b6be
00000080: 4d0b e43d 0a98 4c3f fc8d abbe 551d 9f3d
00000090: c1b2 97bd 942e 643e e685 c8bc 3381 bfbe
000000a0: c932 bebc d9fb bbbe f9e6 533f bf10 653e
000000b0: f041 60bf 0a69 6abe 7220 57bc 5529 d2be
000000c0: 3334 9e3f 7d69 bbbe c35f 573f fbbb 96bf
000000d0: 88ff 9f3d 7085 353f 08f8 9cbf c480 603e
000000e0: 6a78 633c 6e97 b13e aad7 8abc 5a50 8e3e
000000f0: 453e 62bf 1bac 6cbe ca54 a93b eff7 a63e
00000100: a2cd e3be 2adc a3bb 5750 ad3c fe8f ba3e
00000110: 4aaa c43f 0ac7 8abe 6582 b53f 6555 87be
00000120: 0b1c 2fbf f794 27be 40c5 45bf a17d 4cbe
00000130: 174e 5d3f 6713 97bf e26d 0fbe 8185 58bf
00000140: b55d b0be 897a 50bd 065d 46bf 82ad 4abe
00000150: d036 563f cdd8 6c3e 0431 28be 9ef4 1bbf
00000160: e713 393f 648f 80bf 5b0b e63d 8cf9 443f
00000170: f09b 52bf 3424 4fbe a120 86bf 574b 78be
00000180: 0a72 f7bd 41c7 26bf d091 bebc 7441 b7be
00000190: 4b6f 923c 9c42 c13e 72c3 a1be e2c0 e03b
000001a0: 9fd7 9e3d da68 2f3f 7599 adbc a8f4 b03e
000001b0: bd6d 55bf 2d81 68be 2a54 a53d c83e 3d3f
000001c0: 506d 00be 844a 2fbf 331c 993f 161a dcbe
000001d0: 85d2 50bf dc98 973e 8a6c 9f3e dd1c 8a3f
000001e0: efb7 94bb 2f3d cd3e cc1d cd3e cd92 a73f
000001f0: ac11 acbf 5c14 b23e 1e11 a7bf 9fae 473e
00000200: f051 91bc 7ab1 c4be a75c e73d 1028 4b3f
00000210: 3f5a 4a3f ac93 533e 1c77 5bbe 1aa1 41bf
00000220: 8dbe 333e b6a8 4a3f 6b0a 903b fcc3 fabe
00000230: cb52 ad3d f20e 3d3f 60ae 45bf 540f 4fbe
00000240: 1007 adbe 4d77 c8bd 8edf f6bc 68a7 943e
00000250: f7dc bebb 0d92 a43e c429 11bf 1894 c0bf
00000260: 9114 c9bc 5f08 c3be 007d 4bbf 4668 63be
00000270: ff43 8abb 165a c33e b3f4 f83c 5cef 003f
00000280: db51 afbe f545 34bd 5241 0d3d 89a8 013f
00000290: 16b7 9dbb f045 bb3e cdf0 b8bf 992e a13e
000002a0: 56bb 613f 3492 9ebf 6891 7d3f c800 f03d
000002b0: c7ae b0bc fbcc 973e b331 f7bb cf32 92be
000002c0: 8693 40bf 5c77 54be 7aad 6d3f f81e 6d3e
000002d0: 2aad a8bc 9297 b3be ca71 93bc 218a adbe
000002e0: 3c15 513c 5403 b13e af0b 1a3d d545 0b3f
000002f0: 1c9c 6a3f 4c51 98bf 78cf d43d b2ae 453f
00000300: c9a9 0140 bb07 8e3c 3d3d b03f 77cb 9abe
00000310: f45d ffbc acf9 83be c8d1 02be 6294 35bf
00000320: e518 743f 244b 793e f9c8 04bf 39bc 58bd
00000330: ba5c 713f a671 5a3e 3953 8e3d bcb9 4a3f
00000340: 5abb d3bc b5e0 9cbe 4fc7 303c 37ca e13e
00000350: 9475 0140 7914 1a3e 849e 4c3f f28c 5e3e
00000360: ed7a 9cbc 51b7 cdbe d2e4 54bf e246 2d3f
00000370: e4eb 9bbc 0b46 a63e 600c 63bf cb97 70be
00000380: 2ff0 8e3f 8bf6 c33d 6d39 0bbf 282c a73d
00000390: 03f9 2a3f ba86 66bf 41b2 cf3b 920f cc3e
000003a0: 68f9 093f e0d2 c53f 823c 50bf 6cb5 7abe
000003b0: 75d8 423f 5213 593e 6a92 c1bf ce75 8a3e
000003c0: 5f67 04be cb59 3cbf 1645 b6be b383 033e
000003d0: a4b4 03be 2a3c 2dbf 142c 1bbf c340 e4bd
000003e0: 1edb e03d 3e3b 493f 7007 d7be 8af9 82bc
000003f0: eea8 703f 0876 243e 13e3 14be eaa6 64bf

net.0.bias f4 [256]
1.639303 1.090287 0.9686553 1.2124575 -0.82204473 1.5312824 1.00925 1.202264
0.44048747 -2.220776 -1.1478189 0.8900459 0.19790563 -0.9552802 0.9396459 0.30925915
1.9838082 -1.4644086 -0.21956056 0.75736266 0.5676117 -0.70330304 0.7923526 0.8574439
-0.71360534 -0.69373155 1.4333855 1.3286809 -1.1677692 -0.38629386 1.108454 -0.92332745
0.32000774 -1.3696278 -1.8964661 -1.6426584 0.5404194 0.76822853 -0.12250714 -1.9380691
0.15588985 0.817151 -1.3265047 0.023867007 -0.005698766 1.0793006 0.6262239 0.9040368
-1.2938464 0.44674107 -1.4541107 -1.0449233 1.4339356 -0.95445555 1.0223637 1.6425389
-1.3984852 -0.38234335 -0.0931241 -0.99362653 -1.5140352 -1.3391099 0.8810316 1.7484236
0.6109549 1.9205207 -1.1096822 -0.0040665064 0.44058973 1.0501175 1.6394318 1.075991
0.35440168 -0.5108878 -0.84394616 0.58013326 0.811598 0.4720484 0.2669966 0.7532988
-0.5600374 0.84083503 -1.2784353 1.2974218 -0.3287488 -0.123180024 -0.490301 -0.6714113
0.18397154 -0.9690403 -0.21822885 0.068572365 -1.1235064 0.77011096 -0.07696001 1.8153409
0.8673308 -1.3044747 -0.6100201 -1.2433832 -1.2535641 0.6617291 -0.9493699 1.3191204
-0.40049574 0.5833352 -0.108627915 -1.2004012 0.60257334 -0.6187498 0.17506433 0.7567921
-0.0025722024 1.2743961 -0.2644458 -1.5652094 -0.038755376 0.2804631 -1.1059842 1.7558476
1.1227146 -1.5508969 -1.3627745 0.036417507 1.8877158 0.76682764 -0.48788458 -2.0688207
-0.28131977 1.0490963 -0.649314 1.7442634 0.13628615 0.12990944 0.6252832 -1.1193622
-1.2434975 1.360436 0.605914 -0.46371385 0.28474754 0.9761166 0.19152428 -1.5709605
0.47920665 1.4088213 -1.6266767 -1.6639755 0.10989453 -0.9041721 -0.41328248 -1.6521809
-1.4391348 0.094772786 0.6879642 1.6668806 0.82714665 -1.0380691 -0.42267147 0.00989197
-1.8403714 0.33496222 1.3403345 1.1605873 -1.021624 -0.16917108 1.6891772 -1.036375
1.1393359 -0.06559954 0.06293271 1.2903224 -0.5611 0.4305128 1.6718391 -0.01796382
-0.0274411 0.21736386 1.8326981 1.008428 -0.4579255 -1.357377 -0.15485609 -2.5274081
0.2669366 1.0489193 1.5747519 0.11484012 -0.20845719 0.16027503 -1.725932 0.89327615
-1.058316 1.0781254 0.68865484 -0.25762552 -0.7532233 -1.023464 0.78066325 -1.5205152
-0.40137592 -0.2009939 -0.28767052 1.7378945 1.5854058 0.22135703 0.40128553 -0.5837517
1.5540286 1.3197163 -0.21146023 0.46276367 0.14432886 0.76367044 -0.5799839 -0.6674588
-0.18869153 -0.874675 0.30667096 0.52328974 0.63228273 0.027064087 1.2256911 0.79613036
-0.30736443 1.6358896 1.567143 0.42953688 1.3803415 0.96106476 1.3629022 0.38396809
-0.69170237 0.43352523 0.019133516 0.17429087 -1.4057403 -1.1452821 0.8340173 0.944669
-0.54586667 -0.14915392 -0.38344058 0.14546163 -0.630272 0.123322636 -0.031422596 0.5299701
1.0836854 -0.139837 0.5362016 1.913734 -1.0163691 -0.0015501208 2.2293625 0.7997107
00000000: aed4 d13f 868e 8b3f cbf9 773f cf31 9b3f
00000010: 8671 52bf 1001 c43f 1b2f 813f c9e3 993f
00000020: 9387 e13e 3221 0ec0 bbeb 92bf 0cda 633f
00000030: c6a7 4a3e 3e8d 74bf a28c 703f 3757 9e3e
00000040: 6ded fd3f be71 bbbf 7cd4 60be 85e2 413f
00000050: 004f 113f ab0b 34bf 9fd7 4a3f 7281 5b3f
00000060: d7ae 36bf 6498 31bf 2d79 b73f 3712 aa3f
00000070: 7679 95bf 4fc8 c5be d2e1 8d3f 305f 6cbf
00000080: 0ed8 a33e f74f afbf 67bf f2bf a142 d2bf
00000090: ed58 0a3f a0aa 443f 06e5 fabd a612 f8bf
000000a0: 97a1 1f3e cf30 513f e8ca a9bf be84 c33c
000000b0: b7bc babb 8626 8a3f 3650 203f f56e 673f
000000c0: c29c a5bf 3fbb e43e 4d20 babf 0cc0 85bf
000000d0: 348b b73f 3357 74bf d0dc 823f b73e d23f
000000e0: 9001 b3bf 82c2 c3be d9b7 bebd 4f5e 7ebf
000000f0: e8cb c1bf f467 abbf 498b 613f 58cc df3f
00000100: 8a67 1c3f 9fd3 f53f 110a 8ebf 5440 85bb
00000110: fa94 e13e 406a 863f e7d8 d13f 13ba 893f
00000120: 2374 b53e 8bc9 02bf db0c 58bf 9d83 143f
00000130: e3c4 4f3f 54b0 f13e c7b3 883e 31d8 403f
00000140: 9c5e 0fbf f740 573f c5a3 a3bf eb11 a63f
00000150: c351 a8be cf45 fcbd bc08 fbbe 9ce1 2bbf
00000160: 0963 3c3e 0613 78bf 6277 5fbe ab6f 8c3d
00000170: 0fcf 8fbf fe25 453f 369d 9dbd 175d e83f
00000180: 6409 5e3f 07f9 a6bf 472a 1cbf 2e27 9fbf
00000190: ca74 a0bf 1467 293f e809 73bf f0d8 a83f
000001a0: c70d cdbe 7555 153f 5078 debd bfa6 99bf
000001b0: 3f42 1a3f 6366 1ebf 1044 333e 21bd 413f
000001c0: 6592 28bb 691f a33f 7165 87be c858 c8bf
000001d0: f5bd 1ebd dc98 8f3e e490 8dbf 9dbf e03f
000001e0: 1db5 8f3f ca83 c6bf 656f aebf 862a 153d
000001f0: aca0 f13f d14e 443f 02cc f9be 8f67 04c0
00000200: 2509 90be ca48 863f 7139 26bf 0644 df3f
00000210: 998e 0b3e fb06 053e 8f12 203f 4347 8fbf
00000220: ed2a 9fbf c422 ae3f 2e1d 1b3f e76b edbe
00000230: 6eca 913e c7e2 793f f11e 443e 3c15 c9bf
00000240: 935a f53e 4254 b43f f136 d0bf 26fd d4bf
00000250: 6210 e13d d377 67bf c399 d3be aa7a d3bf
00000260: 9235 b8bf 3c18 c23d 6c1e 303f 585c d53f
00000270: e2bf 533f 73df 84bf 6568 d8be ee11 223c
00000280: 4a91 ebbf 2b80 ab3e 1590 ab3f 208e 943f
00000290: 93c4 82bf 2f3b 2dbe f536 d83f f0a7 84bf
000002a0: c2d5 913f 0d59 86bd dde2 803d 4929 a53f
000002b0: 40a4 0fbf 2c6c dc3e d3fe d53f dc28 93bc
000002c0: 28cc e0bc a294 5e3e da95 ea3f 2b14 813f
000002d0: 3675 eabe 88be adbf 9892 1ebe 0ec1 21c0
000002e0: eaab 883e fd42 863f 7891 c93f 4c31 eb3d
000002f0: cd75 55be 231f 243e 57eb dcbf bfad 643f
00000300: e676 87bf 0300 8a3f af4b 303f 7ee7 83be
00000310: 3ed3 40bf de00 83bf 8cd9 473f 3ea0 c2bf
00000320: 2581 cdbe 58d1 4dbe 8d49 93be 5473 de3f
00000330: 94ee ca3f 6bab 623e 4c75 cd3e c070 15bf
00000340: 69ea c63f 77ec a83f 0889 58be 5cef ec3e
00000350: f2ca 133e e87f 433f d379 14bf 94de 2abf
00000360: 5a38 41be b3ea 5fbf fa03 9d3e 51f6 053f
00000370: 48dd 213f 81b5 dd3c 72e3 9c3f 33cf 4b3f
00000380: df5e 9dbe d564 d13f 2498 c83f 42ec db3e
00000390: 08af b03f 5708 763f 9473 ae3f 7797 c43e
000003a0: 6813 31bf 05f7 dd3e e4bd 9c3c 4e79 323e
000003b0: 4cef b3bf 9b98 92bf 2882 553f d4d5 713f
000003c0: ebbd 0bbf cebb 18be 5352 c4be e5f3 143e
000003d0: 8159 21bf 9490 fc3d fbb4 00bd 1fac 073f
000003e0: 34b6 8a3f 6e31 0fbe 8244 093f 3cf5 f43f
000003f0: 6218 82bf 6c2d cbba e0ad 0e40 d7b9 4c3f

net.2.weight f4 [256, 256]
-0.05828524 -0.057662763 -0.020503419 -0.056073055 -0.05533894 -0.038637817 -0.017961422 -0.0064667827
-0.02403061 0.009880764 -0.08966899 -0.0569478 -0.11118672 -0.05973427 -0.09125139 -0.08251504
0.029044198 -0.046494827 -0.048695717 -0.12745816 -0.101932295 -0.015459691 -0.037844703 -0.07166023
-0.1216581 -0.070259586 -0.078015886 -0.10436851 -0.111389935 -0.082029335 -0.038537804 -0.02121778
0.0011970175 0.0013580952 -0.12213827 -0.028297894 -0.081215486 -0.09754537 -0.12040798 -0.04020308
-0.02982208 0.005844027 -0.06951761 -0.097217456 -0.09484978 -0.07163087 -0.0010032447 -0.063136786
-0.11884854 -0.07007087 -0.096935354 -0.047101498 -0.105474755 -0.0021229729 -0.015139687 -0.032289762
-0.031860877 -0.09801679 -0.031022694 -0.0054634484 -0.0047454676 -0.042184807 -0.03136086 -0.1024869
-0.020820877 -0.024647716 -0.021314863 -0.085844986 -0.056728408 -0.05373486 -0.051696897 -0.1135011
-0.1109641 -0.028841248 -0.09386299 -0.12609625 -0.06299854 -0.015125339 -0.01933721 -0.044634353
-0.070061214 -0.01975671 -0.079161964 0.022518473 -0.13341436 -0.046146363 -0.011135578 -0.06425462
-0.032578114 -0.07578722 -0.10484462 -0.111529045 -0.10826771 -0.06772946 -0.04932784 -0.07792222
-0.045050673 -0.05970185 -0.062106192 -0.08277313 -0.11704876 0.007841319 -0.097342305 -0.0035995361
-0.04619178 0.0079521965 -0.09335247 -0.09894968 -0.13012314 0.0012409944 -0.08530294 -0.09417487
-0.10475797 -0.061032426 -0.12871698 -0.042351555 -0.07636715 -0.11561879 -0.01887599 -0.07540745
-0.11403101 -0.0022064582 -0.032352284 -0.071730316 -0.011824066 -0.08756177 -0.07893876 -0.08856548
-0.120226905 -0.06344309 -0.062388495 -0.12447018 -0.051136333 -0.013667582 0.0042002434 -0.05358549
-0.010703761 -0.05865878 -0.10884277 -0.047662452 -0.020544427 -0.112429105 -0.10255529 -0.12879583
-0.049669415 -0.10715342 -0.044525657 -0.074975766 -0.008608103 0.0066915043 -0.016641097 -0.013932912
-0.116369426 -0.12529999 0.0067810467 -0.1053364 -0.055985227 -0.12206483 0.037849586 -0.06753461
-0.04992597 -0.010053038 -0.116177335 -0.058613863 -0.019043453 -0.022241054 -0.10783988 -0.028590314
-0.040224005 0.004226355 -0.09433279 -0.007812984 -0.023215035 -0.024367858 -0.058275215 -0.11745653
-0.041035097 -0.09257755 -0.051198084 -0.10819387 -0.0783199 -0.039243486 -0.049007725 -0.110998295
-0.019163877 -0.046166983 -0.07296004 -0.0009959629 -0.03430242 -0.0024575708 -0.021874553 -0.057287026
-0.021801801 -0.091945 -0.058079176 0.00011358219 -0.12775807 -0.022701997 -0.027566828 -0.033233557
-0.02014418 -0.0859613 -0.0619766 -0.029189885 -0.024812607 -0.037321642 0.011476813 -0.032466482
-0.10231884 -0.12832597 -0.01958279 -0.10035771 -0.07768434 -0.025421472 -0.059993636 -0.059089188
-0.08982926 -0.11168185 -0.08558765 0.005800446 -0.071355864 -0.11544828 -0.01874279 -0.06045373
-0.12485561 -0.06194503 -0.08260717 -0.070144914 -0.07559142 -0.0002423559 -0.03502197 -0.064302616
-0.027283348 -0.0023164507 -0.03317439 -0.115840174 -0.07060235 -0.0788568 -0.052791465 -0.1238876
-0.0928569 -0.052490856 0.021683417 -0.0066527114 -0.096421346 -0.069730364 -0.054296773 -0.060309917
-0.0578509 -0.098643824 -0.034494787 -0.09192192 -0.010895514 -0.0142241 -0.06964922 -0.09083661
00000000: 81bc 6ebd ca2f 6cbd c9f6 a7bc dcac 65bd
00000010: 16ab 62bd b042 1ebd d523 93bc 4ee7 d3bb
00000020: d8db c4bc eee2 213c 60a4 b7bd 1942 69bd
00000030: ddb5 e3bd ecab 74bd 02e2 babd a5fd a8bd
00000040: 19ee ed3c 5c71 3ebd 2975 47bd 6484 02be
00000050: e1c1 d0bd a54a 7dbc 0c03 1bbd 99c2 92bd
00000060: e227 f9bd 42e4 8fbd cbc6 9fbd 28bf d5bd
00000070: 6820 e4bd fffe a7bd d1d9 1dbd e9d0 adbc
00000080: 3ee5 9c3a 1d02 b23a a123 fabd fcd0 e7bc
00000090: 4e54 a6bd dec5 c7bd 7698 f6bd fcab 24bd
000000a0: 6f4d f4bc 407f bf3b 405f 8ebd f219 c7bd
000000b0: 9a40 c2bd 35b3 92bd 4e7f 83ba dc4d 81bd
000000c0: dd66 f3bd 5181 8fbd 0b86 c6bd 80ed 40bd
000000d0: 2603 d8bd 9321 0bbb 730c 78bc 4542 04bd
000000e0: 8d80 02bd 07bd c8bd 4e23 febc ba06 b3bb
000000f0: de7f 9bbb fac9 2cbd 3f74 00bd a7e4 d1bd
00000100: 8b90 aabc 02ea c9bc 829c aebc 7fcf afbd
00000110: 0c5c 68bd 1619 5cbd 20c0 53bd 4473 e8bd
00000120: 2541 e3bd 7b44 ecbc 3d3b c0bd 601f 01be
00000130: 6105 81bd 45d0 77bc 1269 9ebc 83d2 36bd
00000140: 417c 8fbd d3d8 a1bc ab1f a2bd a978 b83c
00000150: c69d 08be f803 3dbd 0072 36bc ed97 83bd
00000160: a170 05bd 5436 9bbd c7b8 d6bd 5769 e4bd
00000170: 76bb ddbd beb5 8abd fd0b 4abd af95 9fbd
00000180: 0e87 38bd ed89 74bd 1063 7ebd f584 a9bd
00000190: 43b7 efbd e078 003c 675b c7bd 32e6 6bbb
000001a0: 9833 3dbd ee49 023c 942f bfbd 21a6 cabd
000001b0: 003f 05be dda8 a23a 4fb3 aebd c1de c0bd
000001c0: 598b d6bd 23fd 79bd 62ce 03be d378 2dbd
000001d0: 6166 9cbd 8bc9 ecbd d2a1 9abc 396f 9abd
000001e0: 1789 e9bd 3a9a 10bb d483 04bd 58e7 92bd
000001f0: bab9 41bc 9653 b3bd a5aa a1bd d261 b5bd
00000200: 8639 f6bd 73ee 81bd 148b 7fbd 39ea febd
00000210: 5574 51bd feed 5fbc 32a2 893b 757c 5bbd
00000220: d45e 2fbc 3044 70bd f5e8 debd b439 43bd
00000230: c94c a8bc 3b41 e6bd 8208 d2bd 0ee3 03be
00000240: 2872 4bbd 4173 dbbd 8960 36bd e58c 99bd
00000250: 0009 0dbc 6844 db3b e952 88bc de46 64bc
00000260: 1853 eebd a44e 00be 8b33 de3b 9cba d7bd
00000270: c450 65bd 20fd f9bd 2b08 1b3d 964f 8abd
00000280: 2d7f 4cbd 7fb5 24bc 62ee edbd 1715 70bd
00000290: 0401 9cbc df32 b6bc 28db dcbd 3c36 eabc
000002a0: edc1 24bd 3c7d 8a3b 8d31 c1bd 0802 00bc
000002b0: 752d bebc 1a9f c7bc feb1 6ebd 0d8d f0bd
000002c0: 6b14 28bd 4c99 bdbd 15b5 51bd bf94 ddbd
000002d0: 2f66 a0bd c7bd 20bd 53bc 48bd 1353 e3bd
000002e0: 90fd 9cbc 9719 3dbd 136c 95bd f88a 82ba
000002f0: b280 0cbd 320f 21bb 4332 b3bc cda5 6abd
00000300: b199 b2bc a94d bcbd 6ee4 6dbd f932 ee38
00000310: 03d3 02be 8af9 b9bc d4d3 e1bc e91f 08bd
00000320: 6805 a5bc 7a0c b0bd 2ddb 7dbd a01f efbc
00000330: cf43 cbbc 94de 18bd 3e09 3c3c 93fb 04bd
00000340: 8a8c d1bd e267 03be 166c a0bc 5888 cdbd
00000350: f818 9fbd b140 d0bc e3bb 75bd 8107 72bd
00000360: 67f8 b7bd 74b9 e4bd 9448 afbd ab11 be3b
00000370: 0623 92bd 2670 ecbd 7b8a 99bc 559e 77bd
00000380: 4cb4 ffbd 12ba 7dbd f32d a9bd 23a8 8fbd
00000390: adcf 9abd eb20 7eb9 3273 0fbd 17b1 83bd
000003a0: 5481 dfbc 98cf 17bb dfe1 07bd 9d3d edbd
000003b0: f797 90bd ad7f a1bd dd3b 58bd c8b8 fdbd
000003c0: c22b bebd a700 57bd 6ca1 b13c fdfe d9bb
000003d0: 8e78 c5bd cbce 8ebd 4b66 5ebd 8807 77bd
000003e0: 11f5 6cbd c605 cabd 684a 0dbd 8f41 bcbd
000003f0: 1983 32bc 330c 69bc 40a4 8ebd 8b08 babd

net.2.bias f4 [256]
-0.061497696 -0.035190947 -0.013172181 -0.09911298 -0.07924023 -0.03612442 -0.061170563 -0.09769685
-0.1519172 0.0012295708 -0.046787094 -0.09341366 0.07159868 -0.021002963 -0.13325493 0.0076081376
-0.078673035 -0.013757448 -0.10013125 -0.074003756 -0.03504212 0.060348384 -0.110107034 -0.0028661983
-0.11083002 -0.07307531 0.029694427 -0.02548817 -0.06430635 0.0009391686 -0.13656588 0.015782636
-0.09445356 -0.098404266 -0.02011871 -0.121863775 -0.11774724 -0.06829221 -0.019619178 -0.038536865
-0.0512926 0.006271233 -0.06627746 0.013804627 -0.08022343 -0.05241932 -0.025051303 -0.095413156
-0.08389714 0.012598276 -0.023174796 -0.10736279 -0.0326033 -0.10488638 -0.05274192 -0.15602125
-0.11241171 -0.018294157 -0.07939806 -0.03580748 -0.08250065 -0.14103173 -0.05212613 0.053229257
-0.05734803 -0.1472511 -0.042839285 -0.1320929 -0.13357347 -0.034375202 -0.12100272 -0.13091663
-0.016877953 -0.12643202 0.12263953 -0.02143614 -0.04316109 -0.08530996 -0.11561864 -0.13576919
-0.16471 0.016751474 -0.09199674 -0.11590774 -0.00960779 -0.065108344 -0.062386837 -0.030888353
-0.050797656 -0.10059705 -0.010484467 0.01604175 0.006034442 -0.08484298 -0.06708606 0.017206134
-0.13257787 0.01178353 -0.057024945 -0.012536717 -0.055819225 -0.09202316 -0.043020807 -0.13363495
-0.056600425 -0.015011381 -0.11171769 -0.14348783 -0.074312694 -0.13055533 0.06621254 -0.066907115
-0.13950717 -0.060350243 -0.07008947 -0.026537482 -0.009309423 -0.01233722 -0.04710402 0.0041110413
0.06367166 0.054226894 -0.039024334 -0.0072554816 -0.032084104 -0.024644315 -0.12237546 -0.03819131
-0.09186384 -0.039271794 -0.06896039 -0.0055357986 -0.13005438 -0.18740697 -0.07962884 0.03888326
-0.10640458 -0.12659986 -0.06381897 0.0029133244 -0.06751073 -0.04355107 0.017650064 0.062918134
0.0056084157 -0.05288277 -0.077222735 -0.010156897 -0.0017663746 0.026928818 -0.03460016 -0.07365656
-0.08808452 -0.10503464 0.0959938 -0.039231952 -0.07756582 -0.036311004 -0.101176776 -0.12917069
-0.08227719 -0.10053586 0.052562017 -0.01657032 -0.12285321 -0.12709421 -0.13195841 -0.13045557
-0.08084959 -0.05357934 -0.038332142 0.00027622218 -0.057845194 -0.010213445 -0.14993045 -0.03892546
-0.100579694 0.0616596 -0.0478556 -0.095607184 -0.056868862 -0.0026009583 -0.17531511 -0.061056282
-0.0826446 -0.13200016 0.094841264 -0.1491044 -0.051995866 -0.07364427 -0.068278626 -0.04441273
-0.0905346 -0.10051824 -0.022345252 -0.10221533 -0.072305165 -0.070561886 -0.013576348 -0.0456269
-0.0022120595 -0.054935858 -0.18324791 -0.10980759 0.0054688947 -0.06683877 -0.056871492 -0.0030743598
-0.010640746 -0.056895245 -0.06491376 -0.10079313 0.035146583 0.008061621 -0.014388218 -0.11447343
-0.029293343 -0.083279066 -0.14634812 -0.05899913 0.0011383625 -0.07167507 -0.12361574 -0.09712029
-0.12305046 -0.13357165 0.030519972 -0.07094962 -0.016286949 -0.08257996 -0.09445713 -0.027304875
-0.10306306 -0.019223891 -0.12652484 -0.047394898 -0.05727243 -0.005174209 -0.031684253 0.034157645
-0.08367379 -0.08306797 0.051006418 -0.17720452 -0.05557073 -0.08480466 -0.16989152 -0.031622853
-0.15840471 -0.13949274 -0.023837198 -0.10407879 -0.016455054 -0.07310922 -0.15281032 -0.17790724
00000000: 02e5 7bbd 6224 10bd 22d0 57bc bffb cabd
00000010: b448 a2bd 33f7 13bd fc8d 7abd 4915 c8bd
00000020: 2f90 1bbe 8d29 a13a d3a3 3fbd a94f bfbd
00000030: 54a2 923d 680e acbc fb73 08be af4d f93b
00000040: 541f a1bd eb66 61bc 9d11 cdbd 488f 97bd
00000050: 5388 0fbd de2f 773d cc7f e1bd d4d6 3bbb
00000060: d9fa e2bd 82a8 95bd ba41 f33c 91cc d0bc
00000070: 0cb3 83bd 8a32 763a edd7 0bbe 964a 813c
00000080: de70 c1bd 2d88 c9bd fecf a4bc b793 f9bd
00000090: 7725 f1bd c9dc 8bbd 66b8 a0bc d5d8 1dbd
000000a0: 3018 52bd ea7e cd3b 7abc 87bd cd2c 623c
000000b0: 2f4c a4bd a4b5 56bd 6438 cdbc f967 c3bd
000000c0: 44d2 abbd 0069 4e3c 12d9 bdbc 06e1 dbbd
000000d0: 0a8b 05bd acce d6bd e907 58bd 09c4 1fbe
000000e0: 1c38 e6bd a1dd 95bc 739b a2bd ddaa 12bd
000000f0: 1af6 a8bd 9f6a 10be 3582 55bd ec06 5a3d
00000100: c5e5 6abd fec8 16be 3f78 2fbd 5c43 07be
00000110: 7cc7 08be 03cd 0cbd 46d0 f7bd 020f 06be
00000120: a243 8abc 6577 01be 6f2a fb3d d89a afbc
00000130: afc9 30bd fdb6 aebd 77c9 ecbd 1407 0bbe
00000140: bda9 28be 633a 893c c968 bcbd 0a61 edbd
00000150: fe69 1dbc 8657 85bd 5789 7fbd 9209 fdbc
00000160: 3411 50bd d305 cebd 0bc7 2bbc fd69 833c
00000170: 92bc c53b 28c2 adbd 6b64 89bd e1f3 8c3c
00000180: 7ec2 07be b50f 413c fd92 69bd cd66 4dbc
00000190: b3a2 64bd a376 bcbd 9636 30bd 9ad7 08be
000001a0: d9d5 67bd 4cf2 75bc 3fcc e4bd 79ee 12be
000001b0: 4131 98bd 4cb0 05be 719a 873d 9906 89bd
000001c0: f8da 0ebe d131 77bd 118b 8fbd 2265 d9bc
000001d0: 8d86 18bc 0d22 4abc 25f0 40bd eab5 863b
000001e0: 4a66 823d 051d 5e3d fbd7 1fbd 64bf edbb
000001f0: 9f6a 03bd e0e2 c9bc fc9f fabd 7e6e 1cbd
00000200: 1c23 bcbd 76db 20bd 1b3b 8dbd a565 b5bb
00000210: fa2c 05be 9de7 3fbe 7214 a3bd 0e44 1f3d
00000220: a5ea d9bd 65a3 01be 85b3 82bd 79ed 3e3b
00000230: 1143 8abd 9b62 32bd de96 903c 39db 803d
00000240: cdc6 b73b 9a9b 58bd f426 9ebd 1d69 26bc
00000250: b285 e7ba d399 dc3c e6b8 0dbd 40d9 96bd
00000260: a865 b4bd 671c d7bd 6698 c43d afb1 20bd
00000270: d4da 9ebd d9ba 14bd c535 cfbd 5245 04be
00000280: f280 a8bd bfe5 cdbd 454b 573d 7bbe 87bc
00000290: 779a fbbd fc24 02be 1b20 07be 2596 05be
000002a0: 7894 a5bd 0376 5bbd 2a02 1dbd ead1 9039
000002b0: 15ef 6cbd 4b56 27bc 5e87 19be 4e70 1fbd
000002c0: bafc cdbd c78e 7c3d 3c04 44bd b3cd c3bd
000002d0: 53ef 68bd d774 2abb ce85 33be 2716 7abd
000002e0: 9241 a9bd 0d2b 07be 233c c23d d3ae 18be
000002f0: 9ef9 54bd cfd2 96bd aad5 8bbd 1fea 35bd
00000300: 346a b9bd 82dc cdbd 640d b7bc 4556 d1bd
00000310: bb14 94bd c082 90bd 556f 5ebc 46e3 3abd
00000320: 33f8 10bb 6c04 61bd 57a5 3bbe cde2 e0bd
00000330: 6a34 b33b c4e2 88bd 15f2 68bd 337b 49bb
00000340: 8656 2ebc fd0a 69bd 81f1 84bd a16c cebd
00000350: ddf5 0f3d e414 043c 8fbc 6bbc 0c71 eabd
00000360: 98f8 efbc 378e aabd 48dc 15be 12a9 71bd
00000370: 1b35 953a 61ca 92bd 402a fdbd 01e7 c6bd
00000380: e101 fcbd 02c7 08be 0505 fa3c 094e 91bd
00000390: 356c 85bc af1f a9bd bd72 c1bd 79ae dfbc
000003a0: ba12 d3bd 6c7b 9dbc ba8f 01be 2721 42bd
000003b0: 7f96 6abd 698c a9bb 59c7 01bd e3e8 0b3d
000003c0: 2a5d abbd 8a1f aabd 1bec 503d 1a75 35be
000003d0: 229e 63bd 11ae adbd 0bf8 2dbe f786 01bd
000003e0: d834 22be 2fd7 0ebe 3a46 c3bc 4327 d5bd
000003f0: c0cc 86bc 49ba 95bd 4f7a 1cbe 512d 36be

net.4.weight f4 [1, 256]
-0.004785318 -0.3024311 -0.003239628 -0.24817711 0.02018116 0.26050425 0.3542874 0.0053383727
0.14672442 0.8050347 0.981012 0.12159431 0.48593536 0.015787229 -0.04345207 0.43236858
0.013962543 0.025568325 0.24536902 0.009705402 0.34553045 0.20709652 -0.15437625 -0.17806058
0.39846605 0.049911313 -0.08498756 0.008591378 0.02672845 0.08621857 0.027160922 -0.13106962
-0.0016495014 -0.01975846 -0.26869065 -0.032031324 -0.0026779955 0.034309063 0.015071712 -0.07634552
-0.13765801 0.15718958 0.023054853 0.14582601 0.01175702 -0.34477866 0.51211 0.0029913324
-0.48494992 0.19844252 -0.29128075 0.023519965 0.021962225 -0.11097549 0.5197552 -0.32649243
-0.01331651 0.0073765186 -0.14150225 0.005090082 -0.0037593395 0.0068570394 -0.046255197 -0.3370102
-0.31359515 0.009924796 -0.053285226 -0.30719748 0.00019822219 0.024617413 -0.40900373 -0.3141974
-0.29218882 -0.28733966 0.26568094 0.0073676184 -0.06776662 0.011213906 0.02723503 -0.08824005
0.008560792 -0.2600782 0.09441122 0.021489149 -0.0064390446 -0.06898243 -0.0316233 0.00012684811
-0.076826334 0.006303353 0.32685563 -0.17309624 -0.08681223 0.09979673 -0.19786584 0.03175134
-0.2575382 0.21113543 -0.05191719 -0.49596214 0.1879687 0.012528962 0.031290803 -0.04268535
0.010367203 0.0044598063 -0.0027799795 0.03518706 -0.16319427 0.031582233 0.3576402 0.027807768
0.031623844 -0.35196444 0.023966556 0.34503666 0.03283779 0.0037121682 -0.0135747 -0.3202006
0.39781022 0.33306447 -0.13700347 -0.27363274 -0.21391524 0.58980614 0.37407324 0.0039322516
0.03821678 0.05509104 0.2912911 -0.29040045 -0.013351513 0.1401436 0.029492097 0.010284373
-0.30554372 -0.17104071 -0.008912165 0.031946555 0.013301416 0.24228592 0.23354411 0.29734597
0.014279316 0.17177787 0.16704947 0.0059229094 -0.013382178 0.18166453 -0.13810797 0.017203368
0.032065667 0.0074519883 -0.31560194 0.5934693 0.032850984 0.008773722 -0.21367782 0.025385018
0.79538155 9.717446e-05 -0.28209245 -0.008311112 -0.0044456613 0.03627842 0.0007994256 0.004070049
0.03047644 0.0070233094 -0.081889346 0.0137531655 -0.21594566 0.14799735 -0.3263314 0.0016288967
-0.2865381 -0.2925989 0.22908644 0.0050362633 -0.083844215 0.5235451 0.19258687 -0.4214771
0.026307145 -0.28143087 -0.2291214 0.05659905 0.010671541 0.0059620566 0.042694785 0.74130946
0.002376797 0.08870227 0.5832812 -0.049070653 0.26896387 0.23393238 -0.024162412 -0.0019773103
0.05188101 -0.24586467 0.11552204 -0.0012787197 0.41183823 -0.35135704 0.004886279 0.035788152
0.0063224058 -0.0017029239 0.006541556 0.50077456 -0.058019407 0.18936278 -0.19361535 -0.28973305
0.1122805 0.09017634 -0.1825455 0.1928805 0.21345757 -0.38087484 -0.014410225 0.011623416
-0.28384677 0.32833335 -0.31820822 -0.0008352057 0.26267985 0.013391129 0.02548078 0.014917229
0.005581447 0.020631852 0.013048264 0.004343578 0.020083852 0.005065802 -0.22846554 -0.31279758
0.065267876 -0.029112915 0.24935949 0.20725723 0.04015036 -0.20441522 -0.24623008 -0.07177769
-0.1337099 -0.24494226 0.018488076 0.2718734 0.091434814 0.03728818 0.17163078 -0.091383606
00000000: 28ce 9cbb 40d8 9abe f04f 54bb 2422 7ebe
00000010: f652 a53c d060 853e 2865 b53e 84ed ae3b
00000020: ed3e 163e c116 4e3f 9a23 7b3f 7006 f93d
00000030: 85cc f83e 3854 813c ccfa 31bd 6a5f dd3e
00000040: 26c3 643c aa74 d13c 0442 7b3e 6803 1f3c
00000050: 5ee9 b03e 1c11 543e cf14 1ebe 8355 36be
00000060: be03 cc3e ce6f 4c3d f50d aebd dac2 0c3c
00000070: 9ff5 da3c 5d93 b03d 9580 de3c 1d37 06be
00000080: 1534 d8ba 7edc a1bc d291 89be 4733 03bd
00000090: 4f81 2fbb a987 0c3d 58ef 763c 0a5b 9cbd
000000a0: 39f6 0cbe 4ef6 203e 88dd bc3c 6a53 153e
000000b0: 84a0 403c d486 b0be a419 033f 3b0a 443b
000000c0: 5b4b f8be 8434 4b3e c022 95be f1ac c03c
000000d0: 20ea b33c 1e47 e3bd ad0e 053f 042a a7be
000000e0: 7e2d 5abc b9b6 f13b f7e5 10be b4ca a63b
000000f0: 405f 76bb 04b1 e03b 1776 3dbd 9a8c acbe
00000100: 8b8f a0be 9d9b 223c 9c41 5abd fd48 9dbe
00000110: ddd9 4f39 75aa c93c f068 d1be 7bde a0be
00000120: c699 95be 2f1e 93be 5507 883e 106c f13b
00000130: 3ac9 8abd 88ba 373c ff1b df3c 33b7 b4bd
00000140: 9042 0c3c f828 85be ab5a c13d 030a b03c
00000150: 9ffe d2bb a946 8dbd 6f87 01bd 8802 0539
00000160: 2057 9dbd 5b8c ce3b 9f59 a73e 2440 31be
00000170: 9cca b1bd 3a62 cc3d 589d 4abe b10d 023d
00000180: 0cdc 83be e333 583e 1fa7 54bd c0ee fdbe
00000190: de7a 403e 4746 4d3c c92a 003d d5d6 2ebd
000001a0: 33db 293c 9123 923b 5130 36bb 4e20 103d
000001b0: 661c 27be 5f5c 013d 9e1c b73e 1ecd e33c
000001c0: 0188 013d af34 b4be 8355 c43c a5a8 b03e
000001d0: eb80 063d d947 733b 6b68 5ebc 55f1 a3be
000001e0: c8ad cb3e 6d87 aa3e a34a 0cbe 9719 8cbe
000001f0: 990c 5bbe 89fd 163f 8786 bf3e 1eda 803b
00000200: 3389 1c3d 24a7 613d 1b24 953e 5eaf 94be
00000210: 4ec0 5abc ce81 0f3e 6999 f13c c97f 283c
00000220: 3a70 9cbe 4c25 2fbe 5404 12bc 64da 023d
00000230: 2fee 593c cd19 783e 3026 6f3e bb3d 983e
00000240: cbf3 693c 8ae6 2f3e 040f 2b3e f714 c23b
00000250: ec40 5bbc 4406 3a3e 2d6c 0dbe 14ee 8c3c
00000260: 4a57 033d cf2f f43b 9496 a1be 9bed 173f
00000270: c18e 063d a8bf 0f3c 5cce 5abe 3ef4 cf3c
00000280: 209e 4b3f 24ca cb38 6c6e 90be 552b 08bc
00000290: e9ac 91bb ae98 143d 8b90 513a 0c5e 853b
000002a0: baa9 f93c ca23 e63b 9ab5 a7bd f554 613c
000002b0: dc20 5dbe 9e8c 173e e914 a7be b480 d53a
000002c0: 1fb5 92be 86cf 95be a395 6a3e 3d07 a53b
000002d0: 84b6 abbd 0d07 063f 7e35 453e d9cb d7be
000002e0: 1582 d73c b517 90be cd9e 6abe 68d4 673d
000002f0: b0d7 2e3c 5b5d c33b bae0 2e3d 75c6 3d3f
00000300: 09c4 1b3b 89a9 b53d eb51 153f 4ffe 48bd
00000310: a2b5 893e f88b 6f3e 40f0 c5bc c395 01bb
00000320: 2f81 543d f3c3 7bbe d296 ec3d b79a a7ba
00000330: 76dc d23e 12e5 b3be 141d a03b 9996 123d
00000340: 2f2c cf3b a534 dfba 8d5a d63b c332 003f
00000350: c2a5 6dbd 51e8 413e 1a43 46be e457 94be
00000360: 52f3 e53d 5fae b83d 35ed 3abe 7782 453e
00000370: 9f94 5a3e 0702 c3be dd18 6cbc 2470 3e3c
00000380: 5d54 91be 4f1b a83e 30ec a2be b5f1 5aba
00000390: f97d 863e 7766 5b3c 12bd d03c 6567 743c
000003a0: 92e4 b63b 2104 a93c 63c8 553c 9354 8e3b
000003b0: e486 a43c 07ff a53b dff2 69be 0127 a0be
000003c0: 2aab 853d 357e eebc 1858 7f3e 3d3b 543e
000003d0: b474 243d 3952 51be bd23 7cbe 2e00 93bd
000003e0: 3feb 08be 25d2 7abe 4e74 973c fe32 8b3e
000003f0: 2d42 bb3d 7ebb 183d fbbf 2f3e 5427 bbbd

exp_avg f4 [256, 2]
-0.0005693059 0.00171924 -0.0012760164 0.0008897172 -0.0012973787 0.000911447 -0.00065287144 -0.0019453256
-0.001308269 0.00040876216 0.0059384345 -0.0016717687 0.0047640908 -0.0016044391 0.00570639 -0.0021525521
-0.0008411566 0.00086217537 0.00019792118 -0.00078053854 -0.0032440065 0.0016508288 0.004749069 -0.0017113426
0.0034606073 -0.0014277591 -0.002748287 0.001296774 -0.0011436489 0.00079749816 0.0032807977 -0.0013823016
-0.00069577835 0.0019617341 -0.0004387806 0.00032501854 -0.0013431467 0.00090458844 0.004557022 -0.0017426149
0.0039144554 -0.0015451572 0.0002715622 -3.640937e-05 -0.00080026704 0.0006748714 0.004103867 -0.0011810539
0.0003279306 0.0012432911 0.0005843365 0.0007060561 -0.00057499023 0.0015365443 -0.0007553024 -0.0016304874
-0.0032865636 0.00156309 -0.0018457326 0.0012996959 -0.00095566345 0.0007505146 -0.0026115594 0.0012988087
-0.00087839446 0.00065285095 -0.003915128 0.0017720001 0.0007276146 0.00196458 0.0006574338 0.0017933383
-0.0008868884 0.0008975627 -0.0008345779 0.0007432145 0.00096863526 0.0008311536 0.00026235706 -0.0008570638
-0.00078352 0.0006196362 -0.0008225837 0.00070659287 0.00040430445 -0.000120283265 0.0016745848 -0.0007913394
0.00093442993 0.00079066027 -0.0006419266 0.0010959198 -0.00075025694 0.0006808454 -0.0005348132 0.00053632003
0.000602472 -0.00085494766 0.0037456807 -0.001504205 -0.0039925384 0.0016374453 -0.00054550846 0.0005557916
-0.0005774793 0.001662002 -0.0023485338 0.0009116839 -0.0009900499 0.00077980856 -0.00079186336 0.0017290972
0.00050621503 -0.00083040236 0.00030295973 0.0011462378 -0.00041109315 -0.00092207873 -0.001400612 0.00045938042
-0.0036565247 0.001126439 -0.0015527705 0.00049570785 -0.00045292053 -0.0015659387 -0.00090633304 -0.0016490025
0.0037851403 -0.0012273609 -0.0005621198 0.0018483307 0.0004318648 -0.00019398962 0.0018652459 -0.00082220696
-0.001049595 0.00078641495 0.0027530228 -0.0002503944 -0.00070974935 0.0016975923 -0.001067357 0.00088394235
-0.0005406766 0.00053918106 -0.0019436221 0.0012563475 -0.0023595274 0.0011055979 0.0024219912 -0.00076774304
0.004689843 -0.0017065579 -0.0007529121 0.0007546747 -0.0008541918 0.0014305586 -0.0006510492 0.001488573
-0.00067937764 0.0006564812 -0.0005999703 0.0013592764 -0.0032788413 0.0012723638 -0.000659522 -0.0020505183
0.0008292746 0.0007917409 2.2808239e-05 0.0004983711 -0.0017959796 0.0012205436 0.0013452073 -0.0006251167
-0.0006843126 0.0007467708 0.00028992124 4.3423046e-05 0.0023340972 -0.0013869051 0.002962976 -0.0014236609
-0.0031668588 0.0014751062 -0.00068451744 0.0014363169 0.00084601645 0.00072884106 -0.0005690909 0.0018142447
-5.6686124e-05 0.0007977791 0.0005219524 0.0016288676 0.0010975217 -0.00044886302 0.0006080495 -0.00063568907
0.00031815493 6.825397e-05 -0.00079108175 0.00062642875 0.0002147963 5.5181376e-05 -0.00065535185 0.0011886405
0.0013594548 -0.0005407612 -0.000637748 0.0014475326 -2.3194656e-05 0.00086954574 0.00035166272 -0.000143393
0.0028453458 -0.00075777964 -0.00041522295 -0.00060985197 -0.0011102366 0.001532938 -0.0007909446 0.00068596477
-2.5340569e-05 0.00068736216 -0.0017306539 0.0012345178 0.00081720395 0.00076664623 -0.0039750086 0.0013814972
-0.0014854895 0.0004198536 -0.00067998946 0.0007557312 0.00037284577 -0.00018369203 -0.0009005062 -0.002309258
0.0025823507 -0.0011109184 -0.0006885729 -1.26258e-05 0.0005080519 -0.0007956787 -0.00064482196 0.0006094782
-0.00060349266 0.0018793385 -0.000857567 0.00047273672 8.829229e-05 0.00021679928 0.00025353255 -0.0008040526
00000000: 793d 15ba 1f58 e13a 0140 a7ba e93b 693a
00000010: ce0c aaba 2cee 6e3a 7625 2bba 4cfa feba
00000020: 397a abba 214f d639 3397 c23b 401f dbba
00000030: 171c 9c3b 0b4c d2ba abfc ba3b d511 0dbb
00000040: 1081 5cba 9c03 623a 1089 4f39 0e9d 4cba
00000050: 6699 54bb 9f60 d83a 149e 9b3b 214f e0ba
00000060: 5bcb 623b a523 bbba 9b1c 34bb 84f8 a93a
00000070: 7de6 95ba 320f 513a a702 573b 582e b5ba
00000080: e564 36ba 7090 003b 230c e6b9 4067 aa39
00000090: 860c b0ba e721 6d3a 1253 953b 7468 e4ba
000000a0: d544 803b df86 caba 7660 8e39 43b6 18b8
000000b0: 03c9 51ba dae9 303a bb79 863b 98cd 9aba
000000c0: 1aee ab39 edf5 a23a 292e 193a 9f16 393a
000000d0: f1ba 16ba df65 c93a 7cff 45ba 14b6 d5ba
000000e0: 6363 57bb 99e0 cc3a 82ec f1ba 8f5a aa3a
000000f0: 7d85 7aba 2fbe 443a b226 2bbb ca3c aa3a
00000100: 0e44 66ba 1624 2b3a 794a 80bb 7542 e83a
00000110: 64bd 3e3a 2fc0 003b a357 2c3a 730e eb3a
00000120: 137e 68ba 6a4a 6b3a 93c7 5aba 48d4 423a
00000130: 03ec 7d3a c6e1 593a f88c 8939 94ac 60ba
00000140: 2365 4dba 156f 223a a8a2 57ba a53a 393a
00000150: d3f8 d339 9640 fcb8 be7d db3a e371 4fba
00000160: 88f4 743a 5044 4f3a f746 28ba f7a4 8f3a
00000170: e4ac 44ba c37a 323a b532 0cba d497 0c3a
00000180: 36ef 1d3a 911e 60ba 187a 753b bf28 c5ba
00000190: d7d3 82bb 8c9f d63a 7400 0fba 8bb2 113a
000001a0: fb61 17ba 88d7 d93a dce9 19bb 12fe 6e3a
000001b0: 90c4 81ba 116c 4c3a 0d95 4fba e0a2 e23a
000001c0: 84b3 043a 5caf 59ba 91d6 9e39 5c3d 963a
000001d0: fd87 d7b9 a8b7 71ba bd94 b7ba ffd8 f039
000001e0: 4ea2 6fbb 05a5 933a 5586 cbba 64f2 013a
000001f0: f775 edb9 2f40 cdba fb96 6dba 5823 d8ba
00000200: 1e10 783b 66df a0ba 395b 13ba b043 f23a
00000210: ea6b e239 b169 4bb9 447b f43a 6089 57ba
00000220: 9092 89ba 6a27 4e3a 0f6c 343b 5e47 83b9
00000230: 790e 3aba bf81 de3a 8fe6 8bba 5eb8 673a
00000240: 31bc 0dba d457 0d3a 23c1 feba 07ac a43a
00000250: 4da2 1abb b6e9 903a 45ba 1e3b 5d42 49ba
00000260: 41ad 993b 95ae dfba 135f 45ba 5dd5 453a
00000270: d7eb 5fba 9581 bb3a 2cab 2aba 391c c33a
00000280: 4318 32ba b517 2c3a 5347 1dba bf29 b23a
00000290: d4e1 56bb 72c5 a63a c6e3 2cba fd61 06bb
000002a0: ad63 593a d58c 4f3a 5254 bf37 1ea5 023a
000002b0: 1367 ebba a6fa 9f3a ab51 b03a dfde 23ba
000002c0: 7163 33ba f1c2 433a 9200 9839 2421 3638
000002d0: a7f7 183b d0c8 b5ba 7d2e 423b 229a baba
000002e0: 138b 4fbb 5a58 c13a 3071 33ba cc42 bc3a
000002f0: 34c7 5d3a b20f 3f3a 0b2f 15ba f3cb ed3a
00000300: 43c2 6db8 0d22 513a a2d3 083a ba7f d53a
00000310: b8da 8f3a 6055 ebb9 8365 1f3a 5fa4 26ba
00000320: 08ce a639 9223 8f38 9960 4fba ec36 243a
00000330: f13a 6139 8d72 6738 ebcb 2bba 28cc 9b3a
00000340: bc2f b23a dfc1 0dba 8b2e 27ba 22bb bd3a
00000350: 2592 c2b7 3af2 633a 5f5f b839 c45b 16b9
00000360: fb78 3a3b bba5 46ba 48b2 d9b9 79de 1fba
00000370: 5c85 91ba ddec c83a 6557 4fba 51d2 333a
00000380: 7592 d4b7 1830 343a 1cd7 e2ba 8bcf a13a
00000390: a139 563a c2f8 483a ca40 82bb 5b13 b53a
000003a0: c2b4 c2ba cc1f dc39 5241 32ba 431c 463a
000003b0: 837a c339 749d 40b9 f30f 6cba ec56 17bb
000003c0: a83c 293b 3c9c 91ba 5881 34ba 66d3 53b7
000003d0: c92e 053a 1895 50ba 4509 29ba 64c5 1f3a
000003e0: b533 1eba 2354 f63a 59ce 60ba a6d9 f739
000003f0: 9029 b938 9d54 6339 90ec 8439 0ec7 52ba

exp_avg_sq f4 [256, 2]
4.3733562e-05 1.6018535e-05 1.0348137e-05 3.8555547e-05 8.419082e-06 3.0971816e-05 3.5435323e-06 2.7370495e-05
8.019179e-06 2.6212253e-06 3.1582767e-05 6.024149e-05 2.5179952e-05 4.7986214e-05 4.3025746e-05 9.253449e-05
5.1384327e-06 1.6433132e-05 1.1457623e-05 3.5727508e-06 3.2007712e-05 5.7249636e-05 2.9285646e-05 5.578046e-05
1.4327538e-05 2.0610678e-05 2.2607923e-05 3.5513818e-05 8.579987e-06 3.0184878e-05 1.611413e-05 2.4536403e-05
5.1056373e-05 1.8425364e-05 1.0551596e-06 2.914468e-06 6.4755623e-06 5.0348212e-06 2.9448038e-05 5.5377808e-05
2.0426605e-05 3.5186975e-05 1.6855865e-06 1.7522832e-05 5.0900753e-06 2.8002674e-05 1.5308155e-05 2.5194895e-05
1.9333204e-06 1.1366262e-05 1.23991595e-05 6.481354e-06 3.1971944e-05 1.1013458e-05 3.4553138e-06 2.7278269e-05
2.9945733e-05 5.453488e-05 1.784462e-05 1.5058338e-05 5.9839035e-06 3.0122528e-05 2.3192772e-05 3.3664088e-05
2.8830652e-06 9.356408e-06 4.135344e-05 8.6491214e-05 4.028991e-06 2.9724268e-05 3.5623539e-06 2.5230236e-05
5.011447e-06 1.8841198e-05 4.664915e-06 2.095445e-05 4.7794742e-06 3.1522982e-06 1.504991e-05 5.2584783e-06
5.028725e-06 1.394633e-05 4.6783452e-06 2.0399217e-05 2.2770616e-06 1.7627483e-05 2.993804e-06 1.4743189e-06
3.3902363e-06 2.3914474e-06 1.7279332e-05 5.2920373e-06 3.9690335e-06 2.1950853e-05 1.7735456e-06 1.4545902e-05
9.992481e-06 4.138318e-06 2.1605023e-05 3.520824e-05 3.6870882e-05 7.8302495e-05 1.3015019e-06 3.1347995e-06
3.7807033e-05 1.3777514e-05 1.2927037e-05 1.4845383e-05 6.6305324e-06 3.1918447e-05 3.372999e-05 1.17348945e-05
1.092743e-05 4.383793e-06 1.9126726e-06 9.081794e-06 9.541088e-07 6.228311e-06 9.024448e-06 2.067082e-06
2.3084225e-05 4.37666e-05 1.1805899e-05 2.5428046e-06 2.1595608e-06 1.4940252e-05 3.9770102e-06 3.2270396e-05
1.639437e-05 2.7318323e-05 5.4171152e-05 2.0032165e-05 2.3373743e-06 1.7242055e-05 3.635466e-06 9.615563e-07
1.0806512e-05 3.2013281e-06 8.005774e-06 6.9208863e-06 3.4968572e-05 1.2215066e-05 6.962666e-06 2.8162467e-05
5.104821e-06 1.4979796e-05 1.5456435e-05 1.1792858e-05 1.6689237e-05 2.242461e-05 6.943328e-06 9.728265e-07
2.872949e-05 5.4627195e-05 4.968571e-06 2.228277e-05 2.0150179e-05 8.787119e-06 2.501192e-05 1.0260677e-05
3.1301747e-06 7.781026e-06 2.1908483e-05 9.561047e-06 2.1053182e-05 3.7588754e-05 3.5643322e-06 2.723396e-05
9.24282e-06 5.512565e-06 3.516984e-07 1.23835625e-05 1.5674515e-05 1.1286259e-05 2.4956307e-06 4.100329e-06
4.011002e-06 1.9262945e-05 1.7471668e-06 1.946259e-05 1.0651443e-05 8.568679e-06 1.46398115e-05 1.9122897e-05
2.7807451e-05 4.9204707e-05 2.2232794e-05 8.318062e-06 3.7517984e-06 2.4685567e-06 4.8819056e-05 1.7655784e-05
1.9893956e-07 1.6713087e-05 2.9103567e-06 1.9799494e-05 3.4400161e-06 6.1872856e-06 5.3656863e-06 1.7451231e-06
1.7914392e-06 1.924693e-05 4.4325325e-06 1.3221357e-05 8.06441e-07 1.3007347e-05 1.5429132e-05 3.8421076e-06
3.0762292e-06 4.9403407e-06 2.3618404e-05 1.0465675e-05 8.8392525e-08 8.786549e-06 2.0572713e-06 1.5139554e-05
7.8327985e-06 1.31778e-05 9.998572e-07 1.062931e-06 2.0286887e-05 9.602531e-06 4.6995788e-06 2.6079491e-05
3.263467e-07 1.314343e-05 3.707842e-06 2.0422634e-05 3.9373676e-06 3.4036639e-06 2.853398e-05 6.021512e-05
4.269139e-06 5.561171e-07 4.8336433e-06 2.1371792e-05 2.4165881e-06 1.6326694e-05 5.1739353e-06 4.0905867e-05
9.826727e-06 2.951922e-06 9.555437e-07 1.5398621e-06 9.151704e-06 3.652073e-06 2.3868263e-06 1.0969296e-05
5.278965e-05 1.9260813e-05 6.0343687e-06 2.1301286e-05 2.0328704e-07 5.642638e-06 1.2030558e-05 3.843129e-06
00000000: 8e6e 3738 8b5f 8637 e99c 2d37 b4b6 2138
00000010: af3f 0d37 bce7 0138 6ccd 6d36 b199 e537
00000020: 1d8a 0637 4fe8 2f36 bd77 0438 cfab 7c38
00000030: 8939 d337 ce44 4938 8b76 3438 130f c238
00000040: cd6a ac36 e2d9 8937 1e3a 4037 64c3 6f36
00000050: 0540 0638 541f 7038 72aa f537 d0f5 6938
00000060: 4f60 7037 18e5 ac37 25a6 bd37 acf4 1438
00000070: c3f2 0f37 8835 fd37 d52c 8737 86d3 cd37
00000080: 5d25 5638 2b90 9a37 029f 8d35 2e96 4336
00000090: a848 d936 c9f0 a836 2e07 f737 7845 6838
000000a0: cd59 ab37 ba95 1338 503c e235 fffd 9237
000000b0: 6acb aa36 49e7 ea37 036a 8037 a059 d337
000000c0: 31be 0136 b9b1 3e37 fc05 5037 687a d936
000000d0: 9d19 0638 71c6 3837 d7e1 6736 a3d3 e437
000000e0: f933 fb37 62bc 6438 08b1 9537 12a3 7c37
000000f0: 57c9 c836 a3af fc37 198e c237 8a32 0d38
00000100: af7a 4136 77f9 1c37 eb72 2d38 9e62 b538
00000110: c530 8736 6158 f937 c610 6f36 85a5 d337
00000120: 0028 a836 2a0d 9e37 5187 9c36 57c7 af37
00000130: 5f5f a036 128c 5336 df7e 7c37 fc71 b036
00000140: 6bbc a836 08fb 6937 aefa 9c36 fc1e ab37
00000150: 9fcf 1836 bbde 9337 29e9 4836 36e1 c535
00000160: d183 6336 c17c 2036 15f3 9037 4192 b136
00000170: bd2d 8536 1923 b837 900a ee35 2c0a 7437
00000180: 61a5 2737 e2db 8a36 6f3c b537 8fac 1338
00000190: cfa5 1a38 5536 a438 44af ae35 725f 5236
000001a0: fe92 1e38 f925 6737 33e1 5837 6f10 7937
000001b0: d77b de36 2ce0 0538 4d79 0d38 fde0 4437
000001c0: f454 3737 7f18 9336 775b 0036 025e 1837
000001d0: ee0e 8035 c9fc d036 b667 1737 33b8 0a36
000001e0: ffa4 c137 0792 3738 f311 4637 0da5 2a36
000001f0: f9ec 1036 e5a7 7a37 4272 8536 135a 0738
00000200: a486 8937 a729 e537 d535 6338 bf0a a837
00000210: c9db 1c36 08a3 9037 d5f8 7336 d30e 8135
00000220: 9e4d 3537 66d6 5636 8a50 0637 f639 e836
00000230: 38ab 1238 4fef 4c37 d8a0 e936 703e ec37
00000240: 144a ab36 bc51 7b37 71a8 8137 f0d9 4537
00000250: ddff 8b37 7c1c bc37 bcfa e836 1092 8235
00000260: 1c00 f137 811f 6538 b3b7 a636 e2eb ba37
00000270: 2e08 a937 646c 1337 b0d0 d137 4625 2c37
00000280: fe0f 5236 418b 0237 1cc8 b737 6268 2037
00000290: 5d9b b037 9ea8 1d38 c332 6f36 7c74 e437
000002a0: 9c11 1b37 93f8 b836 0fd1 bc34 ffc2 4f37
000002b0: c47c 8337 1d5a 3d37 9c7a 2736 8f95 8936
000002c0: 3f96 8636 dc96 a137 3280 ea35 9843 a337
000002d0: 99b3 3237 32c2 0f37 839d 7537 1c6a a037
000002e0: 0c44 e937 2761 4e38 9080 ba37 ce8d 0b37
000002f0: 68c7 7b36 7ba9 2536 10c3 4c38 821b 9437
00000300: 179c 5534 1533 8c37 8c4f 4336 1717 a637
00000310: 07db 6636 619c cf36 e50a b436 f939 ea35
00000320: 6271 f035 7874 a137 2abb 9436 4cd1 5d37
00000330: 347a 5835 213a 5a37 cf6d 8137 74eb 8036
00000340: 3771 4e36 34c5 a536 2320 c637 bb95 2f37
00000350: 4ed2 bd33 f169 1337 a70f 0a36 e4ff 7d37
00000360: 9d69 0337 3816 5d37 d532 8635 08aa 8e35
00000370: c22d aa37 8e1a 2137 13b1 9d36 48c5 da37
00000380: c034 af34 9a82 5c37 3ed4 7836 4651 ab37
00000390: bb1d 8436 806a 6436 415c ef37 7e8f 7c38
000003a0: a03f 8f36 1348 1535 ae30 a236 9347 b337
000003b0: ab2c 2236 4ff5 8837 c49b ad36 5792 2b38
000003c0: 79dd 2437 a219 4636 3b40 8035 42ad ce35
000003d0: 458a 1937 2316 7536 5d2d 2036 c508 3837
000003e0: 756a 5d38 4892 a137 d57a ca36 2ab0 b237
000003f0: 1e47 5a34 e455 bd36 dad6 4937 3af4 8036
