lab5 - Convolutional Autoencoders/decoder_params.pth (torch, 103669 bytes, 9 tensors)

decoder_lin.0.weight f4 [64, 2]
000000 4e af aa 3e 1f b9 2e 3f 47 df da be d6 73 30 bd
       0.33336872 0.6825122 -0.42748472 -0.04307922
000010 69 7d 19 bf ab b5 ef bc cf a4 b9 3e 20 96 af be
       -0.59956986 -0.02926143 0.3625855 -0.34294224
000020 1a bf 03 bf 42 01 18 bf 4c e4 b0 3d f9 20 1e 3f
       -0.5146347 -0.5937692 0.08637294 0.6176906
000030 4c 1c 9b 3e d9 d0 2a bf 38 74 5e 3e 0a 9c a0 3e
       0.30295026 -0.66724926 0.21724021 0.31369048
000040 ac bc 27 bf 52 b7 2f 3d 05 f9 db 3e c3 e4 08 bf
       -0.65522265 0.042899437 0.42963424 -0.5347406
000050 5c 35 20 bf 36 a3 98 be 20 1d 24 3d 44 8c 81 3e
       -0.6258142 -0.2981202 0.04006684 0.25302327
000060 41 4a 24 be 9e 96 9c 3e 8e f8 cb be a4 6c 93 be
       -0.1604395 0.30583662 -0.3983807 -0.28793824
000070 56 cb 31 bf 2c eb 14 3f ef 87 aa be 7f aa 7f 3d
       -0.6945089 0.58171344 -0.33306834 0.062418457
000080 1c 1b 36 3f db 76 49 be 4c f2 85 3e fd b9 b0 be
       0.71135116 -0.19674246 0.2616142 -0.34516898
000090 e5 6b 8e bd 50 34 9a 3d fd 53 d2 be e1 a7 0d bf
       -0.06954173 0.07529509 -0.41079703 -0.5533429
0000a0 ba 5c 17 bf af a1 20 bf 8e ac 03 3f 3b 36 c6 bd
       -0.59125865 -0.6274671 0.5143517 -0.096783124
0000b0 57 73 85 3e b0 40 3d be b3 18 9f be 77 2d b5 3e
       0.2606456 -0.18481708 -0.31073532 0.3538625
0000c0 9a fb 07 bf 49 30 b0 be a6 2b 13 3f 2e b5 e7 be
       -0.5311829 -0.3441184 0.5748848 -0.45255417
0000d0 ac c4 ee bd 5d 58 5e 3d 56 3d eb 3e f7 5f 9b bd
       -0.11658606 0.05428349 0.45945233 -0.07586663
0000e0 2d b4 23 3c 54 98 d1 be ce 53 13 3d b5 54 88 3e
       0.009991688 -0.4093653 0.035968594 0.26627126
0000f0 48 5f 5c 3e e0 7f 05 bf 34 3b 16 bf 4f 30 3a be
       0.21520722 -0.52148247 -0.58684087 -0.18182491
000100 70 15 32 be d5 90 84 be 24 be 27 bf 87 c3 6d bd
       -0.1739099 -0.25891748 -0.65524507 -0.058047798
000110 e0 63 b2 3e 4f 51 18 be e4 a2 12 3f d1 59 25 3f
       0.34841824 -0.14874767 0.572798 0.64590174
000120 88 3c a0 be 89 30 4c 3b f3 c4 52 3c be 4e 9f 3e
       -0.31296182 0.003115686 0.012864339 0.31114763
000130 05 d8 23 3e 29 ba 38 3f a9 48 16 3f 3f 0f 66 be
       0.16000374 0.7215906 0.5870462 -0.22466753
000140 93 83 b5 3e 40 7e a5 be 74 f2 bf 3e 50 99 b5 3e
       0.35451946 -0.32322884 0.37489665 0.3546853
000150 2a 6b 3a 3f ad 64 45 3e c0 75 a7 3e 1e 47 5e 3e
       0.7281977 0.19276686 0.32707024 0.21706817
000160 13 1a a5 be 9d ee f8 3e 78 f5 e5 be ed 4a eb 3e
       -0.32246456 0.48619547 -0.4491384 0.459556
000170 ea a7 fa 3e 70 93 cf bd 94 0e bd bd 05 da 25 bf
       0.48956233 -0.10135543 -0.09231296 -0.64785796
000180 98 a7 10 bf ad 82 27 bf ab a3 8d 3e b3 df cd be
       -0.5650573 -0.6543377 0.2766393 -0.4020973
000190 7b 6a 94 be d8 e7 66 be c3 26 de 3e 14 40 a7 be
       -0.28987488 -0.22549379 0.43388948 -0.32666075
0001a0 b6 7a 6d 3e 63 31 b3 3c 68 13 02 3f 87 50 53 bd
       0.23191342 0.021874135 0.5081086 -0.05159047
0001b0 01 e7 ad 3e d9 fc f4 3e f7 c6 9c 3d d4 94 12 3f
       0.33965304 0.47849157 0.07655137 0.57258344
0001c0 ef 9b 07 3f 3c 44 cf 3d a9 04 37 bf b3 8f 59 3e
       0.5297231 0.101204365 -0.71491486 0.21246223
0001d0 1d cb dc be b0 1b 1e 3e e1 ae a7 bd ec 88 15 bf
       -0.43123713 0.1544025 -0.081876524 -0.5841205
0001e0 ce 2d 27 3d f3 14 f3 be 7d 92 f1 be bb 52 cc 3d
       0.040815167 -0.4747692 -0.47182074 0.09976717
0001f0 37 0c b2 be ad 5c e7 bd af f9 eb be 51 30 d6 3e
       -0.34774944 -0.112969734 -0.4608893 0.41833737

decoder_lin.0.bias f4 [64]
000000 2d 16 f0 3e cd 8c 4f 3f 2a c1 20 bf 30 2b 03 bf
       0.4689192 0.8107422 -0.62794745 -0.51237774
000010 c6 b6 9f 3c ec 2f a7 be 98 2d 5c bf e0 25 8a be
       0.019496333 -0.3265375 -0.8600707 -0.2698202
000020 95 3c 63 3e 5a f4 cf 3e de ed a7 be 01 92 01 3f
       0.22191079 0.40616113 -0.32798666 0.5061341
000030 27 60 60 bf 6a ec 12 3f 6d 40 04 3f 39 fc e1 3e
       -0.87646717 0.5739199 0.51660806 0.44137743
000040 98 c4 28 3f 81 39 39 3f fc 17 17 bf 81 71 46 3f
       0.6592498 0.7235337 -0.5902097 0.77516943
000050 e5 9e 0f bf 5b 74 17 bf 4f 35 82 3f 70 d3 4f 3f
       -0.5610183 -0.5916192 1.0172518 0.81182003
000060 65 5a 13 bf 65 24 b2 3e da e9 88 3f df 43 e7 be
       -0.57559806 0.34793392 1.0696366 -0.4516897
000070 9e 8e 03 bf e9 74 32 3f 38 9f 40 bf c3 79 30 bf
       -0.5138949 0.6970964 -0.7524295 -0.68935794
000080 78 88 80 bf f6 fc 02 bf 1e 16 79 3f 50 0f 64 3e
       -1.0041647 -0.5116724 0.97299373 0.22271466
000090 0b 88 4e 3f a2 45 8a 3d 2e c6 3f 3d 6a ba 12 bf
       0.80676335 0.06751563 0.04681986 -0.57315695
0000a0 ba 79 22 be 3a 0c 55 3f 03 6f b9 3e 94 15 0b bf
       -0.15866747 0.8322178 0.36217508 -0.543298
0000b0 f5 c6 51 bf 0c 76 67 3e f7 d8 21 bf 49 0e 37 3f
       -0.8194421 0.22603625 -0.6322169 0.7150617
0000c0 e2 3d 12 3c 90 87 1b 3f a1 ee bf 3c 4a c6 dd be
       0.008925887 0.60753727 0.023429217 -0.43315345
0000d0 16 2c d8 3e 7d 12 85 be 89 36 7f be 69 1f 76 be
       0.42221135 -0.25990668 -0.24923147 -0.2403542
0000e0 32 88 cb bd db f0 55 be 6a 36 6f be 21 bc fc 3e
       -0.099380866 -0.2089266 -0.23360601 0.4936228
0000f0 0e 26 1b bf 96 ad 3a 3f cb 5a 23 bf 80 21 22 3e
       -0.6060494 0.7292112 -0.63810414 0.15833092

decoder_lin.2.weight f4 [288, 64]
000000 0f 4a 3d 3d a0 c1 f4 3d 29 0f bd bd 2b 57 ed bc
       0.046213206 0.119509935 -0.09231407 -0.028972229
000010 04 d0 96 3d 48 6c 6a 3d d7 d0 a6 3c 30 0b 36 3d
       0.073638946 0.05723217 0.020363254 0.044444263
000020 5e 96 8e bd 57 95 0b 3e 9c 27 aa bd f5 e3 2a 3d
       -0.06962274 0.13631187 -0.08308336 0.041721303
000030 03 eb 2c bd 18 25 85 3d 10 2f 07 bd 05 33 7d 3d
       -0.042216312 0.06501216 -0.033003867 0.061816234
000040 7c b2 bd bc a9 95 0d 3e 99 29 d1 3c 0c da 3c 3e
       -0.023156397 0.13826622 0.02553253 0.18442553
000050 ac 90 1f bc 8e 3f f9 ba 56 c9 f6 3d 27 d7 e8 3d
       -0.009739082 -0.0019016133 0.120501205 0.11369162
000060 55 e2 e1 bd bb 8d 2f 3c 3a 41 c1 3d 86 1a 0b bb
       -0.110294975 0.0107149435 0.09436269 -0.0021225526
000070 18 08 7a bc b8 3e 0e 3d 05 dd 30 3b 24 3d cf bd
       -0.015260719 0.034727782 0.0026987207 -0.101190835
000080 d3 12 b2 bd 67 4e 18 be 87 c7 16 ba a9 09 d5 3d
       -0.08694997 -0.14873658 -0.0005751778 0.10402233
000090 e2 e9 66 3d 60 09 73 3d ad 45 91 3d c2 d3 19 bd
       0.05637539 0.059335113 0.07093368 -0.037555464
0000a0 f0 c1 d2 bc 5d 2d 6e 3d db b8 8e bd 41 5a bd bd
       -0.025727242 0.05814873 -0.06968852 -0.0924573
0000b0 0d 7a dd 3b 74 3b 8d 3d e8 d2 13 ba d8 d5 28 3e
       0.0067589344 0.068961054 -0.00056390325 0.16487825
0000c0 c4 6d ac 3d 19 6e f8 3d 08 64 b5 bc 9b b1 49 bd
       0.08419374 0.121303745 -0.022142425 -0.049241643
0000d0 2c 37 a7 bd 75 96 bc bc 71 b4 7d 3d 2e 0c 1b 3d
       -0.0816482 -0.023020962 0.06193966 0.037853412
0000e0 7f 1d 88 bd e3 06 e1 bd 25 2d 99 bd 10 80 68 3d
       -0.06646251 -0.10987642 -0.07479314 0.056762755
0000f0 8f d2 c3 bb 90 d5 8f 3d a5 3e 00 be 6a d8 7b bc
       -0.0059760283 0.07023156 -0.12523897 -0.015371421
000100 6a 8d 02 3d 4d 41 86 3c 36 cb d5 bd bc b3 4d bc
       0.031873144 0.01638856 -0.1043915 -0.012555059
000110 be 5b 87 bd fa b3 d4 3d a2 fe bb bb 84 02 49 bd
       -0.06609295 0.1038589 -0.0057371417 -0.049074665
000120 a3 dc 98 3d 71 21 03 3d 40 e4 42 3b 14 3a 00 3e
       0.07463958 0.032014314 0.0029738098 0.12522155
000130 f4 24 fe bc ae aa 00 3e f5 47 26 3d 9d 92 c3 3c
       -0.03102348 0.12565109 0.040595967 0.023873622
000140 6e 31 74 3d 39 23 ce 3c 72 ba 4d bd 47 92 d0 3d
       0.059617452 0.02516328 -0.050226636 0.1018415
000150 75 a9 6f bc 12 08 5f bd 3d 76 01 3d 15 86 34 3e
       -0.014627804 -0.054451056 0.0316069 0.17629273
000160 07 a6 8d bd db a6 9b 3d 01 cf 16 3e b8 02 35 bd
       -0.06916433 0.076001845 0.14727403 -0.044192046
000170 28 dd 8c bc ad 08 f6 3d 3d 57 06 3d 79 ed 6c bc
       -0.0171953 0.120133735 0.03279804 -0.014460915
000180 97 e5 87 be 1d bb 3b bb 10 86 06 3d c1 e2 92 bc
       -0.2654235 -0.0028645464 0.032842696 -0.01793039
000190 e8 1a fe 3b f4 fd 72 3d bc e4 0b 3e 16 8c 61 bd
       0.0077546723 0.05932422 0.13661474 -0.055065237
0001a0 25 ca e2 3b 6c 52 f2 3c 9f e6 9c 3c 75 b0 ad bd
       0.00692107 0.029580317 0.019152937 -0.08480922
0001b0 06 83 0e bd 3f cf 49 3d 84 91 99 bd a5 5b 87 3d
       -0.034792922 0.04926991 -0.07498458 0.06609277
0001c0 77 63 0d be 45 f9 43 3d cb 46 d4 bc 91 8c 80 bd
       -0.13807474 0.047845144 -0.025912663 -0.06276811
0001d0 dc 4b 82 3c 96 d6 dd bc b3 2d 4c bd 6a 7f 06 3e
       0.015905313 -0.027079862 -0.04984827 0.13134542
0001e0 61 9b 45 bc 3a bf 0f bd 8d 99 04 bd c2 24 70 3d
       -0.012060971 -0.035094477 -0.032373 0.058628805
0001f0 8d 86 aa bd e8 d2 06 3d 6a 94 84 bd 90 43 e3 3d
       -0.08326445 0.03291598 -0.0647362 0.11096871
000200 07 4b 99 bd fe bb c7 bc 7e 0e 8e bd 87 4e 9e 3d
       -0.074850135 -0.024381634 -0.06936358 0.07729822
000210 eb e1 9c 3d 4b 30 7d 3c ff de 35 3d a3 09 8b bc
       0.07660278 0.0154534085 0.04440212 -0.016972369
000220 53 6b 82 3c d1 00 3c 3e e2 6f c3 bd fc 40 06 3d
       0.015920317 0.18359686 -0.09542824 0.032776818
000230 39 3a 93 bb 19 c4 23 3d f9 90 a8 3d 8a 3e 62 bd
       -0.0044930247 0.039981935 0.08230776 -0.055235423
000240 b3 cd 13 bc 85 86 8c 3d 8f d7 5f 3d 30 33 a9 3d
       -0.0090212105 0.06861595 0.054648932 0.08261716
000250 54 cd e4 bd 91 a8 ae bd fa 95 b0 3d 7e 62 63 3c
       -0.11171976 -0.08528245 0.08622356 0.013878463
000260 7c 93 48 3d e9 1f ce 3d f6 39 6c 3d 39 94 46 bd
       0.048968777 0.1006468 0.057672463 -0.0484812
000270 68 04 71 bd de 6d 41 3d 63 9c 68 3d 46 07 a5 bd
       -0.058842093 0.04722392 0.056789767 -0.08058028
000280 34 b4 3a be ec ab f0 bd ba 60 72 3d 10 51 84 3d
       -0.18232805 -0.117515415 0.059174277 0.06460774
000290 1b 9a ff 3d 40 28 9a 3c 36 c0 93 3d b4 5c 78 bd
       0.12480565 0.01881802 0.07214396 -0.060635284
0002a0 05 5c a6 3d c3 4d 87 3d fc 72 a6 3c 61 b6 b9 bd
       0.0812302 0.06606629 0.0203185 -0.09067989
0002b0 5b ad 81 bd 8a eb 4d bb d0 c3 81 bd b5 be 07 3e
       -0.06331893 -0.003142091 -0.063361764 0.13256343
0002c0 91 91 2b 3d b3 b0 92 3d 19 58 99 3d 3e d8 3b 3c
       0.04188687 0.07162609 0.074875064 0.01146513
0002d0 f8 28 49 bd 78 60 58 bd 6f f1 4c bc 84 d3 fe bb
       -0.049111336 -0.052826375 -0.012508734 -0.0077766795
0002e0 86 ea 2b bd ad 5c cf bc 31 9f 12 3d ac 71 07 3e
       -0.041971706 -0.025312746 0.035796348 0.13226956
0002f0 75 19 fd bc 88 c8 06 3e 4d 87 32 bd eb 21 d0 3b
       -0.030895928 0.13162434 -0.043586064 0.0063516996
000300 8c e8 ce bc 96 c6 dc bc 2a 8f 91 3d 16 50 81 3d
       -0.025257371 -0.026950162 0.071073845 0.06314103
000310 f8 3d 40 3d 37 43 3e bd 60 96 cb 3d de de 44 bc
       0.046934098 -0.04645082 0.09940791 -0.012016026
000320 ee 20 c2 bc f1 82 12 3d 15 c5 88 bd e8 3d 4b bc
       -0.023697343 0.035769407 -0.066782154 -0.012404896
000330 14 29 c6 bb cc e0 42 bd 63 4a dc bc 8a b0 93 bc
       -0.0060473774 -0.047577664 -0.02689094 -0.018028516
000340 68 7a 99 bd e6 45 77 3b b3 71 05 80 f7 8c 88 bd
       -0.0749405 0.0037730872 -4.99965e-40 -0.06667512
000350 aa 94 14 3c 54 c1 78 3e 1f 87 e7 bd 68 d6 86 bc
       0.009068647 0.24292499 -0.11305069 -0.016459659
000360 38 e7 57 3c 36 ec 52 bd a4 9e 0e be 15 ec 4e 3e
       0.013177685 -0.0514948 -0.13927704 0.20207246
000370 01 ea 84 3d ca bf 24 bc f1 1c ca 3d 49 db 46 bc
       0.06489945 -0.010055492 0.098688014 -0.012137243
000380 89 d2 e6 3d be 37 bf 3d 0d 48 f7 bd 17 3b d5 3b
       0.11270625 0.09336804 -0.120742895 0.006507288
000390 51 a7 bd bd ae eb ab bc a9 8d 41 bd 4b ee 52 3e
       -0.09260429 -0.020986404 -0.04725424 0.20598714
0003a0 03 5d c1 3c 78 b3 95 3c 9d f6 8a 3d 31 61 70 3b
       0.023603922 0.018274054 0.06785319 0.0036679024
0003b0 f3 7f 13 bc a0 02 13 bc 92 36 71 3e e4 10 56 bd
       -0.009002673 -0.008972794 0.23555973 -0.052262202
0003c0 3c fe 63 3d fd e7 8d 3b 2d ee 78 bc 1e 4d 0c 3d
       0.05566238 0.0043306337 -0.015193504 0.034253232
0003d0 24 0a 6b 3d fa 51 4c 3e 01 09 58 bc cc de 2f bd
       0.057382718 0.19953147 -0.01318574 -0.042937085
0003e0 f3 a5 68 3d 79 66 17 bd 3b 59 cf bc 94 bf c8 bc
       0.056798887 -0.03696296 -0.025311103 -0.024505414
0003f0 c9 74 0d 3d 9c 44 cc bb 6b c9 46 3d 6a 58 da bb
       0.034535203 -0.006233765 0.04853193 -0.006663372

decoder_lin.2.bias f4 [288]
000000 7f 05 f6 3d 6e 12 13 3e fb 8d 65 3e 16 96 35 be
       0.12012767 0.14362499 0.22417443 -0.17733034
000010 88 87 b7 ba 18 6a 59 b8 8a eb 77 bd d2 9e b2 3d
       -0.0014002183 -5.183564e-05 -0.060527362 0.08721699
000020 b5 b0 c8 bd ca 4f b3 3d 4d fe 01 3e 62 14 a7 3d
       -0.09799329 0.08755453 0.12694664 0.081581846
000030 40 ed 99 3d 1b 48 e5 ba 5d ed 1d bc 01 e8 89 3d
       0.07515955 -0.0017492803 -0.009639111 0.06733704
000040 9a f9 3b ba d8 48 36 3b 5c d0 dd bb 23 02 e5 bd
       -0.00071706774 0.0027814414 -0.006769223 -0.11182048
000050 ea 0b 01 ac 3d 92 82 bc b6 88 ef ba 6f 58 05 80
       -1.8338616e-12 -0.015938872 -0.0018274996 -4.90901e-40
000060 2f 5f 05 00 4a 05 6d 38 60 1a ad bd b1 40 4d 3d
       4.93323e-40 5.651013e-05 -0.08452296 0.050110523
000070 57 c0 1b 3e 17 e5 eb 3c 7e 65 a1 bd 41 24 c3 3b
       0.1521009 0.028795762 -0.07880686 0.0059552495
000080 43 1b 1d 3e 26 4f 94 3d da 1e 87 b9 dc c8 96 3e
       0.15342431 0.07241659 -0.00025772193 0.2945012
000090 34 3c 53 3c 53 17 18 be 40 12 a8 3d 0e 53 09 3d
       0.0128927715 -0.14852647 0.08206606 0.033526473
0000a0 28 0c 0e be 2d 2e 58 3d bf d6 6e 3e e5 17 df 3d
       -0.13871825 0.05277841 0.23324107 0.108932294
0000b0 56 e8 58 3e 6e 8a 91 3c 70 c0 60 bc cb 32 53 3c
       0.21182379 0.017766204 -0.013717756 0.012890528
0000c0 59 58 22 3d 4d 3d ae bd ff b4 8d bb c3 3b 81 bb
       0.039635036 -0.08507786 -0.004324555 -0.0039438917
0000d0 c4 18 a5 3e 09 1a 28 3d 1c 3a 44 3d a3 0e 52 3d
       0.32245457 0.041040454 0.04790698 0.05128349
0000e0 1f 6a ce 3d a1 c3 6c 3e f4 db d9 be d4 54 6c be
       0.10078835 0.23121502 -0.42550623 -0.23079234
0000f0 48 67 c7 3e bf d3 65 3e 25 0c 97 3e 7f 30 4d bd
       0.38945985 0.22444056 0.29501453 -0.050095078
000100 36 2f a0 3d 71 ab 1e 3e 46 35 e7 3b ea 2c 47 3e
       0.07821505 0.15495087 0.0070559112 0.19450727
000110 55 10 3b 3d 4c 3d fb 3d 15 20 a7 3e 25 4d 3a 3e
       0.045669872 0.12267551 0.32641664 0.18193491
000120 57 e7 82 3d 02 73 a2 3d a4 b7 a4 3d 11 3e c0 3d
       0.06391781 0.07932092 0.08042839 0.09386838
000130 5c f7 9a bd 02 0f 29 bd a1 7a 69 bc cd 8e d5 3d
       -0.07566711 -0.04127408 -0.014250428 0.10427628
000140 54 77 20 3e 79 88 8b 3d 70 d3 22 be be e4 fb 3c
       0.1567052 0.068131395 -0.1590097 0.030748721
000150 7c b9 d9 3d eb 05 0f 3e 89 bc 84 3d d1 aa ba 3c
       0.106310815 0.13967101 0.06481273 0.02278653
000160 c8 a6 47 be 43 7d 59 b4 82 a5 17 bb f5 09 0c 3e
       -0.19497216 -2.025527e-07 -0.0023139422 0.13675673
000170 97 d7 c6 bc 6e aa b7 3c 55 58 05 00 bc 38 66 3d
       -0.024272723 0.022420134 4.90865e-40 0.05620645
000180 20 7a c6 3d f3 6d 8d 3e f9 c7 7f bd 3a f1 45 bd
       0.09691262 0.27622947 -0.06244657 -0.048325755
000190 53 4c 5a 0f 66 03 9a 3d ae 74 47 bd c8 bf 73 3d
       1.0762929e-29 0.075201795 -0.04869526 0.05950907
0001a0 e4 19 24 3e 51 38 88 3d ab b7 99 3e 89 61 a9 3e
       0.16025501 0.066513665 0.3002294 0.33082226
0001b0 80 c8 5b 3d fc 33 d3 3c 9a c6 33 3e ae c0 47 30
       0.05365801 0.025781624 0.17556229 7.266959e-10
0001c0 0d 7c 83 0a 72 67 9b b9 df 41 69 b9 b4 50 d9 3d
       1.2661504e-32 -0.00029640977 -0.0002224515 0.10611096
0001d0 57 fc 53 bd 36 d5 14 bd f2 dc 1a bd 3c 66 fd bd
       -0.051754322 -0.036336146 -0.037808366 -0.12373015
0001e0 22 e3 63 3d f5 85 96 3e b2 9f 63 3e f9 0c 97 3d
       0.055636533 0.29399076 0.22228888 0.07375521
0001f0 aa fa 7a bb c9 3c c4 3e b6 5f c9 3d 8a a4 4c 3e
       -0.003829638 0.38327625 0.098327085 0.19984642
000200 06 7b 23 bc f7 d5 be bd 57 56 3f be 8f 3a 58 bd
       -0.009978062 -0.09318154 -0.1868528 -0.05279022
000210 4f 62 05 00 5d 7a db 8c 19 54 83 be c6 66 10 3c
       4.94444e-40 -3.3815937e-31 -0.256501 0.008813566
000220 08 b0 8d 3d 27 0f 07 be ac 30 2f 3e 3f 08 b8 be
       0.06918341 -0.13189374 0.1710841 -0.3594379
000230 71 15 4c 3d c0 bc fd 3d 32 0d d0 bb 13 51 13 3e
       0.049825136 0.12389517 -0.0063492293 0.14386396
000240 aa de f2 3c 38 d0 06 3d 41 b1 a1 bd 60 5e 2b 3c
       0.02964719 0.032913417 -0.078951366 0.0104595125
000250 7c 2c 44 b5 8b 62 fb 3c ad 81 23 3d dd 00 71 aa
       -7.3080423e-07 0.030686637 0.03991859 -2.14054e-13
000260 08 f4 88 bd a8 6b 47 bc 19 d5 e7 a7 f8 f1 71 bb
       -0.0668717 -0.012171663 -6.434642e-15 -0.0036917906
000270 d1 f0 0c 3c 70 90 51 3e c2 61 d4 b8 b1 4d d6 3b
       0.008602337 0.20465255 -0.000101271566 0.0065400233
000280 0d b8 d1 b4 6d 0d 8e 3e e7 4e 50 3d cd 38 01 3e
       -3.9063198e-07 0.27744618 0.050856497 0.12619324
000290 f7 ed 21 3e ec 3e af 3d eb 3a 43 3d aa 51 bf bd
       0.15813433 0.08556923 0.04766361 -0.09341748
0002a0 ac 4b a3 b6 d4 9c 0d 3d 92 28 80 bd e5 dc 42 b9
       -4.866588e-06 0.03457339 -0.06257738 -0.00018583571
0002b0 d5 0f ec bb 02 f2 81 af 58 5a d6 3d cf 8a d0 bd
       -0.0072040358 -2.363692e-10 0.104664505 -0.10182726
0002c0 c1 2a a5 3d 86 ba 46 3e da ee 26 be 34 44 23 3e
       0.08064795 0.1940709 -0.16302052 0.15943986
0002d0 f1 59 be bd 01 9f 07 bd ad bb 19 b9 4d 2b 17 3e
       -0.09294499 -0.033110622 -0.00014661132 0.14762612
0002e0 9d 34 8c b4 33 5d 05 80 fa bd 66 3d cb 2d 7c 3d
       -2.6115313e-07 -4.92611e-40 0.05633352 0.06156711
0002f0 b3 95 52 3e 73 1c e4 3d 98 42 88 3c 05 6f 16 3d
       0.20564918 0.11138239 0.016633317 0.03672697
000300 c4 00 e6 3d c4 8b 92 b7 ef d2 7a 3b 7e 33 1a 3d
       0.11230615 -1.746964e-05 0.00382727 0.037646763
000310 3d 7a 65 bd 17 82 bb bd 3c 58 83 bb 16 d0 a7 3d
       -0.05602478 -0.09155672 -0.004008321 0.08193986
000320 1c 33 80 3e a6 d9 f1 3c e8 be 4d be 0b 27 2b 3e
       0.25038993 0.029522728 -0.20092356 0.16714112
000330 c0 b1 2f b3 74 6e 08 af 6c 0f 0f 3e 80 19 1e bc
       -4.0907025e-08 -1.2408369e-10 0.13970727 -0.009649634
000340 7e 90 04 3e 87 df 49 3e ab b7 a7 a0 34 43 3f ba
       0.12945744 0.19714175 -2.8412442e-19 -0.0007296086
000350 17 f5 dd 3d eb 92 f4 3d 19 89 43 bd 2c 9c 03 af
       0.10837763 0.11942085 -0.04773817 -1.1969864e-10
000360 6e 60 05 00 88 95 db bb af 43 95 bc 0f 89 bd 3d
       4.9377e-40 -0.006701175 -0.01822075 0.092546575
000370 02 11 30 be 52 b0 0f 3e 82 0b 30 bd 88 03 e5 3d
       -0.17193988 0.14032105 -0.042979725 0.11182314
000380 ba b2 34 3e 85 4a d9 3d fd 1c 68 bd 05 41 8f 3e
       0.17646304 0.106099166 -0.05666827 0.27979293
000390 5d 9d de 3d 6c 30 81 3d bf ab 90 ba 87 06 1a 3e
       0.108698584 0.06308064 -0.0011037512 0.15041552
0003a0 59 69 91 a7 af f8 ed 3d 64 d7 a1 3c 1e 70 9b 3c
       -4.0359803e-15 0.11619698 0.019756027 0.01897436
0003b0 df 89 e2 3d 4d 7a 0c b9 09 32 80 b7 71 fc 37 bd
       0.11061453 -0.00013397001 -1.5282088e-05 -0.04491848
0003c0 55 10 d3 3d 6c 68 4a b1 e7 64 05 00 84 a2 a9 3d
       0.103058495 -2.9454226e-09 4.95374e-40 0.082829505
0003d0 bf 89 64 3d 46 39 56 3c 6c c0 f0 bd 78 b8 ae 3a
       0.055795427 0.0130751785 -0.117554516 0.0013330122
0003e0 fb 35 1d 39 48 f6 f8 3d 69 72 d1 3e bc 5e 05 80
       0.00014992796 0.121563494 0.409076 -4.93162e-40
0003f0 93 90 c8 3d 8d 6c 9c be 89 6a 51 3e 5f 4f a7 bd
       0.097932 -0.30551568 0.20450796 -0.08169436

decoder_conv.0.weight f4 [32, 16, 3, 3]
000000 0e 98 58 3c 72 31 8a be 94 c2 19 bd 3a 12 5a bc
       0.013219846 -0.2699085 -0.03753908 -0.01331001
000010 ca af 90 3d 40 52 da bd 57 45 29 be ee 16 4e be
       0.07064779 -0.10660219 -0.16530357 -0.20125934
000020 38 d5 76 bd 4d 44 05 3e 1e f1 58 3e e5 ec 13 3e
       -0.060261935 0.13014336 0.21185729 0.14445837
000030 42 8f 58 bd 2e 4c 93 3d 2c 33 f5 bc f4 43 35 bd
       -0.052870996 0.071922645 -0.029931627 -0.04425426
000040 ec cb 5d bd 28 b2 3c bb 92 1a b0 3d dc 99 29 3e
       -0.054149553 -0.0028792713 0.08598818 0.16562599
000050 8f 1d 04 3d 34 85 6e bd e6 30 0e bd 48 a3 78 3c
       0.03225475 -0.0582325 -0.034714602 0.015175648
000060 ac 74 ef bd 2a 35 de bd e2 be 0c be af cb 30 bc
       -0.11692175 -0.10849984 -0.13744691 -0.010790749
000070 3d fd 65 3e 2e 28 e3 3d 66 52 89 3d d4 4f b8 bc
       0.22459884 0.11091648 0.067051694 -0.022499003
000080 f7 71 60 bd aa 10 dc bd b1 4a de 3d c9 7b f5 3c
       -0.054796185 -0.10745366 0.1085409 0.029966252
000090 c3 93 55 3c 2b 60 f5 3d b1 8f d6 3d 3d 55 05 be
       0.013035717 0.11981233 0.10476626 -0.13020797
0000a0 95 1f 94 3d d4 e0 03 be 24 91 09 bd 6f d7 5d bd
       0.07232586 -0.12878734 -0.033585683 -0.05416053
0000b0 30 3f d1 bc 49 72 97 bd c0 df 70 bd f1 cc 68 bc
       -0.025542825 -0.07394845 -0.058807135 -0.014209018
0000c0 c9 01 d5 3c 97 95 15 be 90 97 8a bd ec 2e c1 bd
       0.026001828 -0.14607845 -0.067671895 -0.09432778
0000d0 43 46 73 bd d3 8a 57 3c ea 53 85 bd ec 51 c0 bd
       -0.05939318 0.013155657 -0.06510146 -0.09390625
0000e0 77 af bf bb 52 4a 6c 3d 5c 5e b0 bb 22 de 86 bd
       -0.0058497745 0.057688065 -0.0053823423 -0.06585337
0000f0 d4 cd c6 bd 32 87 ca 3c 0e 3d c9 bc 43 68 75 bd
       -0.09707227 0.02472267 -0.024565246 -0.059913885
000100 bb 10 37 3d 6f 5c a0 bd 3c 01 42 3c d8 c3 82 bd
       0.04469369 -0.0783013 0.011841115 -0.063850105
000110 75 23 31 3e fb 70 31 3b 30 60 f6 3c 4c 6e 4a 3d
       0.17298682 0.0027075398 0.030075163 0.049421594
000120 3c 41 c0 3d 8a 21 44 3e 33 9c ae 3b 1b 29 b2 bd
       0.093874425 0.19153419 0.005328679 -0.086992465
000130 e2 58 d6 bd 97 7a 12 bd f6 fc 59 3d 2e 8f cd 3b
       -0.10466172 -0.035761442 0.053219758 0.006273172
000140 fa 28 88 bd a8 04 8a 3d 47 8e a5 3c 32 45 b8 bd
       -0.06648441 0.06739169 0.020209445 -0.08997573
000150 47 50 e4 bd 26 77 a5 bb fc 38 b0 bd 59 a7 a1 3d
       -0.11148124 -0.005049604 -0.08604619 0.07893247
000160 2e 98 9f 3d be aa fb bc bc ba 84 3d c4 e7 e7 3d
       0.07792698 -0.030721065 0.06480929 0.11323503
000170 94 14 c7 3c 3e 80 5a be 02 fb dc 3c ac 0b e4 bd
       0.024301805 -0.21337983 0.026975159 -0.11135039
000180 0f fb 8e bd 98 e3 90 3d a3 95 3e 3d ae 33 4a 3d
       -0.069814794 0.0707466 0.046529423 0.04936569
000190 c9 9a f3 3d c8 73 31 3d e1 cc 52 bd 99 71 26 3e
       0.11894757 0.04332331 -0.05146492 0.16254272
0001a0 95 4d 6d 3c 9b f6 93 bb ac c2 82 3d 40 b2 52 3d
       0.014483829 -0.0045154816 0.06384787 0.051439524
0001b0 f4 8f 8c 3d 43 09 ed 3d f8 91 18 3e 93 a7 32 3d
       0.068633944 0.11574032 0.14899433 0.043616842
0001c0 44 9f 99 3d de ce fe 3d 2e cd bb 3c e2 5d 26 3d
       0.07501081 0.124418005 0.022924986 0.040616877
0001d0 6f f0 26 bd 57 78 34 bd 5f 3a 8e bd de 35 13 be
       -0.04075664 -0.044060078 -0.06944727 -0.14376017
0001e0 9c d8 34 bd 80 df 87 bd b9 67 c4 3d b7 0e 44 3c
       -0.044151887 -0.06634426 0.09590096 0.011966399
0001f0 20 1f 80 bc e5 e7 2e bd 50 a5 54 3e 25 dd f1 3d
       -0.015639842 -0.04270162 0.20766187 0.11809758
000200 2e 2c c0 3d c5 c5 a4 3c 02 35 37 3d 55 02 12 be
       0.093834266 0.020113835 0.044728287 -0.14258702
000210 e1 5d f2 3a e0 df 76 bc 3f ba 38 3d 98 14 8f bb
       0.0018491113 -0.015068024 0.045099493 -0.0043664686
000220 d4 0f 83 3d 1f f3 0a 3e df cd 87 bd 21 35 49 3b
       0.06399503 0.13569306 -0.06631064 0.0030701833
000230 54 3c d6 bc 18 4a df bd 4e bc 41 3d 7a dc ca bc
       -0.026151814 -0.10902804 0.047298722 -0.024763335
000240 a5 86 08 3d a3 14 43 bd 5f 4b 60 bd e1 c3 86 3d
       0.033331532 -0.047627103 -0.05475938 0.0658033
000250 d7 ec 81 bc d1 6e a0 bd 38 59 91 bb 29 b7 02 bc
       -0.015860004 -0.078336366 -0.0044356845 -0.007978239
000260 4d 14 42 bd e0 9b 9a 3d 95 9f 08 3d f2 a8 0f 3e
       -0.04738264 0.07549262 0.033355314 0.14029291
000270 f5 4e ba 3c 8e bc 2e 3d 72 33 62 bc 78 b5 de bc
       0.022742728 0.04266029 -0.013806211 -0.02718614
000280 94 b6 a3 3d 55 73 2a 3d 6d f9 3e bd 23 c6 0a 3d
       0.079938084 0.041613895 -0.04662459 0.033880364
000290 2e bf 13 3e 81 fc 31 3d 2c d6 a4 bc 9b 71 b7 bc
       0.14428398 0.043453697 -0.020121656 -0.022393038
0002a0 92 08 81 3d fe 7f 18 3e 32 7f ac bc 3e a5 6d 3d
       0.06300463 0.14892575 -0.021056745 0.058018915
0002b0 51 08 a8 3d a6 66 19 3e 66 0a d7 3d 96 1d cc 3d
       0.08204711 0.14980564 0.1050003 0.099665806
0002c0 62 62 18 3d 60 8d af bb e6 ad 99 bd 82 64 b4 3c
       0.0372032 -0.0053574294 -0.075038716 0.022020582
0002d0 05 ff 64 3d 59 cc b0 3d 0e 87 48 3d 5a ef ee 3b
       0.055907268 0.08632726 0.048956923 0.0072917165
0002e0 3c 77 34 bd 75 38 b6 bd ff b5 c1 3c cd c1 09 3d
       -0.044059023 -0.08897487 0.023646353 0.03363209
0002f0 e8 bc 46 bc 38 f5 dc 3d 28 9c 61 be bc 03 28 be
       -0.01213 0.10788959 -0.22032225 -0.16407675
000300 12 5c 82 3d c8 2e c9 3c 5c d7 8e bd 2e 74 5d 3d
       0.06365217 0.02455844 -0.0697467 0.054065876
000310 4a 4a cf bc 16 31 c4 bc 7d 66 53 3c 93 5d 92 bd
       -0.025303978 -0.023949187 0.012902853 -0.07146754
000320 8f bc 4f bd 85 41 b1 3c c1 21 7e bd 1b f8 af bd
       -0.050716933 0.021637687 -0.06204391 -0.08592244
000330 42 f3 2a bd e4 fb 69 3d 82 c9 b2 3d fd 4a 7a bd
       -0.041735895 0.057124987 0.08729841 -0.06110667
000340 e0 27 06 be f8 f6 ca bd 62 3d aa bc 6e 97 b4 3d
       -0.13101149 -0.09910387 -0.020781223 0.088179454
000350 84 89 11 bd 22 ae 32 3d 06 08 b5 bc 66 2c 74 3d
       -0.035531536 0.043623097 -0.022098552 0.059612654
000360 a4 98 24 3d 29 cd d2 3d 91 39 31 3d c1 38 a8 3d
       0.040184632 0.102930374 0.04326779 0.0821395
000370 9c b8 4a 3d 77 f1 6f bd af 94 1a 3d 55 ca 4d bb
       0.049492463 -0.05857989 0.037739452 -0.0031401117
000380 60 a5 cc 3c f6 73 70 bb 35 82 cf 3d 75 1b fe 3c
       0.0249812 -0.0036690212 0.10132257 0.031018952
000390 5d 7b 01 3d 9f 73 9d 3d db ab f8 3d 32 61 f1 3c
       0.03161179 0.076880686 0.12142154 0.029465292
0003a0 97 ec 72 3d 3b b1 8e 3d 2e bc f6 3b 4b 50 01 bc
       0.05930766 0.06967398 0.007529757 -0.0078926785
0003b0 fa 36 53 3d 50 aa 1b bc 9d 4a e6 3d 61 bc 3c bd
       0.0515661 -0.009501055 0.112447 -0.04607809
0003c0 47 f3 98 3d bd eb 89 bc 61 71 bc bd 82 ca 87 bc
       0.074682765 -0.016836042 -0.09201313 -0.016576055
0003d0 11 f0 d4 3d 12 1f 29 3e f2 3f a2 3d 18 bd 19 bc
       0.103973515 0.16515759 0.07922353 -0.009383462
0003e0 e4 8a fd 3b 16 95 99 3d 6e 4e 87 3c 68 b7 78 3d
       0.0077375043 0.07499139 0.01651689 0.060721785
0003f0 0f 4d 8a 3b 8a cd 30 3d 4b 8c 12 3d 8c b6 26 3d
       0.004220612 0.043164767 0.035778325 0.040701434

decoder_conv.0.bias f4 [16]
000000 da f8 e8 3d 84 6f a7 3d b3 84 64 bc 16 c7 da 3d
       0.1137559 0.08175567 -0.013947654 0.10682504
000010 ee 7e d9 3d b7 ed 83 3e cc 7b 15 3e d8 c0 a6 3d
       0.10619913 0.257673 0.14598006 0.08142251
000020 f2 6f e0 3d 39 83 ba 3d 00 4b f8 3d e6 a0 91 3d
       0.10958852 0.0910706 0.1212368 0.07110767
000030 ac e2 d3 bc 11 d3 17 3e 09 72 69 3d a0 c4 c5 bc
       -0.025864922 0.14826609 0.056993518 -0.02414161

decoder_conv.2.weight f4 [16, 8, 3, 3]
000000 ac 82 c7 bc 71 76 1f be 25 87 3d 3c 4a d3 1f bd
       -0.024354301 -0.15572526 0.0115678655 -0.03901986
000010 ad 55 af be a5 11 e8 bd 8f 5a 0a be 10 37 9b be
       -0.34245053 -0.113314904 -0.13511108 -0.30315447
000020 6c b7 0b be 98 f9 e9 bc d6 65 67 3d 68 84 f3 3c
       -0.13644189 -0.028561398 0.056493603 0.029726222
000030 a7 c7 b8 3d 75 d5 b9 3e 57 e1 57 3e 44 c4 b4 3d
       0.09022456 0.36295667 0.21082054 0.08826497
000040 04 cd a8 3e 30 72 17 3e a7 11 f7 3c 5e 3a 07 3c
       0.32968915 0.14789653 0.030159784 0.008253662
000050 f5 de 82 bd f0 47 25 bc 81 c4 6e 3d 19 11 f8 3c
       -0.06390182 -0.010087952 0.05829287 0.03028159
000060 99 49 6f 3c 1d 26 cf bd 94 59 47 3d bd 5e a3 3d
       0.014604949 -0.101146914 0.048669413 0.07977054
000070 29 56 01 3d d3 37 3b 3c c1 89 24 be d1 0e 6e bb
       0.03157631 0.011426884 -0.16068174 -0.003632475
000080 7d 97 03 3d fb 09 f8 3d 7c 34 57 3e 1d b9 42 3e
       0.032126892 0.121112786 0.21016115 0.19015928
000090 d3 24 fb bd d5 75 e9 bd ac 80 5e 3d b6 53 a3 3d
       -0.12262883 -0.11399428 0.05432193 0.07974951
0000a0 32 52 39 3e 99 61 58 3e 4f f0 da 3d 34 06 8b 3e
       0.18097761 0.2113098 0.106903665 0.2715317
0000b0 bb cc 87 3e b2 aa ac bd 2b 56 f7 3b e5 e6 2d bc
       0.26523384 -0.08430995 0.007548114 -0.010614132
0000c0 84 2e 30 bd d8 58 11 be 31 92 98 3b cb 54 f0 bc
       -0.04301311 -0.14194047 0.0046560992 -0.029337307
0000d0 43 66 45 be 26 08 fc bd 23 3c 7f 3d 87 2d 93 3d
       -0.19277291 -0.12306242 0.06231321 0.07186418
0000e0 db f1 f0 bc 76 d4 95 3d b9 e5 0d 3e 43 84 f4 3d
       -0.0294122 0.07315914 0.13857163 0.119392894
0000f0 3b a5 37 3e a9 48 cf 3e 21 d6 a7 3e 95 04 b9 bd
       0.17934124 0.40485123 0.32780555 -0.09034077
000100 b0 29 11 bd ad b1 dd bb a4 72 07 3e 79 d5 ba 3d
       -0.035440147 -0.0067655654 0.13227326 0.09122748
000110 c0 17 00 3e 70 d4 53 3e 19 89 4f 3e 80 64 30 3e
       0.1250906 0.20686507 0.20267142 0.17225838
000120 ee 1c 38 bd 61 6a 03 be d1 0d 32 be db 93 1d 3d
       -0.044949464 -0.12833549 -0.17388083 0.038471084
000130 08 d2 0e be 1f e1 44 be 95 d5 4c 3b cf a4 88 bd
       -0.13947308 -0.19226502 0.0031255234 -0.0667206
000140 08 42 3e be 69 75 ed 3d 6d cd 3b 3e 2b c1 98 3d
       -0.18579876 0.1159466 0.18340082 0.07458719
000150 e5 54 66 3d 80 85 46 3e c3 f0 35 3e 12 fa 71 3c
       0.056233305 0.19386864 0.17767625 0.014769094
000160 83 5e 08 3d 33 89 7e 3c dc 7a 97 3d a7 8e 7b 3d
       0.03329326 0.0155356405 0.073964804 0.06141534
000170 a3 88 e1 3d 8b 5e a7 bd d5 0a 73 3d 54 6c 1b 3c
       0.110123895 -0.081723295 0.059336502 0.009486277
000180 dc e1 2f bd e4 74 85 3d 6e 2e 32 bb f4 89 03 3d
       -0.042940006 0.06516436 -0.0027188319 0.032113984
000190 d7 d0 f0 3d 71 6a 6a 3d 73 ce d5 3d 16 28 8e 3e
       0.11758583 0.057230417 0.10439768 0.27764958
0001a0 58 54 34 3e ae c2 06 3e 9a 3e 15 3e 5d 32 c9 3d
       0.176103 0.13160202 0.14574662 0.09824059
0001b0 e3 69 11 bd 96 11 d6 3d c2 f2 c5 3d 6e c2 13 3e
       -0.035501372 0.10452573 0.09665443 0.14429638
0001c0 86 4f 1a 3d e5 94 3d 3c 82 e0 3b 3d 80 42 79 bd
       0.037673496 0.011571144 0.045868404 -0.060854435
0001d0 e4 d2 e0 3d 7c 56 bf 3c 65 9e 91 3c dc 80 75 bd
       0.10977724 0.023356669 0.017775724 -0.059937343
0001e0 26 a5 48 3d 9e c6 29 3e 9f c2 51 3d 7a 70 ce bd
       0.048985623 0.16579673 0.051210996 -0.10080047
0001f0 46 dc 88 bd 9b 82 e2 bb 2d 45 40 bd 76 c7 85 3d
       -0.06682639 -0.006912542 -0.04694097 0.06532185
000200 de 30 07 bc 1c 45 a6 bd da d9 46 bc d6 b0 a3 3d
       -0.008251397 -0.0811865 -0.012136901 0.07992713
000210 69 74 67 bd 84 6c e7 3d 4c 52 19 3e bb b2 d4 bd
       -0.0565075 0.112999946 0.149728 -0.10385653
000220 7e da 3b bc 02 58 3a 3d 34 2b c4 3d 9a 92 14 3e
       -0.011465667 0.045494087 0.09578553 0.14509049
000230 a6 f0 03 3e c9 c2 bd bc 52 56 15 3e d2 d8 3e 3d
       0.12884769 -0.02316417 0.1458371 0.046593495
000240 4a 77 eb 3d 7f 2b 45 3d f0 39 a9 bc cf 16 cc 3d
       0.11497362 0.048137184 -0.02065751 0.09965288
000250 ee 2a 9e bc 51 c7 dc bd 02 de 37 3d 17 bf 7f bc
       -0.01930758 -0.10780204 0.044889458 -0.015609524
000260 d7 e8 14 be dc d3 9e bc 00 0d 51 3d a5 df 17 3e
       -0.14541946 -0.019388132 0.05103779 0.14831407
000270 ff a0 35 bc 77 d6 70 3d 4e 4e 47 3e ba 94 27 bd
       -0.011085748 0.05879828 0.19463465 -0.04091332
000280 25 d1 46 3e f7 00 a0 3e b5 e7 17 bd ef f3 b8 bc
       0.1941572 0.31250736 -0.037086207 -0.022577254
000290 9e 07 ab bb d7 4e 2c bc ac 00 84 3d 92 8a 8d bb
       -0.005219414 -0.010516844 0.06445441 -0.0043194974
0002a0 ab db 33 bd b3 37 a3 bd 34 ef 87 3d d3 13 49 3d
       -0.043910664 -0.07969608 0.06637421 0.04909117
0002b0 f3 f0 4d 3d e8 6a 3e 3e 0c cf 62 bb f0 18 b6 3d
       0.050278615 0.18595469 -0.0034608273 0.08891475
0002c0 b2 51 a5 3e ff 55 ae bd af 4f ed 3d 47 fb 8e 3e
       0.3228889 -0.08512496 0.11587464 0.27926084
0002d0 25 25 de bb 78 07 60 3d 95 03 22 3e 7c c7 bc 3d
       -0.0067793303 0.054694623 0.15821679 0.09217736
0002e0 03 90 db 3d 2d 81 d2 3d 80 6c 93 3d 83 7f 12 3e
       0.107208274 0.102785446 0.07198429 0.14306454
0002f0 06 1e 81 3e 6b e5 a0 bd 31 a0 2a 3d bf 68 96 3e
       0.2521822 -0.07856258 0.041656677 0.2937679
000300 a0 d9 fa bd 2b 53 87 bb 46 7c 88 3e 2f a2 d0 bd
       -0.1224854 -0.0041297874 0.26657313 -0.10187184
000310 b0 cf d5 3d f4 b0 e5 3d 7b 06 ad bc 3a a4 43 3e
       0.10440004 0.11215392 -0.021121254 0.19105616
000320 df 69 01 3e ae 5f 38 3d 55 6b 2a 3e d6 4b a1 3e
       0.12638043 0.045013122 0.16642506 0.3150317
000330 7f 73 aa 3d 1a 01 ca 3e 78 4b c6 3e bd 17 f9 bb
       0.083228104 0.39453965 0.38729453 -0.007601707
000340 f3 63 e3 3d a3 dc 6c 3d d9 67 17 bd eb 80 89 3a
       0.11103048 0.057827603 -0.03696427 0.0010490691
000350 14 80 58 3e 5b 3b ee 3c 6f a2 4f 3e 23 35 7d 3e
       0.21142608 0.029081037 0.20276807 0.24727301
000360 71 44 88 bd 6a dd 16 3c d0 6b 67 bc 65 0c 46 3e
       -0.06653679 0.009208063 -0.014124826 0.19340666
000370 bf d0 08 3e 4b 14 ae 3d 49 ac 0a 3e 73 04 3a 3e
       0.1336088 0.08499964 0.13542284 0.1816576
000380 e5 08 a9 3d 55 35 cf 3d 00 27 0c 3e 43 39 97 3d
       0.082536496 0.10117594 0.13686752 0.07383969
000390 cd ea 18 3e 36 a4 a9 3e 58 71 e2 3d 5d 4a 2e 3d
       0.1493332 0.33133096 0.11056775 0.042551387
0003a0 97 08 01 3e eb 09 92 3d 7c ec af bd be 8c ea 3a
       0.12600933 0.07130798 -0.08590028 0.0017894728
0003b0 0b 28 08 3d c5 d2 ad bd 29 92 bb bd 7c aa 6f bd
       0.033241313 -0.08487467 -0.09158737 -0.058512196
0003c0 d0 0d 85 bd 44 62 88 bd 7e 46 05 3c 4c 70 35 3e
       -0.06496775 -0.06659368 0.008134482 0.17718619
0003d0 d8 d7 d1 3d b4 33 6b 3d 96 7b 0e 3d 77 bc 5d 3e
       0.10246247 0.057422355 0.03478583 0.21653925
0003e0 45 f2 72 3d d9 18 e7 3c 7b 06 05 3e 40 84 91 3d
       0.059313077 0.02821009 0.12990753 0.07105303
0003f0 c7 d7 cc 3a 88 d8 50 3e 91 35 b3 3d 60 19 2d bc
       0.0015628272 0.203951 0.08750451 -0.010565132

decoder_conv.2.bias f4 [8]
000000 43 e7 08 be 62 02 b9 bd 0c 05 63 3d 9c 07 a4 3d
       -0.1336947 -0.090336576 0.055424735 0.08009264
000010 70 5c 65 bc 18 ad 30 3e e3 20 18 3e 1e e5 53 3c
       -0.01399909 0.1725353 0.14856295 0.012933044

decoder_conv.4.weight f4 [8, 1, 3, 3]
000000 43 b9 19 3e cd be 9a 3e d1 e2 07 3e 7e 98 dd 3e
       0.15012078 0.30223694 0.13270117 0.43280405
000010 48 e4 2d 3f 07 be 93 3e f7 c9 99 3e 70 29 d2 3e
       0.67926455 0.28855917 0.300369 0.4104724
000020 be 28 14 3e 3d 70 aa 3d 5d 48 5e be 2d 99 3e be
       0.14468667 0.08322189 -0.21707292 -0.1861312
000030 cb c3 17 be 84 aa 3a bf 78 47 cb be 67 7a c4 bd
       -0.14820783 -0.72916436 -0.39702964 -0.09593659
000040 40 f0 fb be d6 0d 3a be 83 79 a1 be 1a a4 05 be
       -0.49206734 -0.1816934 -0.3153802 -0.13050881
000050 88 9b bb be 86 c7 37 3c fe a8 03 3d 05 f0 0c be
       -0.36642098 0.011217004 0.032143585 -0.13763435
000060 4e 2d 9f bd 6f c5 3c 3e b1 27 06 bd 51 ca 88 be
       -0.07772313 0.1843469 -0.032752696 -0.26716855
000070 79 be a0 be 2b b7 22 be 51 ca f7 be ad c9 20 bf
       -0.3139532 -0.15890186 -0.48396543 -0.6280773
000080 d8 ce 47 be 8a 64 69 be 7e 84 1e be 77 a1 89 3d
       -0.19512498 -0.22792259 -0.1548023 0.0672025
000090 4e 2b 99 be 06 bc 82 be 38 dc 31 bc 1b a7 f2 be
       -0.2991585 -0.25534075 -0.010855727 -0.47393116
0000a0 dc 3c d6 be 2f 93 95 b9 80 f9 b4 be 87 a6 ab be
       -0.41843307 -0.00028529155 -0.35346603 -0.33525488
0000b0 f1 99 3f bc 7b 87 14 be 27 f6 84 3d c0 39 ca be
       -0.011694417 -0.14504807 0.06492262 -0.39497185
0000c0 a2 62 d9 bc dc 63 7a 3e 3c 06 01 bf 0a e3 b5 3e
       -0.02653629 0.24452156 -0.5040014 0.3552478
0000d0 6d 40 32 3f 2d 34 6b 3e 84 cf 2e 3e 82 50 f4 3b
       0.69629556 0.22969122 0.17071348 0.0074558863
0000e0 8b 74 0f be d8 16 aa 3e 41 b2 c5 3c 21 b8 9a be
       -0.14009301 0.33220553 0.02413285 -0.30218604
0000f0 6f 5b 95 bd 51 d3 1e bf 34 ab 18 bf 59 8d 6d be
       -0.0729283 -0.62041193 -0.59636235 -0.23198451
000100 d0 98 bc be fb a2 d0 be 61 46 f4 be 92 e1 5c bf
       -0.36835337 -0.40749344 -0.47709945 -0.86281693
000110 40 6c 0d bf 46 3e 23 be 32 21 24 be 2e b4 5d be
       -0.552433 -0.15941724 -0.16028288 -0.21650764
